checkpoints/epoch_1.pth (torch, 24320 bytes, 7 tensors)

encoder.0.weight f4 [16, 1, 1, 1]
000000 7a 9e 38 bf 00 8f da 3b 37 a5 20 3f be 14 5d 3e
       -0.72116816 0.006669879 0.627521 0.21589944
000010 b8 10 5f bf 0a 8c 63 3f d0 8e 52 bf 99 e9 45 3f
       -0.87134886 0.8888556 -0.82249165 0.77309567
000020 6e 11 8a 3e 16 2f 0a 3f cd d3 5c bf 52 49 1d 3f
       0.26966423 0.539781 -0.8626068 0.6144
000030 d8 d0 1a bf a0 17 12 bf 34 4e a8 be 42 7f 19 bf
       -0.6047492 -0.570673 -0.32872164 -0.59959805

encoder.0.bias f4 [16]
000000 ca 94 39 bf 96 19 35 bf bb b5 de be e3 f8 7a 3f
       -0.7249266 -0.70742166 -0.43498024 0.9803602
000010 6e e7 3c bf df 01 ff 3c d8 5d 8c be 42 f1 93 be
       -0.73790634 0.031128822 -0.27415347 -0.28895003
000020 c4 c1 24 3f 90 ca b5 bd c8 c0 09 3f 6b 2f 5b 3f
       0.6435816 -0.08876526 0.53809786 0.8561923
000030 b4 d2 ba be b4 a0 cb be 24 c0 a0 be 8e 71 fd 3e
       -0.3648888 -0.39771044 -0.31396592 0.49500698

encoder.2.weight f4 [32, 16, 1, 1]
000000 50 64 8b 3d 74 10 31 be 10 b8 6c 3d 68 b5 52 be
       0.068062425 -0.17291433 0.057792723 -0.20577013
000010 90 cd a0 3c 4a ac 0c 3e 08 59 df 3d 6c 55 e3 bd
       0.01962927 0.13737598 0.10905653 -0.11100277
000020 ec bf d7 bd 84 af ea 3d 90 e3 7a 3d 0a e2 35 be
       -0.10534653 0.11459258 0.061252177 -0.17762008
000030 f0 5c da 3c e4 ed 1f 3e 32 a1 44 be 90 7e 36 3d
       0.026655644 0.15618092 -0.19202116 0.044554293
000040 da 0f 11 3e 90 c0 6c 3e c8 63 8d 3d 62 80 28 be
       0.14166203 0.23120332 0.069037974 -0.16455224
000050 a2 d5 51 3e 4e 5e 05 be 5c 38 e0 bd b8 7a f0 3d
       0.2049165 -0.13024256 -0.1094825 0.11742157
000060 48 2a 1c be 74 5e 97 3d 16 1e 2c be ec 89 23 be
       -0.15250504 0.073910624 -0.16808352 -0.15970582
000070 a4 47 a5 bd a0 e6 e7 3c 70 79 11 bd 4e 9a 12 be
       -0.08070305 0.028308213 -0.035516202 -0.14316675
000080 20 0f 2f bd 76 5a 7b be e8 9d b5 bd 00 b5 b1 3a
       -0.042739034 -0.24546227 -0.08868009 0.001355797
000090 f8 55 48 be a0 c9 36 3e f0 3d 8b 3d c4 f7 d8 bd
       -0.19564044 0.17850351 0.06798923 -0.105941325
0000a0 a0 2f 5f be a2 62 61 3e 40 9e 13 be 80 51 5c bd
       -0.21795511 0.22010282 -0.14415836 -0.053788662
0000b0 8e 49 14 be 28 47 ef 3d a0 3e e4 bc 00 a6 89 3d
       -0.14481184 0.11683494 -0.027861893 0.06721115
0000c0 06 b9 61 3e c0 b2 66 bd 90 b5 03 bd c0 5e ca 3b
       0.22043237 -0.056322813 -0.032155573 0.006175846
0000d0 2e 04 32 be d0 56 ec bc 60 19 5c 3d d2 2e 71 3e
       -0.17384407 -0.02884999 0.053735137 0.23553017
0000e0 52 a2 73 3e 2c 36 8e 3d 80 d7 b8 bd 26 62 6e be
       0.23792389 0.06943926 -0.09025478 -0.23279628
0000f0 86 a5 41 be aa ef 32 be 74 b6 c2 3d 4c ad 9f 3d
       -0.18910798 -0.17474237 0.095074564 0.07796726
000100 18 72 68 3e 38 13 77 be 4c b8 0e 3e 7c 64 c0 bd
       0.22699773 -0.24128425 0.13937491 -0.09394166
000110 5e 36 2d be 62 1e 21 be e8 12 3f bd 40 87 aa bd
       -0.1691527 -0.15734246 -0.04664889 -0.08326578
000120 84 7f 82 bd 5c 1d 0c 3e 12 a1 71 3e e2 83 13 be
       -0.06371978 0.13683075 0.235966 -0.14405778
000130 dc fc 78 3e 10 d7 49 be a0 d3 96 3d 28 a7 11 be
       0.24315208 -0.19710946 0.07364583 -0.14223921
000140 a8 00 41 3d b0 40 98 3c 3c cc 07 3e 30 38 f1 bd
       0.047119766 0.018585533 0.13261503 -0.11778295
000150 aa 33 56 be 54 7d 1f be c4 85 f1 3d 14 9c 5f be
       -0.20918146 -0.15575153 0.11793092 -0.21836883
000160 a0 82 d8 bc 24 a6 91 3d 96 7e 56 3e 72 63 23 3e
       -0.026429474 0.07111767 0.20946726 0.15955904
000170 00 09 91 3a a2 2c 4c be 08 e8 66 be a8 8f 78 be
       0.0011065304 -0.19938901 -0.2254945 -0.2427355
000180 c0 d7 bd 3b c4 2f ca 3d cd c8 ae 3d f0 02 93 3c
       0.0057935417 0.09872392 0.085343935 0.017945737
000190 54 60 5f 3e 16 af 15 bd b8 c7 b6 3d 83 35 7d 3c
       0.2181409 -0.036543928 0.08924812 0.015454653
0001a0 b7 f7 f5 3d 4b 1b e2 bc e8 0f 44 be f1 8d a0 bd
       0.120101385 -0.027600905 -0.19146693 -0.07839573
0001b0 de 98 00 3e 5e 13 1f be 3a 15 03 be 12 d8 10 be
       0.12558314 -0.15534732 -0.12801066 -0.14144924
0001c0 74 cf b9 3d c0 9d 7e bc 2a 9c 63 be bc e5 95 bd
       0.09072772 -0.01554054 -0.2222754 -0.07319209
0001d0 b8 2f 3d bd 72 70 21 be 04 e9 22 3e ce 40 3c be
       -0.046188086 -0.1576555 0.15909201 -0.18384096
0001e0 22 4c 62 be 40 24 cf 3d b0 2e 4e 3e a8 e2 fd bd
       -0.22099355 0.10114336 0.20134997 -0.12396747
0001f0 78 57 3f be 8c 3f 88 bd 74 76 32 3e a4 bc 3e 3e
       -0.1868571 -0.066527456 0.17427999 0.18626648
000200 5c 4f 3b 3e f0 dc bd 3c 9a 12 48 3e 28 ee 32 bd
       0.18291992 0.02317664 0.19538346 -0.043684155
000210 10 0e 2c 3e 10 8a 3c be 60 67 b8 3d 2c 0d 78 be
       0.1680224 -0.18412042 0.09004092 -0.24223775
000220 22 75 5e be 88 22 ec 3d 3c f3 59 be 86 39 21 be
       -0.2172437 0.11530024 -0.21284193 -0.157446
000230 88 56 18 bd 68 2a d7 3d fe 7c 02 3e 7a 85 21 be
       -0.037191898 0.10506135 0.12742993 -0.15773574
000240 80 3f a0 bc 7c a2 16 be a8 10 3c 3d e0 1c 6a bd
       -0.01956153 -0.1471042 0.045914322 -0.057156444
000250 00 2e 5f be c0 c5 73 3c 98 61 a1 3d 06 a6 68 3e
       -0.21794891 0.01487869 0.07879943 0.22719583
000260 a8 50 73 be 28 df 23 3e b8 a9 3d 3d 44 7a 4b be
       -0.23761237 0.16003096 0.046304435 -0.1987086
000270 04 7f cd bd f8 62 16 bd 20 7e 80 3c 40 3a 7c 3d
       -0.10033992 -0.036715478 0.015685141 0.06157899
000280 b4 28 b5 3d 00 ea 4d 3c 54 0a 0f 3e e7 fd 1c bd
       0.08845654 0.012567997 0.13968784 -0.038328078
000290 3e c0 4b 3e fa fb 1a 3e 76 a4 68 be b2 71 74 3e
       0.19897553 0.15135184 -0.22718987 0.23871496
0002a0 a4 a4 c6 3c 71 45 61 3e d8 81 d9 3c 28 8d da 3d
       0.024248429 0.21999146 0.026551172 0.10671455
0002b0 6c 7b 9e 3d 18 02 7c be 14 e6 45 be 90 68 37 bd
       0.077383846 -0.24610174 -0.19326049 -0.044777453
0002c0 b4 b6 b5 bd 48 b3 7a bd 0c 9a cd bc 8f cf a0 3c
       -0.088727385 -0.061206132 -0.02509787 0.019630222
0002d0 b2 f5 13 3e e0 34 cd bd d8 90 42 be e8 28 5e 3e
       0.14449194 -0.10019851 -0.19000566 0.21695292
0002e0 3f 55 6a be f4 0a 67 3e 1b 24 01 be 1d 54 1f 3e
       -0.22884081 0.22562772 -0.1261143 0.1555943
0002f0 e8 f8 07 3e be 96 0c 3e 86 f3 1b 3e 69 0c fd bd
       0.13278544 0.13729379 0.15229616 -0.12355883
000300 78 b7 cf bd e0 69 89 bc 49 36 7d 3e 0e 72 4a bc
       -0.10142416 -0.016774118 0.2472774 -0.012356294
000310 0a 54 46 be b4 0b 4f be 80 e5 57 be 3f 72 20 3e
       -0.19367996 -0.20219308 -0.21083641 0.15668581
000320 a4 01 d4 bd 74 a5 66 3e a2 74 62 3d f3 59 c1 3d
       -0.103518754 0.22524053 0.05528701 0.094409846
000330 88 64 7c 3d 40 44 8a bc a4 6e 2a 3e 92 38 24 3d
       0.06161931 -0.016878247 0.16643769 0.040093012
000340 c6 b9 67 3e 50 be 12 be 3e 97 1e 3e 00 fc 07 be
       0.2262946 -0.14330411 0.15487382 -0.13279724
000350 0c 42 a3 3d f0 8c 94 bc 36 f7 12 3e e0 76 7d bc
       0.07971582 -0.01813361 0.14352116 -0.015470237
000360 40 d6 dd bc e0 03 93 3c 24 2c 53 3e 14 44 97 bd
       -0.027079701 0.017946184 0.20622307 -0.07386032
000370 68 94 07 bd 40 98 53 3c 74 8e c7 bd e2 5b 2f be
       -0.033100516 0.012914717 -0.09743968 -0.17124894
000380 80 fd 73 3e 82 91 16 3e b2 16 73 3d 63 61 da bd
       0.23827171 0.14703944 0.059347816 -0.10663106
000390 18 7f a0 3d f0 1d 02 3d 92 9c 6e be f3 3f 4a be
       0.07836741 0.031766832 -0.23301914 -0.19750957
0003a0 c4 42 56 3e b9 bf ca 3d 03 23 6a be a5 98 4c 3e
       0.20923907 0.098998494 -0.22864918 0.19980104
0003b0 80 79 f8 3d 20 a2 01 be 0c 2a cd 3d 7a 5c ad bc
       0.12132549 -0.12659502 0.100177854 -0.02116226
0003c0 d8 36 b5 bd 50 a6 83 bd 88 53 8d 3d 9c ef b2 bd
       -0.08848351 -0.06428206 0.06900698 -0.08737108
0003d0 d0 3e 02 3e 60 bf 0b bc 00 aa 58 bb b8 d2 ea 3d
       0.12719274 -0.008529514 -0.0033060312 0.11465973
0003e0 3c ea 02 3e ca 0b 18 3e 08 53 64 3d 00 25 50 be
       0.12784666 0.14848247 0.055743247 -0.20326614
0003f0 d0 02 0d 3e 98 47 21 bd 0c 38 89 3d 9c 78 82 3d
       0.13770604 -0.039374918 0.06700143 0.06370661

encoder.2.bias f4 [32]
000000 af 7e fa 3d 84 cc 73 be fc 41 ab bd d8 ca 32 bd
       0.12231194 -0.23808485 -0.08362195 -0.043650478
000010 30 c4 ed 3c 28 ef 03 be 00 03 38 3e dd 78 4a 3d
       0.029024214 -0.128842 0.17969894 0.04943167
000020 d4 71 e3 bd 30 9a 0f be bc e2 8d 3b f4 1e 7a 3e
       -0.11105695 -0.14023662 0.0043300074 0.2442587
000030 b8 59 7a 3d b0 4e b1 bd 37 47 8b 3c bc 13 8f bd
       0.06112072 -0.086575866 0.017001731 -0.06986186
000040 05 fd 63 3e d4 96 0f 3e 2c 6d c1 3d ff ca 89 3b
       0.22264488 0.1402238 0.09444651 0.004205107
000050 f0 ed 19 be d9 e9 90 3d e0 7b f5 bd 39 a3 2e 3e
       -0.15032172 0.07075853 -0.11986518 0.17054452
000060 47 c9 eb 3d 14 79 c7 3d 8d ae 1d 3e f0 a1 60 bd
       0.11513 0.09739891 0.15398617 -0.054841936
000070 b7 55 aa 3c 73 37 38 3e 78 40 b2 bd 54 11 3e be
       0.020792825 0.17989902 -0.08703703 -0.18561298

decoder.0.weight f4 [32, 16, 3, 3]
000000 a8 5a 61 bc f7 d1 69 3b 7f 08 c7 3c 40 2c df bc
       -0.013754524 0.0035678127 0.024296043 -0.02724278
000010 c0 33 e5 3b 4a d3 78 3d 9c 92 57 3d 42 82 4e bd
       0.0069946945 0.060748376 0.052630052 -0.050417192
000020 a0 c4 97 bd 26 dd 5f bd 78 23 93 3d 3b cc 24 3d
       -0.0741055 -0.054654263 0.071844995 0.04023383
000030 3d c9 a9 3c 83 01 39 3d b0 45 cf 38 9f 7e 72 bd
       0.02072584 0.045167457 9.8835095e-05 -0.059202787
000040 da 50 0a bd 8e 01 e7 bc 56 97 51 3d e1 cc a9 bc
       -0.033768512 -0.028198984 0.051169716 -0.020727577
000050 27 96 1d 3d 8e e7 a2 bd d0 5c c2 bc ad 7f bc 3c
       0.038473275 -0.07954322 -0.023725897 0.0230101
000060 eb 55 97 bd 6b e1 c8 3c 78 10 6c bc 77 58 98 bd
       -0.073894344 0.02452155 -0.014408223 -0.07438748
000070 30 e9 e8 3c 80 de 54 ba 18 11 20 3c b6 42 c5 bc
       0.028431505 -0.0008120313 0.0097697005 -0.024079662
000080 ef 78 d2 3b 04 66 bb 3c 0e 5c f2 bc d6 8a f6 bc
       0.006423108 0.022875793 -0.02958491 -0.030095499
000090 7e eb 3f 3d eb 34 91 3d 5b 93 a8 bd b2 d0 09 3d
       0.046855442 0.070901714 -0.08231231 0.033646293
0000a0 58 89 16 3c 73 50 2d bd 69 6c 82 3d df e0 3e bd
       0.009188019 -0.04231305 0.06368334 -0.046601173
0000b0 ac 8b a3 bd 06 ce 95 bd 76 a1 23 3d 2c 7b d3 3b
       -0.07985625 -0.073146865 0.039948903 0.006453892
0000c0 3e 86 73 3d 4b 80 9b 3d 36 e9 06 3d 39 38 7e 3c
       0.059454195 0.07592829 0.03293725 0.015516334
0000d0 30 a9 65 bd ba 2a 79 bd 85 d7 95 3d 66 f8 1d bd
       -0.056069553 -0.060831763 0.07316498 -0.03856697
0000e0 80 3e 55 bd 40 04 33 3c 60 89 76 bc 4e ee 3d bd
       -0.052061558 0.010926306 -0.015047401 -0.046369843
0000f0 bb 7c 4e bd 46 33 52 bd 40 2e 2c bd f6 8b 84 bd
       -0.05041192 -0.05131843 -0.042036295 -0.06472008
000100 d4 77 f3 3c 4d 05 21 3d 3f 57 d6 3c cf 57 21 3d
       0.029720224 0.039311696 0.026164649 0.03939038
000110 7b c8 fa 3c 71 09 92 3d b6 81 90 bd 0e 70 40 bd
       0.030613175 0.07130707 -0.070559904 -0.046981864
000120 a0 d4 ff 3c bb c1 3b bd 86 40 43 3d 2d 47 8a bc
       0.031229317 -0.045839053 0.047668956 -0.016879642
000130 49 18 e5 3c 63 88 3f bb c9 dc 41 3d 50 62 3e bd
       0.027965682 -0.002922558 0.047329698 -0.046480477
000140 6d 33 e9 bc 4f 49 a7 bd d6 48 3f bd de db 6a 3d
       -0.028466905 -0.081682794 -0.04670032 0.057338588
000150 8a 47 73 bd da 20 d2 ba 66 84 f0 3a 33 0f 3c 3d
       -0.059394397 -0.0016031519 0.0018350005 0.045912933
000160 7e 3c b7 bb 71 28 1a 3d e0 ce 8c bd a1 f9 22 3d
       -0.005591928 0.037636224 -0.06875396 0.039788846
000170 1a b7 6c 3b 08 cc 22 3d c9 4a 54 3d 81 9d 4e 3c
       0.003611988 0.03974536 0.051829133 0.012610794
000180 3e 57 4a 3d fb 83 15 bd bf aa f9 bc e3 1e 41 bd
       0.049399607 -0.03650282 -0.030476926 -0.047148596
000190 08 c3 1a bc c6 5a 02 3d 85 89 8a 3d b3 64 01 bd
       -0.009445913 0.03182485 0.06764511 -0.031590175
0001a0 47 ca 9e 3d c6 0f 49 3d 48 07 25 bd ad 54 97 3d
       0.07753425 0.04908731 -0.040290147 0.073891975
0001b0 3a 17 34 3d f4 a7 90 bd b6 5a 2d 3d 19 57 b1 3c
       0.043967463 -0.070632845 0.042322837 0.021647977
0001c0 f3 8b 92 3d 93 7c 6d 3d 79 bc db 3b 46 98 3c 3d
       0.071555994 0.05798013 0.0067058173 0.046043657
0001d0 75 d2 33 bd 60 40 3a bb 28 87 a3 bd 6a ab 50 3d
       -0.04390188 -0.0028419718 -0.079847634 0.050944723
0001e0 28 fa 77 bd 60 74 54 3b 60 83 e8 3c 36 6d 63 bd
       -0.060541302 0.0032417998 0.028382957 -0.055524074
0001f0 7c 71 96 bc ca 4d 8d bc 50 73 29 bd a7 9f 04 bd
       -0.01836466 -0.017249007 -0.041369736 -0.03237882
000200 2b bf 97 bd 2c e1 aa 3c 43 76 12 bd d4 38 98 bd
       -0.07409509 0.020859323 -0.035757314 -0.07432714
000210 2b db 36 bd 0c d3 52 3d a6 64 d5 bc 38 1d 74 3c
       -0.04464261 0.0514708 -0.02604897 0.014899544
000220 00 09 86 bd 50 cf ef bb ff 33 aa 3d ae 0e 02 3d
       -0.06544685 -0.0073184147 0.08310699 0.03175228
000230 18 98 a5 3d 1d 0a c5 3c ad 19 a2 bd 5e 6a 29 bd
       0.0808565 0.024052674 -0.079150535 -0.041361205
000240 1b 03 3a bd 78 7c 0c bc b1 6a 84 3d 6a a6 7b 3d
       -0.045413118 -0.008574598 0.06465662 0.061438
000250 c8 a6 41 bd 33 52 96 3d da 83 a3 bd 31 0a a8 3d
       -0.047278196 0.07339897 -0.07984133 0.08205069
000260 f1 76 8c 3d 60 59 01 bd 43 b4 4f bd b7 17 8b 3d
       0.06858624 -0.031579375 -0.05070902 0.067916326
000270 9a 98 2e 3d 80 b4 10 bb 38 dc 70 bc ab 42 4f bd
       0.042626 -0.0022080243 -0.014700942 -0.05060069
000280 74 37 89 bc 4e f3 70 3d bb c8 33 bd d0 96 e0 3c
       -0.016750075 0.058825783 -0.043892603 0.027415663
000290 aa 50 4c 3d 90 1b 40 bd ce 9d 61 bd a0 8d b6 3c
       0.049881615 -0.046901286 -0.055082135 0.022284329
0002a0 06 c9 bd bc ab 57 8d bd ed 4a 9d 3d b9 00 a7 3d
       -0.023167145 -0.06901487 0.076803066 0.08154435
0002b0 89 75 a9 3d e0 9a 4e bb 78 67 36 bd 37 d0 a1 3d
       0.08274371 -0.0031525418 -0.04453227 0.07901042
0002c0 98 42 7a bc 95 eb a3 3d 22 53 85 bd c0 5d c3 ba
       -0.015274666 0.08003918 -0.06509997 -0.0014905259
0002d0 11 be a9 3d 91 20 89 3d 52 b8 31 3d 76 d6 7e bd
       0.082882054 0.06695665 0.043388672 -0.062216245
0002e0 d3 98 a3 bd aa 0c 9a bd 83 68 80 3d 60 36 7e bb
       -0.07988133 -0.07521947 0.06269934 -0.0038789734
0002f0 20 b3 4b 3b b7 d2 83 bd aa 1c 24 3d e1 b9 9e 3d
       0.0031082109 -0.06436675 0.0400664 0.07750297
000300 db 72 01 bd 68 e1 53 bd 18 32 00 3c 00 80 6f b9
       -0.031603675 -0.051728636 0.007824443 -0.000228405
000310 e2 d6 83 bd dc 54 9b bc ab b0 a0 3d 9f 60 9d bd
       -0.0643747 -0.018961363 0.07846197 -0.07684445
000320 be f9 52 3d 90 db f3 3b 24 f9 a3 bc b8 34 6e bc
       0.051507704 0.0074419454 -0.02001626 -0.014538936
000330 46 f6 33 3d 9e d5 77 3d c8 1d 0f 3c 80 3e fa bc
       0.043936037 0.060506456 0.008735128 -0.03054738
000340 30 61 8e 3c 1a ba 41 3d 00 40 25 ba 40 49 06 3c
       0.017380327 0.04729662 -0.0006303787 0.008196175
000350 2d 38 82 3d c8 59 7e 3c 60 72 49 bc ba 77 58 3d
       0.06358371 0.015524335 -0.0122953355 0.052848555
000360 7a a3 3a 3d 8e 15 70 bd de 8b 7d bd f6 8b 3e bd
       0.04556606 -0.058614306 -0.061900966 -0.046520196
000370 0e 2e a0 bd 84 76 97 bc f0 49 eb bc 70 20 ff 3b
       -0.07821284 -0.01848913 -0.02872178 0.0077858493
000380 4f 83 90 bd 02 80 21 3d bc 64 e6 3c 96 78 e8 bc
       -0.07056295 0.03942872 0.028124206 -0.028377812
000390 87 0c 81 bd 72 63 3e 3d 86 f3 27 bd 68 95 71 bd
       -0.063012175 0.046481557 -0.041003726 -0.058980376
0003a0 36 61 24 3d 59 af a5 3d 33 3f 73 bd 22 f5 8f bd
       0.04013177 0.080900855 -0.059386443 -0.07029177
0003b0 ef 0f a4 3d 42 48 25 3d b0 63 a2 bc 70 f0 e9 3b
       0.080108516 0.040352114 -0.019822925 0.007139258
0003c0 20 e7 e2 3c 86 70 6f bd 66 01 8f bd 14 56 a3 bc
       0.0276981 -0.05845692 -0.069826886 -0.019938506
0003d0 c0 75 4b bd a0 25 01 3d 2e 27 60 3d 1a 5f 1c 3d
       -0.049672842 0.031530023 0.054724865 0.038176633
0003e0 f0 3a e5 bc c0 bb 03 3c fe 86 4f 3d 77 34 97 bd
       -0.027982205 0.008040369 0.050665848 -0.07383054
0003f0 5e 85 01 3d 94 85 95 bc b0 f9 b7 3b ab fb 25 bd
       0.03162133 -0.018252172 0.005614482 -0.040523212

decoder.0.bias f4 [16]
000000 98 6c 26 bd bf 5e 57 3d 55 47 2f 3d 0a 2f 57 3a
       -0.040630907 0.05258059 0.042792637 0.00082086085
000010 d8 9f 16 bd 10 2b d7 bc 57 a4 b1 bc 22 b6 2e 3d
       -0.036773533 -0.026265651 -0.021684809 0.042654164
000020 9b 65 59 3d 98 c4 f8 3c d2 82 73 3d e4 3b ac bd
       0.053075414 0.03036718 0.05945093 -0.08409861
000030 b7 07 e5 3c b0 a5 60 bd 8d 20 14 bd 2c 5a 77 bb
       0.02795778 -0.054845512 -0.036163855 -0.0037742956

decoder.2.weight f4 [16, 1, 3, 3]
000000 3c 84 84 3e b2 43 15 be c1 54 97 3e a0 10 ac bd
       0.25882137 -0.14576605 0.2955685 -0.084016085
000010 81 6c 84 3e 9d d8 22 be bf aa 4c 3d eb 7a 87 be
       0.25864032 -0.15902944 0.049967524 -0.26460966
000020 34 43 7d 3e c8 fa e5 3d 1c c2 e8 3d ca 1a b6 3d
       0.24732667 0.11229473 0.113651484 0.08891828
000030 c9 c5 cc 3d 45 a8 a1 3d 12 6f 59 bd b8 70 84 3e
       0.09998662 0.07893423 -0.05308444 0.25867248
000040 fa 8f 9a be 10 22 ed 3b 3f 3a b5 3c 19 1c 2d 3e
       -0.3018797 0.0072367266 0.0221225 0.1690525
000050 e6 d4 9b be f4 a7 9a be aa 1a 07 be 75 96 a5 3e
       -0.30435866 -0.30206263 -0.13193765 0.32341352
000060 ed ab 08 3d a5 b2 52 be 86 a9 2e be ea 1b 97 be
       0.033367086 -0.2057596 -0.17056856 -0.29513484
000070 96 51 88 bd cc 7d 1c 3e 8b 6a 65 be 7b cf d3 bc
       -0.06656186 0.15282363 -0.22403924 -0.02585577
000080 72 18 99 3e 30 15 a2 3e 0d 8d 0f 3e 4c 0a 86 3e
       0.29901463 0.3165679 0.1401865 0.2617973
000090 90 00 db 3c 9d 88 ec bd 48 eb fc bd 1a 4f a1 be
       0.026733667 -0.115494944 -0.12349564 -0.31505662
0000a0 6e 41 a9 3e 4c e3 8a be 10 b3 c3 bd 65 b6 0a 3e
       0.3305773 -0.2712654 -0.09555638 0.1354614
0000b0 e1 5c 30 be 62 31 6b 3e 5a 9b 9f be e1 27 a8 3c
       -0.1722293 0.22968057 -0.3117321 0.020526828
0000c0 c4 e8 3b be f2 bb 91 be 58 b0 1f 3e d2 02 c0 3b
       -0.18350512 -0.28463703 0.15594614 0.005859711
0000d0 91 15 6f be c1 80 6f be 44 6e 8f be c8 15 8d bc
       -0.2334807 -0.2338896 -0.28013813 -0.0172223
0000e0 62 d4 85 be fa e1 db bc b5 86 0e 3e 7a a7 18 be
       -0.26138598 -0.026841152 0.13918574 -0.14907637
0000f0 ca 74 ef 3d 45 9d a1 be 79 fc f6 3d 3f b3 96 be
       0.116921976 -0.315653 0.12059874 -0.2943363
000100 15 21 2f 3e d0 55 3f be d4 91 a9 be 88 c9 87 be
       0.17102464 -0.18685079 -0.3311907 -0.26520944
000110 dd d5 ba 3d ca db 1f 3e 56 a5 f8 bd e3 bd 4d 3e
       0.091228224 0.15611187 -0.1214091 0.20091967
000120 42 07 99 bd b7 66 ef 3d 97 c2 62 be bd 3b 25 bd
       -0.074720874 0.11689513 -0.22144543 -0.040340174
000130 75 46 d8 3d 4f 9e fb 3d 07 6e 9d be 24 22 53 3d
       0.105603136 0.12286054 -0.30748007 0.05154623
000140 b2 d0 8b 3d 1c d2 86 be 5c 2c 62 bc 68 1b 88 be
       0.06826915 -0.26332176 -0.013804521 -0.2658341
000150 96 2b 9a 3e ee 6e 46 3d fc 2a 4c bd 3b 7e f7 3d
       0.30111378 0.048445635 -0.04984568 0.120846234
000160 56 ee a3 be 48 dc 38 3e 1d 17 9a 3e 7e 24 84 3e
       -0.32017773 0.1805278 0.3009576 0.2580909
000170 17 a6 80 3c 0d a5 68 3d 14 74 a7 bc a4 7c 5e be
       0.015704198 0.05679803 -0.020441093 -0.21727234
000180 8c 47 8c be a4 5b f3 bd 43 e9 eb bd 35 20 2d 3e
       -0.27398336 -0.118827134 -0.115191005 0.16906817
000190 e8 94 3d 3c d9 06 d5 3d 8c 0d d8 3d 9a 91 06 3d
       0.011571147 0.10401697 0.10549459 0.0328537
0001a0 93 f2 71 be 32 f5 c8 bd c8 0a a8 3e 5a 39 2f 3e
       -0.23627691 -0.09812392 0.32820725 0.17111722
0001b0 5d 73 a5 bc a7 a3 80 3e 12 67 4f be 70 0b 7a be
       -0.020196611 0.25124857 -0.20254162 -0.24418426
0001c0 79 8b 5d 3d c6 c8 6f bd 3b cd 56 3e d4 8b b4 bd
       0.05408809 -0.05854108 0.20976727 -0.088157326
0001d0 4d e3 38 3e 5f 80 99 be 46 fc f2 3c 5d 63 98 be
       0.18055458 -0.29980752 0.029661309 -0.29763308
0001e0 84 8b 96 3c 85 c9 f2 bb e3 d9 2e bd 4a 11 8f 3e
       0.018377073 -0.007409277 -0.04268826 0.27942878
0001f0 9b 16 12 be 40 fb 22 be dc d6 87 be 10 1e f0 bd
       -0.14266436 -0.15916157 -0.26531112 -0.11724484
000200 a7 ac c3 3d f5 b5 84 be e9 6f d7 ba 04 ce 79 bd
       0.09554415 -0.25920072 -0.001643655 -0.060987487
000210 2d 1e 17 3e 16 d0 e3 3d 29 9a 54 be e9 d5 2f be
       0.14757605 0.111236736 -0.20761932 -0.17171444
000220 b0 bf d4 bd 78 75 14 be b1 da fa 3d d2 d5 a5 3d
       -0.10388124 -0.14497936 0.12248743 0.080974236
000230 a3 30 f4 bd 04 a7 9e be b6 26 81 3e cc aa 76 be
       -0.11923339 -0.30986798 0.25224847 -0.24088591
