checkpoints/epoch_16.pth (torch, 24780 bytes, 7 tensors)

encoder.0.weight f4 [16, 1, 1, 1]
00000000: 1490 ffbe cbd3 7d3f 63fc 77bf c2fd 64bf
00000010: f8bf 39bf 700e b83e 07ce 943d c698 6c3f
00000020: f431 2abf fbed e23e 0462 0e3d bcd0 0f3f
00000030: 1cac 71bf a07a 21bd eade 29bf 2847 d9be
-0.4991461 0.99151295 -0.96869487 -0.89449704 -0.72558546 0.35948515 0.07265859 0.92420614
-0.6648247 0.4432219 0.034761444 0.5617788 -0.94403243 -0.039423585 -0.66355765 -0.424371

encoder.0.bias f4 [16]
00000000: d2c1 2cbf 3900 4b3f 4309 e13e 2117 0d3e
00000010: e027 15be 9768 573f f1e1 f53e 177f 24bf
00000020: aa7a 3fbf a7c6 183f 27a2 1a3f eb19 373f
00000030: 2a54 f23e c0c5 0dbd a046 acbe 5478 d4be
-0.67483246 0.79297215 0.4395238 0.13778354 -0.14565992 0.84143966 0.48023942 -0.64256424
-0.74796546 0.5967812 0.60403675 0.7152392 0.47329837 -0.034612417 -0.33647633 -0.41498053

encoder.2.weight f4 [32, 16, 1, 1]
00000000: 7874 b73d 6adb eabd daf2 c3bc 86c3 293d
00000010: 007a 40bc e8d3 603e c275 53be 5294 cdbd
00000020: 4055 a8bc 8ed7 f9bd cbff 833c 284d 333e
00000030: 7227 2a3d a0b9 9e3d 407f 59bd 007a 173c
00000040: ea93 41be 3671 6d3e a6b3 7fbe f896 36be
00000050: e0d7 e1bd 2ec9 7fbe 6ec9 61be 46c8 57be
00000060: a0e9 153d c0a9 47bd 0eb9 44be d8e8 cd3d
00000070: 5c7a 843d dcd0 c73d 6c3b 85bd 5ce8 123e
00000080: 0e0a 243e 10bd babd 5029 8dbc 32c5 46be
00000090: 1010 c33d 20e1 6f3c 3a7f 29be cc2a 17be
000000a0: 5476 04be 20db 113c 4e03 2abe 547c 873d
000000b0: 28b6 7bbe c0c8 6bbc 5820 5ebe 42b7 37be
000000c0: 3818 a63d 8bbc fc3c 2b37 2bbe 861b 28be
000000d0: 0002 593d 64aa da3d a321 703e 6b9d 12be
000000e0: 008e f73c 81dd 3d3e 23d1 5e3e 9661 ec3c
000000f0: b0a8 833d 4c14 e6bd 3aaf 773e 888a 763d
00000100: 803d 20bb 8da6 313e dbad d23c 6749 bd3c
00000110: 9898 90bd 53eb 36be 5af7 803e 1b35 60be
00000120: 4ecd 7bbe ea3f 5a3e c15d 24be 9c5d c0bd
00000130: 7845 5d3e 400d 053c ec52 af3d 7cfa 2c3e
00000140: 4020 48bc 0c80 bdbd cab6 7ebe c42f e9bd
00000150: a0ee a3bc d0c3 1c3d f88c 73be 5c57 2c3e
00000160: e06a 43bc 04c5 5abe 802c 76be ee68 103e
00000170: a4f0 d93d b43f 413e 586b 1f3e a872 b63d
00000180: ec4b 873d 61d8 cf3d 7e54 6b3e 4206 8f3d
00000190: 24e4 6cbe bb68 123e bee5 19be 5f12 033e
000001a0: c81a edbd 869f 713d 3387 6e3e fb43 e73d
000001b0: 40ea 083d 18d6 f23d 4ef5 753e b009 dbbd
000001c0: 107f 91bc 988c 1bbe 0057 c7bc 52f3 793e
000001d0: 18ff 10be 0468 88bd 36c8 3ebe 96e4 1c3e
000001e0: b439 0fbe 5045 b03c b0f2 3bbe 60ee d7bc
000001f0: 5808 b9bd 8ab6 5dbe 949a be3d 46da 303e
00000200: 3e03 32be f4ff 2abe e9bc 15be 69cd 37be
00000210: d029 af3c 3927 4d3e 7dbd 613d 3bb8 773d
00000220: 4cae 62be 2aeb 053e ad02 f2bd 98c5 423e
00000230: 8d43 453d d0e5 553e d887 c63d 2858 ddbd
00000240: 6ee7 573e c64b 8ebd 7d9d 1e3e 1c34 3bbd
00000250: 280c 553e 955e 8c3e 446e 473e da33 29be
00000260: de96 3bbe 6e02 8b3e d43e 4cbd 3a02 2fbb
00000270: 7fa8 f63c 0c4e 73be e292 0dbe 8a9e 55be
00000280: 1076 643e 100b edbc de48 5d3e 78ff 10bd
00000290: 6666 113e 30d3 a93d 604f d7bd 1cc5 4ebe
000002a0: a80b a83d cc38 903d dabf 173e 3ab7 72be
000002b0: a014 433c 2053 bf3d 689c 4a3e 6c0d 7b3e
000002c0: e89e 2ebe 3e97 4dbd cf77 fb3d 8d2e 29be
000002d0: 6084 bf3c 9513 6e3e 3f42 c4bd 8768 3cbe
000002e0: 7caa 443e dd2a 033d a843 603e 2948 91bd
000002f0: 2e11 c33d 5493 d8bd 7096 d03c 9000 41be
00000300: 4c5c 113e 1a3f 413e 451a 003e afda 533e
00000310: 70d4 b03c ea67 2d3c ca40 353e c988 883d
00000320: 1622 2f3e 88b1 14be 153c b7bd 2872 803e
00000330: bf14 5b3e a4fa 573e de43 77be 00f0 9d3d
00000340: eecc 4fbe d885 c5bd 8808 c4bd 30d2 f23b
00000350: b216 23be f534 103e 664c 19be 1d71 5bbe
00000360: c095 c53d c781 913e 1fd7 8e3e fe18 683e
00000370: 78eb be3d ac2c aebd 1445 22be 841f 58be
00000380: 9060 823c 8ca6 c53d a8f1 7a3d f024 58be
00000390: 00a5 d13b d013 bd3d e0bb 75be 8437 9abd
000003a0: 8ac4 2abe 0cae 4abe aefc 5fbe b48f 213e
000003b0: 06dc 703e 3015 a0bd da5f 36be 0c19 fabd
000003c0: 00cc dfba 8c1a 213e 7051 013e be7c 703e
000003d0: a073 f43c 8cb9 e2bd 6246 013c 45f5 653e
000003e0: 4021 ce3d 0d93 85bd 4b46 ae3d 7240 863e
000003f0: 633d 1cbe 803a 05bb b050 51be e689 20be
0.089577615 -0.11467631 -0.023919512 0.04144623 -0.011747837 0.21955836 -0.2065039 -0.100380555
-0.020548463 -0.12199317 0.016113183 0.17509902 0.041541524 0.07750249 -0.05309987 0.009245396
-0.18904081 0.23187718 -0.24970874 -0.17831028 -0.11027503 -0.24979088 -0.22049496 -0.21072492
0.036599755 -0.04874587 -0.19211218 0.10054177 0.06468651 0.09756634 -0.065054744 0.1434645
0.1601946 -0.09118092 -0.017231613 -0.19411162 0.09524548 0.014641076 -0.1655244 -0.1476242
-0.12935764 0.008902341 -0.16602823 0.066155106 -0.24581206 -0.014391124 -0.21692026 -0.17941001
0.08110088 0.030851623 -0.16720264 -0.1641675 0.052980423 0.10677031 0.23450331 -0.14317863
0.030219078 0.18541528 0.21759467 0.028855126 0.06428659 -0.1123434 0.24187937 0.060190707
-0.002445072 0.1734869 0.025717666 0.02310629 -0.07060355 -0.17863207 0.25188714 -0.21895258
-0.24590036 0.21313444 -0.1605139 -0.093928546 0.21608531 0.008120835 0.08560738 0.16892427
-0.01221472 -0.09252939 -0.24874416 -0.11386064 -0.020011246 0.03827268 -0.23784244 0.168302
-0.011927336 -0.21364218 -0.24040413 0.14102527 0.10641602 0.18871957 0.15568292 0.08908588
0.06606278 0.10148693 0.2298145 0.069836155 -0.23133904 0.14297764 -0.15029046 0.12799977
-0.11577374 0.058990024 0.23293762 0.11292263 0.033426523 0.118572414 0.24019358 -0.10695207
-0.017760783 -0.15190351 -0.024333477 0.24409226 -0.1415981 -0.066604644 -0.18631062 0.15321574
-0.13986856 0.021517426 -0.18354297 -0.026358783 -0.090347946 -0.21651664 0.09306827 0.17270765
-0.1738405 -0.16699201 -0.14622845 -0.17949452 0.021382242 0.20034494 0.05511235 0.06047843
-0.22136801 0.13077989 -0.118169166 0.19020689 0.048160125 0.20888448 0.09693879 -0.1080783
0.21084377 -0.069480464 0.15489765 -0.045703992 0.20805418 0.2741591 0.19475657 -0.16523686
-0.1831927 0.2715029 -0.049864605 -0.0026704208 0.030109642 -0.23760241 -0.13825563 -0.20861259
0.22310662 -0.02893594 0.21609828 -0.035399884 0.14199218 0.08292234 -0.105131865 -0.20192379
0.08205348 0.07042083 0.1481928 -0.23702708 0.011906773 0.09342027 0.19786227 0.24516839
-0.17052805 -0.050193064 0.12278711 -0.16521664 0.023378551 0.23249657 -0.09582948 -0.18399249
0.1920566 0.0320233 0.21900809 -0.070938416 0.09524761 -0.105749756 0.02546236 -0.18847871
0.14195365 0.18871728 0.12510021 0.2068889 0.021585673 0.010583857 0.17700496 0.06666715
0.17102847 -0.14520848 -0.089470066 0.25087094 0.21394633 0.21091706 -0.24146983 0.07711792
-0.20293018 -0.09644669 -0.0957194 0.00741031 -0.15926626 0.14082702 -0.1497055 -0.21429868
0.09647703 0.28419325 0.278985 0.22665784 0.09322256 -0.08504614 -0.15846664 -0.21105772
0.015915185 0.09650907 0.061265618 -0.2110784 0.0063978434 0.092322946 -0.2399745 -0.0753012
-0.16676536 -0.19792956 -0.21873733 0.15777475 0.23521432 -0.07816541 -0.17810002 -0.122118086
-0.0017074347 0.15732783 0.12628722 0.23485085 0.02984029 -0.110705465 0.007890316 0.22456844
0.10064936 -0.06522188 0.08509501 0.26221043 -0.15257792 -0.0020329058 -0.20440936 -0.15677604

encoder.2.bias f4 [32]
00000000: 7096 883e 4074 b8bb 975f a43d ecf5 dbbd
00000010: 0894 433d dcd1 c23d daa0 07be 248d 863e
00000020: d6a1 953d 0330 08be b006 6ebd bb26 6f3e
00000030: b780 823e 3689 663e 7809 2bbe bc0f 043e
00000040: 587d f73d e095 aabc 24ad 80bd 2e17 1dbe
00000050: 1c39 9c3c 71cc 4bbd e46e f53d eefb 3bbe
00000060: 8cdd 803e 5b70 183d 848e 67be 2b33 343e
00000070: dcbb a7bd 36ee 65be 3033 6dbe 3608 8abd
0.26677275 -0.0056290925 0.08026045 -0.10740265 0.047748595 0.09512684 -0.13244954 0.26279557
0.073062584 -0.13299565 -0.058111846 0.23354618 0.25488827 0.2251328 -0.16702831 0.12896627
0.12084454 -0.02082342 -0.06283024 -0.15340874 0.0190702 -0.049755517 0.11984041 -0.18357822
0.25169027 0.037216526 -0.22612959 0.17597644 -0.08190128 -0.22454152 -0.23164058 -0.06739847

decoder.0.weight f4 [32, 16, 3, 3]
00000000: f0b8 8abc c11b 593b e62b 31bd 6050 6f3b
00000010: e3ab b3bd aad7 5cbd d434 8dbd 5299 d43b
00000020: 2bd4 7bbd 9dfc 96bc fe41 9dbc cf32 34bd
00000030: 8b93 943d 761e e13d 2125 513d b47e 5b3d
00000040: 161d 993d 8c0c c33d e288 1ebd f066 99bd
00000050: 98c0 bfbb 434d 84bd 0ce6 d2bc 51db 9a3d
00000060: 970d 3dbd 548f b93c 31fe a2bc 6894 2dbd
00000070: 7076 06bd 7d11 6a3d 16eb 1abd 621b a8bd
00000080: 9478 cb3c 0533 323c c0a2 6abc e9a8 843a
00000090: 9c31 c03c c088 5bbd 7c23 89bd 313c 8f3d
000000a0: e3f1 4bbd cc5f 8abc 8cce b2bc 06d9 bdbc
000000b0: a364 9dbd 07ab 0abc 893a a73c 27a1 6a3d
000000c0: 8f93 483d cd72 45bd f7ee 9cbd 779f 5bbd
000000d0: 85a4 213b bedd 6c3d cb50 b4bd 873f abbd
000000e0: e80a e43c 53af 41bd 9253 053d df05 3c3d
000000f0: 15af 3f3d 2f95 61bd ce02 44bc 545c fb3c
00000100: 0e3a 40bd 7246 423d 1d8b 8d3d 088a 843d
00000110: 23cd a83d 7f1f a1bd 0a1e 863d 4024 c33b
00000120: 3ed8 72bd 7270 db3c 3026 b5bb e799 123d
00000130: 18f9 56bc f25e cb3b bc49 e03c a7c0 a43d
00000140: 10bc a53b c029 663d 211e c3bc 3811 15bd
00000150: 05ff 33bc 7e7c 093d 0dcf 32bd b8b7 a33d
00000160: 1e55 f03c 516c d43d 03c6 d7bc 90ef d13c
00000170: 6293 663c a47a 0c3b b60f ac3d 5e96 ac3d
00000180: acc0 f13c 7eec 73bd 1449 863d 281c 4a3d
00000190: 05b6 793d ed8d 2a3d 1fce be3c 98c7 12bd
000001a0: cb08 67ba 1b7e 47bd 3cea 23bd 2572 f13c
000001b0: d6b2 c0bc 2f48 a3bd b25e f93b 60b5 bb3c
000001c0: 1063 d13b 9020 85bd 6c52 8d3d 92fb 663d
000001d0: 3d92 debc d93e 173d 1369 e83d e641 cc3d
000001e0: 54ec c83d 9cef 8fbd ae63 dd3c cac5 933b
000001f0: 4af6 8c3d d551 393d 900a b43d 02de 9e3d
00000200: 82d4 b7bc 7dab 47bd a001 2bbd acf7 d7bc
00000210: ef4c a23d f1e5 093c d98b 4d3c 27b0 66bd
00000220: 7080 f5bc 8ca8 80bc f365 023d d94e 973d
00000230: 7d10 883d 3046 a9bd f47e e0bb 1c1b 80bd
00000240: a300 a43d 7ab2 1f3d 34f3 833c b644 5a3d
00000250: 28a1 623c 5aab 603d 6206 143d fca0 b1bc
00000260: 05bb a03d b45c c03c e42c a0bc a0a7 00bb
00000270: c04e 2abc 70da 953c 4d57 983d c1f2 9d3d
00000280: 02f2 493d c041 d73c eb74 78bd 70a0 e9bc
00000290: 5071 91bd ca89 3b3d ea44 073d 0084 64bd
000002a0: 80b9 00bd 2647 dfbc 4346 9b3d 3e61 443d
000002b0: e64c 1b3d a9a5 863d 3a41 9fbd c076 55bd
000002c0: 6602 16bd 80bd b0bb b647 163d aaa6 4e3d
000002d0: 0556 973d 06a9 03bd 8e1a 273d ecca edbc
000002e0: 8867 a2bd ce22 433d 5607 a1bd 2760 a5bd
000002f0: 935e a3bd 9aa0 9fbd 0053 29bb c001 bb3b
00000300: d249 443d b6ca 7a3d da50 453d 39ae a43d
00000310: 253e 823d d3d2 66bd da54 653d 70e5 e73b
00000320: 7603 92bd 00b3 c93b 5e62 1c3d 907c a8bc
00000330: c219 433d 58f9 09bc 7bbb 4ebd 7f83 a23d
00000340: a20a 6a3d 48e5 7fbd 109f ed3b fcf3 923c
00000350: 70e4 e8bc 2943 843d 3640 793d 4691 633d
00000360: 5e06 243d 712f a73d 80ae abbc 78f3 083c
00000370: c437 c83c d85f 7a3c 1cfc a9bc c011 a63c
00000380: ee0a 26bd 065a 4cbd 6e98 65bd f84b 02bc
00000390: c6e6 7a3d dfc5 a7bd 2ed1 423d 1399 5fbd
000003a0: da44 89bd 35d3 9f3d 30af 21bd 08a8 49bd
000003b0: ca3c 4a3d 9b26 91bd 00d6 00bd e290 7f3d
000003c0: 1013 173d 315c a13d ab4c 953d c0cf 973a
000003d0: 3ccc e2bc b764 92bd 4cb5 f23c c655 593d
000003e0: 46b8 5cbd 7891 62bc bea2 72bd be7f 2ebd
000003f0: b653 53bd a0d7 9fbd 3e3e 6dbd 1ab2 013d
-0.016933888 0.0033128115 -0.043254755 0.0036516413 -0.08773019 -0.05391661 -0.06894842 0.006488004
-0.061481636 -0.018431002 -0.019196507 -0.043993767 0.07254704 0.10992138 0.0510608 0.05358763
0.07476251 0.095238775 -0.03870476 -0.07490337 -0.0058518164 -0.06460049 -0.02574446 0.075613625
-0.04615554 0.022651352 -0.019896599 -0.04237786 -0.032827795 0.057145584 -0.03782185 -0.08208348
0.02483777 0.010876422 -0.014321029 0.001012114 0.023461156 -0.05359721 -0.06696221 0.069939025
-0.049791228 -0.016891383 -0.021827005 -0.023174774 -0.076852106 -0.008463628 0.020413654 0.057282593
0.048968848 -0.048205186 -0.076627664 -0.053618874 0.0024664712 0.057828657 -0.088044725 -0.08361726
0.027837232 -0.047286343 0.032550402 0.045904037 0.04679783 -0.055073913 -0.011963559 0.030683674
-0.046930365 0.047430463 0.069112994 0.0647164 0.08242252 -0.078673355 0.06548698 0.005955249
-0.059288256 0.026787017 -0.005528234 0.035791304 -0.013120912 0.0062063867 0.02737891 0.08044558
0.005057819 0.05619216 -0.023818078 -0.036393374 -0.010986094 0.03356599 -0.04365449 0.07994026
0.029337462 0.10372222 -0.026339537 0.025626928 0.014073225 0.0021435404 0.08401434 0.08427118
0.029510818 -0.05955171 0.06556907 0.04934326 0.060964603 0.041639257 0.023291646 -0.03583488
-0.0008813261 -0.048704248 -0.040018305 0.029473374 -0.023522776 -0.07972752 0.0076101655 0.022913635
0.006389983 -0.065003514 0.06900486 0.05639226 -0.027169341 0.03692517 0.11348166 0.09973507
0.09810701 -0.07028124 0.02702507 0.0045096623 0.068829134 0.045244057 0.08791077 0.077571884
-0.022440199 -0.04874753 -0.041749597 -0.026363216 0.0792483 0.008416639 0.012545549 -0.056320336
-0.02996847 -0.01570537 0.031835508 0.07388086 0.0664377 -0.0826534 -0.0068510715 -0.06255171
0.08007934 0.038988568 0.01610718 0.053288184 0.013832368 0.054850914 0.0361389 -0.021683209
0.07848171 0.023481704 -0.019552656 -0.0019631162 -0.010394752 0.018292636 0.07438526 0.07712317
0.049303062 0.02627647 -0.060658377 -0.028518885 -0.07101691 0.045785703 0.033024706 -0.055789948
-0.031426907 -0.027255606 0.07581761 0.0479443 0.037915133 0.06574566 -0.07776113 -0.052115202
-0.03662338 -0.005393684 0.036689483 0.050451912 0.07389454 -0.032143615 0.04079681 -0.029027425
-0.07929903 0.047640614 -0.07862727 -0.0807498 -0.07977023 -0.07794304 -0.0025836825 0.0057069957
0.047921963 0.061228476 0.04817281 0.08041043 0.063595094 -0.0563534 0.055989124 0.0070769116
-0.07129566 0.0061553717 0.038179748 -0.020567209 0.047631986 -0.008421265 -0.050471764 0.07935237
0.057139046 -0.06247452 0.0072516277 0.017938606 -0.02842924 0.06458122 0.060852252 0.055558465
0.040045135 0.081633456 -0.020957232 0.008358829 0.024440654 0.01528164 -0.020750098 0.020272136
-0.040537767 -0.04989054 -0.05605357 -0.007952683 0.06125524 -0.08192038 0.04756277 -0.054589342
-0.067025855 0.078039564 -0.039473712 -0.049232513 0.04937438 -0.070874415 -0.031454086 0.06239403
0.036883414 0.07878912 0.07290014 0.00115823 -0.027685277 -0.07148116 0.029627465 0.053060316
-0.053886674 -0.013828628 -0.059237234 -0.042602293 -0.051593505 -0.07804799 -0.057920687 0.03166399

decoder.0.bias f4 [16]
00000000: cba3 853d 8e70 5b3d 0ee0 80bd 3487 81bd
00000010: f88a 57bd b1a1 69ba 5507 4e3d c07f 20b7
00000020: 5646 0fbd ef6b a73d efff 62bc 4b18 f73c
00000030: b525 0dbd d897 223d ac81 693d dafc 80bc
0.06525382 0.053574137 -0.06292735 -0.06324616 -0.052622765 -0.00089123385 0.05029996 -9.566487e-06
-0.034979187 0.081748836 -0.013854965 0.030162951 -0.03445979 0.03969559 0.05700843 -0.015745569

decoder.2.weight f4 [16, 1, 3, 3]
00000000: ab55 623e c7b6 1a3d 34bf 91bd 9638 80be
00000010: ac37 9b3e 9d24 a13e 3ce2 393c 76d5 8b3e
00000020: 9673 97bd dc75 543e 42ee 8cbe a2d3 ddbd
00000030: 2d12 97be 7d08 81bc 4d72 a0bd 4fb9 cfbd
00000040: 52cb 0bbe f771 793c 09f9 723e a2e6 973e
00000050: e888 babb b417 3e3d 30cc 1b3d 0c75 b1be
00000060: 500a 47be c7d4 a73c 211e 193e 11f3 eabd
00000070: 891a 09be 1a2d 6d3e 30e8 023e 9942 8ebd
00000080: ddac a13e 2382 b83d 7cf0 9a3e d7f3 55be
00000090: 3bc2 4fbe 0b57 a9be de0d 573e 047b fc3d
000000a0: 789b 5bbe f0b9 8d3c d0b6 bd3c 36e4 0fbe
000000b0: d844 29bd 9394 b03d 7e68 9dbe 8d39 4d3a
000000c0: bcc0 12be 4ca5 4c3e f61d af3d 8718 9a3e
000000d0: 63bd a8bd 113e c9bd f38f cb3b b9ce c53d
000000e0: 03d2 57be 0e3d 3d3e 3e1e 32bd a4b6 683e
000000f0: 8a2c 98be bf91 e13d 0d72 163d ade0 b3be
00000100: 51f6 a03d 4d7b b8bd 8bfb 903d dee4 2dbd
00000110: 402f 013e 5406 aabe efc3 d6bd 7053 82be
00000120: 69eb 96be 238a bcbd b3cc 693d 3137 513e
00000130: 1866 89be 15e2 153e dd65 b4bd 41ab 89be
00000140: 3f42 7a3c 26a6 90be 1926 54be ba6f 90be
00000150: 2c99 073e 8610 f5bd bd78 94bd 311b 7e3d
00000160: 7667 bbbd 45ad de3d 2552 3f3d 8dab 00be
00000170: bacf 9bbe 3dbc 64be 5670 44be 450f 72bd
00000180: 55a3 6b3e 67a7 273e 641d 1e3c 9b46 0a3d
00000190: b240 a13e 856b 713d c0c8 7a3e 3f23 e2bd
000001a0: 5559 74be 2272 083e a3d0 3cbe abed 04be
000001b0: f776 a73d 36c4 a73e 5d1f 60be 00af a03e
000001c0: 998d 81be 14d7 0b3e 9be2 72bd 0fb2 56be
000001d0: 7cab 833e 3c6b 5abd 6683 143d cbbf d1bd
000001e0: b256 fd3d 5e73 66be a3c9 73be 0587 94be
000001f0: b30e 953d 4646 4c3e 16c1 acbd f1b1 a0bc
00000200: 90fc 04be 06b0 f7bd de93 31bd c243 94be
00000210: af83 82be 898a 73bd 58f8 68bd a9f1 d73d
00000220: 9f5d 983e 3792 9cbe 5b4a 433e 3b31 9a3e
00000230: b868 1cbd 1ca1 11be 912d f23d fee9 31bd
0.22102992 0.037771966 -0.07116547 -0.25043172 0.30315912 0.31473246 0.011345442 0.27311295
-0.07395093 0.20748085 -0.27525526 -0.108313814 -0.29506055 -0.015751118 -0.07834301 -0.10142767
-0.1365178 0.015224925 0.23727812 0.29668146 -0.00569259 0.046409324 0.038036525 -0.34659612
-0.19437528 0.020487202 0.149529 -0.114721425 -0.13389029 0.23161736 0.12783885 -0.06946296
0.31577197 0.090091966 0.302616 -0.20893799 -0.20288937 -0.3307422 0.21001384 0.12328151
-0.21446025 0.017300576 0.02315846 -0.140519 -0.04132542 0.08622088 -0.30743784 0.0007828705
-0.14331335 0.19984931 0.085506365 0.30096838 -0.08239248 -0.09826291 0.0062122284 0.0965857
-0.21076207 0.18480322 -0.043485872 0.22725922 -0.2972148 0.11014127 0.03672986 -0.35132352
0.07859481 -0.09007893 0.07079228 -0.042454593 0.1261568 -0.33207953 -0.1048659 -0.25454283
-0.2947648 -0.09206035 0.057079982 0.2043121 -0.26835704 0.14637025 -0.088084914 -0.2688847
0.015274583 -0.2825176 -0.20717658 -0.2821024 0.13242024 -0.11966042 -0.072495915 0.06203765
-0.09150593 0.10872892 0.0467092 -0.12565441 -0.3043192 -0.22337432 -0.19183478 -0.059096593
0.23011525 0.16372453 0.009650562 0.03375874 0.3149467 0.05894043 0.24490643 -0.11041879
-0.23862202 0.13324788 -0.18438964 -0.12981288 0.081769876 0.32766885 -0.21886964 0.31383514
-0.25303343 0.13656265 -0.05929814 -0.20966361 0.2571677 -0.053324923 0.036258124 -0.1024166
0.123700514 -0.22504947 -0.23807387 -0.29009262 0.07278194 0.19948682 -0.08435266 -0.0196161
-0.1298697 -0.12094121 -0.043353908 -0.28957945 -0.25491092 -0.05945829 -0.056877464 0.1054414
0.29758927 -0.30580303 0.19071333 0.30115685 -0.038185805 -0.14221615 0.11825097 -0.043436043
