checkpoints/epoch_20.pth (torch, 24780 bytes, 7 tensors)

encoder.0.weight f4 [16, 1, 1, 1]
0	0xbeff9014	-0.4991461
1	0x3f80000b	1.0000013
2	0xbf75d1e8	-0.96023417
3	0xbf62cf6a	-0.8859774
4	0xbf39bff8	-0.72558546
5	0x3ebc5e4d	0.36790696
6	0x3da62c7d	0.08113954
7	0x3f6cce77	0.9250254
8	0xbf2a31f4	-0.6648247
9	0x3ee730a7	0.45154306
10	0x3d305674	0.043051198
11	0x3f11f894	0.57019925
12	0xbf6f884c	-0.9356735
13	0xbd217aa0	-0.039423585
14	0xbf29deea	-0.66355765
15	0xbed94728	-0.424371

encoder.0.bias f4 [16]
0	0xbf2cc1d2	-0.67483246
1	0x3f4dc555	0.8037923
2	0x3ee67457	0.45010635
3	0x3e17edfe	0.1483688
4	0xbe1527e0	-0.14565992
5	0x3f5a17bd	0.8519247
6	0x3efb5313	0.49086818
7	0xbf244768	-0.6417146
8	0xbf3f7aaa	-0.74796546
9	0x3f1b7017	0.6071791
10	0x3f1d4809	0.6143804
11	0x3f39c6ba	0.7256886
12	0x3ef7a34d	0.48366776
13	0xbd0dc5c0	-0.034612417
14	0xbeac46a0	-0.33647633
15	0xbed47854	-0.41498053

encoder.2.weight f4 [32, 16, 1, 1]
0	0x3db77478	0.089577615
1	0xbdd6005d	-0.10449288
2	0xbc604599	-0.013688468
3	0x3d5464e8	0.051854044
4	0xbc407a00	-0.011747837
5	0x3e6b4485	0.22975357
6	0xbe48fc70	-0.19627547
7	0xbdc7437c	-0.097296685
8	0xbca85540	-0.020548463
9	0xbde4ecdc	-0.1117799
10	0x3cd7a777	0.02632497
11	0x3e3dbf8f	0.18530105
12	0x3d540af0	0.051768243
13	0x3d9eb9a0	0.07750249
14	0xbd597f40	-0.05309987
15	0x3c177a00	0.009245396
16	0xbe4193ea	-0.18904081
17	0x3e6d7136	0.23187718
18	0xbe7fb3a6	-0.24970874
19	0xbe3696f8	-0.17831028
20	0xbde1d7e0	-0.11027503
21	0xbe7fc92e	-0.24979088
22	0xbe61c96e	-0.22049496
23	0xbe57c846	-0.21072492
24	0x3d15e9a0	0.036599755
25	0xbd47a9c0	-0.04874587
26	0xbe44b90e	-0.19211218
27	0x3dcde8d8	0.10054177
28	0x3d847a5c	0.06468651
29	0x3dc7d0dc	0.09756634
30	0xbd853b6c	-0.065054744
31	0x3e12e85c	0.1434645
32	0x3e240a0e	0.1601946
33	0xbdbabd10	-0.09118092
34	0xbc8d2950	-0.017231613
35	0xbe46c532	-0.19411162
36	0x3dc31010	0.09524548
37	0x3c6fe120	0.014641076
38	0xbe297f3a	-0.1655244
39	0xbe172acc	-0.1476242
40	0xbe047654	-0.12935764
41	0x3c11db20	0.008902341
42	0xbe2a034e	-0.16602823
43	0x3d877c54	0.066155106
44	0xbe7bb628	-0.24581206
45	0xbc6bc8c0	-0.014391124
46	0xbe5e2058	-0.21692026
47	0xbe37b742	-0.17941001
48	0x3da61838	0.08110088
49	0x3d2771b2	0.040879913
50	0xbe20df2c	-0.15710133
51	0xbe1d8c16	-0.1538547
52	0x3d590200	0.052980423
53	0x3def45dc	0.116832465
54	0x3e7a7af6	0.24460968
55	0xbe102099	-0.14074935
56	0x3cf78e00	0.030219078
57	0x3e483199	0.1955017
58	0x3e6924de	0.2276797
59	0x3d1f693f	0.03891873
60	0x3d985b94	0.07439342
61	0xbde6144c	-0.1123434
62	0x3e77af3a	0.24187937
63	0x3d768a88	0.060190707
64	0xbb203d80	-0.002445072
65	0x3e3b5704	0.18294913
66	0x3d107108	0.035264045
67	0x3d06df9b	0.03292809
68	0xbd909898	-0.07060355
69	0xbe2d330d	-0.16914006
70	0x3e85da27	0.26143
71	0xbe5d5bf5	-0.2161711
72	0xbe7bcd4e	-0.24590036
73	0x3e63ff69	0.222654
74	0xbe1a9eaf	-0.15099595
75	0xbdace8f8	-0.08442873
76	0x3e670b29	0.22562851
77	0x3c050d40	0.008120835
78	0x3daf52ec	0.08560738
79	0x3e2cfa7c	0.16892427
80	0xbc482040	-0.01221472
81	0xbdbd800c	-0.09252939
82	0xbe7eb6ca	-0.24874416
83	0xbde92fc4	-0.11386064
84	0xbca3eea0	-0.020011246
85	0x3d1cc3d0	0.03827268
86	0xbe738cf8	-0.23784244
87	0x3e2c575c	0.168302
88	0xbc436ae0	-0.011927336
89	0xbe5ac504	-0.21364218
90	0xbe762c80	-0.24040413
91	0x3e1068ee	0.14102527
92	0x3dd9f0a4	0.10641602
93	0x3e413fb4	0.18871957
94	0x3e1f6b58	0.15568292
95	0x3db672a8	0.08908588
96	0x3d874bec	0.06606278
97	0x3de33ece	0.110959634
98	0x3e751c66	0.23936614
99	0x3da32380	0.079657555
100	0xbe6ce424	-0.23133904
101	0x3e1c2273	0.15247516
102	0xbe101f46	-0.1407443
103	0x3e05e950	0.13077283
104	0xbded1ac8	-0.11577374
105	0x3d8c50fa	0.068513826
106	0x3e784762	0.2424598
107	0x3dfabc35	0.12242929
108	0x3d300419	0.042972658
109	0x3df2d618	0.118572414
110	0x3e75f54e	0.24019358
111	0xbddb09b0	-0.10695207
112	0xbc917f10	-0.017760783
113	0xbe1b8c98	-0.15190351
114	0xbcc75700	-0.024333477
115	0x3e79f352	0.24409226
116	0xbe10ff18	-0.1415981
117	0xbd886804	-0.066604644
118	0xbe3ec836	-0.18631062
119	0x3e1ce496	0.15321574
120	0xbe0f39b4	-0.13986856
121	0x3cb04550	0.021517426
122	0xbe3bf2b0	-0.18354297
123	0xbcd7ee60	-0.026358783
124	0xbdb90858	-0.090347946
125	0xbe5db68a	-0.21651664
126	0x3dbe9a94	0.09306827
127	0x3e30da46	0.17270765
128	0xbe32033e	-0.1738405
129	0xbe20d6c9	-0.15706934
130	0xbe0b8524	-0.13625008
131	0xbe2d5ea8	-0.1693064
132	0x3caf29d0	0.021382242
133	0x3e5753d3	0.2102807
134	0x3d854c00	0.065086365
135	0x3d81d85a	0.06340094
136	0xbe62ae4c	-0.22136801
137	0x3e101d32	0.14073637
138	0xbddd9f76	-0.108214304
139	0x3e4cf467	0.20015107
140	0x3d6e1c78	0.05813262
141	0x3e55e5d0	0.20888448
142	0x3dc687d8	0.09693879
143	0xbddd5828	-0.1080783
144	0x3e57e76e	0.21084377
145	0xbd71f900	-0.059075356
146	0x3e294db3	0.16533546
147	0xbd0fe0c5	-0.035126466
148	0x3e550c28	0.20805418
149	0x3e91b2f4	0.28456843
150	0x3e521de2	0.20519212
151	0xbe269c25	-0.16270502
152	0xbe3b96de	-0.1831927
153	0x3e9058ab	0.28192648
154	0xbd218e60	-0.03944242
155	0x3bfdcb3f	0.007745176
156	0x3d261049	0.040542874
157	0xbe734e0c	-0.23760241
158	0xbe0d92e2	-0.13825563
159	0xbe559e8a	-0.20861259
160	0x3e647610	0.22310662
161	0xbced0b10	-0.02893594
162	0x3e5d48de	0.21609828
163	0xbd10ff78	-0.035399884
164	0x3e116666	0.14199218
165	0x3da9d330	0.08292234
166	0xbdd74f60	-0.105131865
167	0xbe4ec51c	-0.20192379
168	0x3da80ba8	0.08205348
169	0x3d9038cc	0.07042083
170	0x3e17bfda	0.1481928
171	0xbe72b73a	-0.23702708
172	0x3c4314a0	0.011906773
173	0x3dbf5320	0.09342027
174	0x3e4a9c68	0.19786227
175	0x3e7b0d6c	0.24516839
176	0xbe2e9ee8	-0.17052805
177	0xbd2548a1	-0.040352467
178	0x3e07e009	0.13269056
179	0xbe1ecf4b	-0.15508763
180	0x3cbf8460	0.023378551
181	0x3e782bbc	0.24235433
182	0xbdaffc59	-0.08593053
183	0xbe39f782	-0.18160823
184	0x3e44aa7c	0.1920566
185	0x3d2ba2dc	0.04190336
186	0x3e6a613d	0.22888656
187	0xbd7a26cd	-0.06107216
188	0x3dd75686	0.1051455
189	0xbdd89354	-0.105749756
190	0x3cd09670	0.02546236
191	0xbe410090	-0.18847871
192	0x3e115c4c	0.14195365
193	0x3e4b95b0	0.1988132
194	0x3e0a7ed1	0.13524939
195	0x3e5e6eff	0.21722029
196	0x3cb0d470	0.021585673
197	0x3ca98f8e	0.020698335
198	0x3e3fa5c4	0.18715578
199	0x3d8db5d4	0.069194466
200	0x3e2f2216	0.17102847
201	0xbe0a50e2	-0.13507417
202	0xbda27b8e	-0.079337224
203	0x3e85a069	0.26098946
204	0x3e65796e	0.22409603
205	0x3e57faa4	0.21091706
206	0xbe7743de	-0.24146983
207	0x3d9df000	0.07711792
208	0xbe4fccee	-0.20293018
209	0xbdb109c4	-0.08644441
210	0xbdaf71e7	-0.08566647
211	0x3c90ab4e	0.01765981
212	0xbe2316b2	-0.15926626
213	0x3e1a75d4	0.1508401
214	0xbe0f0217	-0.13965641
215	0xbe586b84	-0.21134764
216	0x3dc595c0	0.09647703
217	0x3e96a4c4	0.2942258
218	0x3e93f9e7	0.28901598
219	0x3e725bf7	0.23667894
220	0x3dd37f22	0.10326983
221	0xbdae2cac	-0.08504614
222	0xbe224514	-0.15846664
223	0xbe581f84	-0.21105772
224	0x3c826090	0.015915185
225	0x3dc5a68c	0.09650907
226	0x3d7af1a8	0.061265618
227	0xbe5824f0	-0.2110784
228	0x3bd1a500	0.0063978434
229	0x3dbd13d0	0.092322946
230	0xbe75bbe0	-0.2399745
231	0xbd9a3784	-0.0753012
232	0xbe2ac48a	-0.16676536
233	0xbe4aae0c	-0.19792956
234	0xbe5ffcae	-0.21873733
235	0x3e218fb4	0.15777475
236	0x3e70dc06	0.23521432
237	0xbda01530	-0.07816541
238	0xbe365fda	-0.17810002
239	0xbdfa190c	-0.122118086
240	0xbadfcc00	-0.0017074347
241	0x3e2b5426	0.16731319
242	0x3e0b9a0b	0.13632981
243	0x3e7af91a	0.24509087
244	0x3cf473a0	0.02984029
245	0xbdce3b9a	-0.10069962
246	0x3c92ed7d	0.017935509
247	0x3e685e82	0.22692302
248	0x3dce2140	0.10064936
249	0xbd6213a0	-0.055194497
250	0x3dc2cea5	0.095120706
251	0x3e8b6079	0.2722204
252	0xbe11f47e	-0.14253423
253	0xbb053a80	-0.0020329058
254	0xbe5150b0	-0.20440936
255	0xbe2089e6	-0.15677604

encoder.2.bias f4 [32]
0	0x3e8dc8d1	0.27692273
1	0xbbb87440	-0.0056290925
2	0x3db8fe9d	0.09032939
3	0xbdc77b3d	-0.09740303
4	0x3d6a3017	0.05717477
5	0x3dd7dfa2	0.105407014
6	0xbdfbf193	-0.12301936
7	0x3e8bfb82	0.27340323
8	0x3da9e178	0.08294958
9	0xbdfb2199	-0.122622676
10	0xbd6e06b0	-0.058111846
11	0x3e7930c5	0.2433501
12	0x3e87a84a	0.26495582
13	0x3e70bdae	0.23509857
14	0xbe2b0978	-0.16702831
15	0x3e0e41a5	0.13892229
16	0x3e05fcc7	0.13084708
17	0xbcaa95e0	-0.02082342
18	0xbd80ad24	-0.06283024
19	0xbe12f8c9	-0.14352717
20	0x3ceb6769	0.028735833
21	0xbd21910d	-0.03944497
22	0x3e04b363	0.12959056
23	0xbe3bfbee	-0.18357822
24	0x3e85f430	0.26162863
25	0x3d44a7d5	0.04801162
26	0xbe678e84	-0.22612959
27	0x3e3dd066	0.18536529
28	0xbda7bbdc	-0.08190128
29	0xbe65ee36	-0.22454152
30	0xbe6d3330	-0.23164058
31	0xbd6d1464	-0.057880774

decoder.0.weight f4 [32, 16, 3, 3]
0	0xbc8ab8f0	-0.016933888
1	0x3b411397	0.002946114
2	0xbd312be6	-0.043254755
3	0x3b48d411	0.003064398
4	0xbdb4de90	-0.08831513
5	0xbd5f3f78	-0.054503888
6	0xbd8d34d4	-0.06894842
7	0x3bc87f43	0.0061186864
8	0xbd7bd42b	-0.061481636
9	0xbc1070f6	-0.0088159945
10	0xbc193ad7	-0.009352407
11	0xbd0cd164	-0.034379378
12	0x3da8d310	0.08243382
13	0x3df50e08	0.11965567
14	0x3d79a38c	0.060946986
15	0x3d816d8d	0.06319723
16	0x3dad4354	0.084601074
17	0x3dd6ba6c	0.10484776
18	0xbd20d388	-0.039264232
19	0xbd9966f0	-0.07490337
20	0xbbd215a6	-0.006411272
21	0xbd844d43	-0.06460049
22	0xbcd2e60c	-0.02574446
23	0x3d9adb51	0.075613625
24	0xbd3f5834	-0.046714976
25	0x3cb98f54	0.022651352
26	0xbca79363	-0.020456022
27	0xbd2e87c5	-0.04260995
28	0xbd067670	-0.032827795
29	0x3d691e20	0.056913495
30	0xbd1aeb16	-0.03782185
31	0xbda81b62	-0.08208348
32	0x3ccb7894	0.02483777
33	0x3c2e658e	0.01064433
34	0xbc6aa2c0	-0.014321029
35	0x3a4c7aac	0.0007800262
36	0x3cc0319c	0.023461156
37	0xbd5b88c0	-0.05359721
38	0xbd89237c	-0.06696221
39	0x3d8f3c31	0.069939025
40	0xbd4bf1e3	-0.049791228
41	0xbc8a5fcc	-0.016891383
42	0xbcb2ce8c	-0.021827005
43	0xbcbdd906	-0.023174774
44	0xbd9d64a3	-0.076852106
45	0xbc0e7900	-0.008695841
46	0x3ca538c5	0.020168671
47	0x3d69ad95	0.057050306
48	0x3d46d1f7	0.04854008
49	0xbd4810c5	-0.048844118
50	0xbd9dcfc1	-0.077056415
51	0xbd5c92df	-0.053851005
52	0x3b118188	0.002220245
53	0x3d6bea3f	0.05759644
54	0xbdb5c918	-0.08876246
55	0xbdab8680	-0.08375263
56	0x3cde29ba	0.027119506
57	0xbd485f36	-0.048918925
58	0x3cfad44c	0.03061881
59	0x3d355615	0.044271547
60	0x3d3cbd2f	0.046078857
61	0xbd62286c	-0.05521433
62	0xbc4fca51	-0.012682513
63	0x3cfb5c54	0.030683674
64	0xbd204a9c	-0.039133653
65	0x3d424672	0.047430463
66	0x3d9bda34	0.07609978
67	0x3d94509d	0.07241938
68	0x3db71b81	0.08940793
69	0xbda11f7f	-0.078673355
70	0x3d960f90	0.07327187
71	0x3bc32440	0.005955249
72	0xbd72d83e	-0.059288256
73	0x3d15a538	0.036534518
74	0xbbb52630	-0.005528234
75	0x3d374324	0.044741765
76	0xbc56f918	-0.013120912
77	0x3c785037	0.015155843
78	0x3ce049bc	0.02737891
79	0x3db8b44d	0.09018765
80	0x3ba5bc10	0.005057819
81	0x3d84a96f	0.064776294
82	0xbc71ced4	-0.014758784
83	0xbce3d281	-0.027810337
84	0xbbb2581c	-0.0054426324
85	0x3d1d30e3	0.0383767
86	0xbd1cd0b5	-0.038284976
87	0x3db54608	0.08851248
88	0x3d1d3a8a	0.038385905
89	0x3de5fa0a	0.11229332
90	0xbc878f58	-0.016547844
91	0x3cd1ef90	0.025626928
92	0x3cc37f25	0.023864338
93	0x3c503fef	0.012710555
94	0x3dc18b5b	0.09450408
95	0x3dc23a56	0.09483783
96	0x3d20f5a7	0.039296772
97	0xbd73ec7e	-0.05955171
98	0x3d9a536f	0.07535445
99	0x3d4854a7	0.048908856
100	0x3d79389f	0.060845014
101	0x3d28c670	0.04120487
102	0x3cbdab6f	0.023153035
103	0xbd12c798	-0.03583488
104	0xba85b7e5	-0.00102019
105	0xbd494565	-0.049138445
106	0xbd246812	-0.04013831
107	0x3cede395	0.029039184
108	0xbcc0afe7	-0.023521377
109	0xbda3482f	-0.07972752
110	0x3bf974a7	0.007612783
111	0x3cbbb560	0.022913635
112	0x3b998e58	0.004686158
113	0xbd852090	-0.065003514
114	0x3d8d53d2	0.06900753
115	0x3d66fb92	0.05639226
116	0xbcde8ca6	-0.027166676
117	0x3d3bd6fe	0.04585933
118	0x3dfcc6fb	0.1234264
119	0x3dde8d5d	0.10866807
120	0x3dddc18a	0.1082793
121	0xbd8fef9c	-0.07028124
122	0x3d185bb3	0.037196826
123	0x3c5c1808	0.013433464
124	0x3da150b5	0.07876722
125	0x3d5dddea	0.054166712
126	0x3dc5a91d	0.096513964
127	0x3db108fb	0.08644291
128	0xbc62b955	-0.013838132
129	0xbd22c037	-0.03973409
130	0xbd05e207	-0.03268626
131	0xbc8e231f	-0.017350731
132	0x3db3e6b7	0.0878424
133	0x3c8d8951	0.017277392
134	0x3cad2aa6	0.0211385
135	0xbd6882ba	-0.056765296
136	0xbcf7d5f1	-0.030253382
137	0xbc844dc9	-0.016150372
138	0x3d0105ec	0.03149979
139	0x3d974ed9	0.07388086
140	0x3d87607a	0.06610198
141	0xbdaa2f6f	-0.083098285
142	0xbbe9d4fd	-0.007135986
143	0xbd810462	-0.06299664
144	0x3da400a3	0.08007934
145	0x3d1fb27a	0.038988568
146	0x3c83f334	0.01610718
147	0x3d5a44b6	0.053288184
148	0x3c62a128	0.013832368
149	0x3d60ab5a	0.054850914
150	0x3d140662	0.0361389
151	0xbcb1a0fc	-0.021683209
152	0x3da0bb05	0.07848171
153	0x3cc05cb4	0.023481704
154	0xbca02ce4	-0.019552656
155	0xbb00a7a0	-0.0019631162
156	0xbc2a4ec0	-0.010394752
157	0x3c95da70	0.018292636
158	0x3d98574d	0.07438526
159	0x3d9df2c1	0.07712317
160	0x3d49f202	0.049303062
161	0x3cd741c0	0.02627647
162	0xbd7874eb	-0.060658377
163	0xbce9a070	-0.028518885
164	0xbd917150	-0.07101691
165	0x3d3b89ca	0.045785703
166	0x3d0744ea	0.033024706
167	0xbd648400	-0.055789948
168	0xbd00b980	-0.031426907
169	0xbcdf4726	-0.027255606
170	0x3d9b4643	0.07581761
171	0x3d44613e	0.0479443
172	0x3d1b4ce6	0.037915133
173	0x3d86a5a9	0.06574566
174	0xbd9f413a	-0.07776113
175	0xbd5576c0	-0.052115202
176	0xbd160266	-0.03662338
177	0xbbb0bd80	-0.005393684
178	0x3d1647b6	0.036689483
179	0x3d4ea6aa	0.050451912
180	0x3d975605	0.07389454
181	0xbd03a906	-0.032143615
182	0x3d271a8e	0.04079681
183	0xbcedcaec	-0.029027425
184	0xbda26788	-0.07929903
185	0x3d4322ce	0.047640614
186	0xbda10756	-0.07862727
187	0xbda56027	-0.0807498
188	0xbda35e93	-0.07977023
189	0xbd9fa09a	-0.07794304
190	0xbb295300	-0.0025836825
191	0x3bbb01c0	0.0057069957
192	0x3d4449d2	0.047921963
193	0x3d7acab6	0.061228476
194	0x3d4550da	0.04817281
195	0x3da4ae39	0.08041043
196	0x3d823e25	0.063595094
197	0xbd66d2d3	-0.0563534
198	0x3d6554da	0.055989124
199	0x3be7e570	0.0070769116
200	0xbd920376	-0.07129566
201	0x3bc9b300	0.0061553717
202	0x3d1c625e	0.038179748
203	0xbca87c90	-0.020567209
204	0x3d4319c2	0.047631986
205	0xbc09f958	-0.008421265
206	0xbd4ebb7b	-0.050471764
207	0x3da2837f	0.07935237
208	0x3d6a0aa2	0.057139046
209	0xbd7fe548	-0.06247452
210	0x3bed9f10	0.0072516277
211	0x3c92f3fc	0.017938606
212	0xbce8e470	-0.02842924
213	0x3d844329	0.06458122
214	0x3d794036	0.060852252
215	0x3d639146	0.055558465
216	0x3d24065e	0.040045135
217	0x3da72f71	0.081633456
218	0xbcabae80	-0.020957232
219	0x3c08f378	0.008358829
220	0x3cc837c4	0.024440654
221	0x3c7a5fd8	0.01528164
222	0xbca9fc1c	-0.020750098
223	0x3ca611c0	0.020272136
224	0xbd260aee	-0.040537767
225	0xbd4c5a06	-0.04989054
226	0xbd65986e	-0.05605357
227	0xbc024bf8	-0.007952683
228	0x3d7ae6c6	0.06125524
229	0xbda7c5df	-0.08192038
230	0x3d42d12e	0.04756277
231	0xbd5f9913	-0.054589342
232	0xbd8944da	-0.067025855
233	0x3d9fd335	0.078039564
234	0xbd21af30	-0.039473712
235	0xbd49a808	-0.049232513
236	0x3d4a3cca	0.04937438
237	0xbd91269b	-0.070874415
238	0xbd00d600	-0.031454086
239	0x3d7f90e2	0.06239403
240	0x3d171310	0.036883414
241	0x3da15c31	0.07878912
242	0x3d954cab	0.07290014
243	0x3a97cfc0	0.00115823
244	0xbce2cc3c	-0.027685277
245	0xbd9264b7	-0.07148116
246	0x3cf2b54c	0.029627465
247	0x3d5955c6	0.053060316
248	0xbd5cb846	-0.053886674
249	0xbc629178	-0.013828628
250	0xbd72a2be	-0.059237234
251	0xbd2e7fbe	-0.042602293
252	0xbd5353b6	-0.051593505
253	0xbd9fd7a0	-0.07804799
254	0xbd6d3e3e	-0.057920687
255	0x3d01b21a	0.03166399

decoder.0.bias f4 [16]
0	0x3d848f38	0.06472629
1	0x3d7e866d	0.062139917
2	0xbd8202cf	-0.06348192
3	0xbd820174	-0.063479334
4	0xbd578af8	-0.052622765
5	0xbaae5e1d	-0.0013303194
6	0x3d485e30	0.04891795
7	0x3bbe1af8	0.005801555
8	0xbcdd16e3	-0.026988452
9	0x3db6b113	0.08920493
10	0xbb8b2c12	-0.004247197
11	0x3cf44e2a	0.029822428
12	0xbd141540	-0.036153078
13	0x3d46ea40	0.048563242
14	0x3d83d5a6	0.064372346
15	0xbc84a01e	-0.016189631

decoder.2.weight f4 [16, 1, 3, 3]
0	0x3e61f50d	0.22066136
1	0x3d192ed7	0.037398186
2	0xbd928242	-0.07153751
3	0xbe806b23	-0.2508174
4	0x3e9b04b6	0.30277032
5	0x3ea0f1c1	0.31434444
6	0x3c33a7d2	0.010965304
7	0x3e8ba2a9	0.27272537
8	0xbd983ccf	-0.07433473
9	0x3e4a7d99	0.19774474
10	0xbe92718d	-0.28602257
11	0xbdf1acc8	-0.118005335
12	0xbe9c92df	-0.30580804
13	0xbcd9934b	-0.026559493
14	0xbdb66c73	-0.08907404
15	0xbde3d788	-0.11125094
16	0xbe16d706	-0.14730462
17	0x3bada310	0.0052989796
18	0x3e728f0a	0.23687378
19	0x3e97b15b	0.296275
20	0xbbc7da31	-0.0060990085
21	0x3d3c6d98	0.046002954
22	0x3d1a201e	0.037628286
23	0xbeb1aac4	-0.34700596
24	0xbe4774af	-0.19478105
25	0x3ca47b93	0.020078456
26	0x3e18b33e	0.14912125
27	0xbdeb4db3	-0.11489429
28	0xbe0947e4	-0.1340633
29	0x3e6cffbf	0.23144434
30	0x3e02baf5	0.12766631
31	0xbd8e9d57	-0.06963604
32	0x3ea1962b	0.31559882
33	0x3db8278b	0.08991917
34	0x3e9ad9d6	0.3024432
35	0xbe562132	-0.209111
36	0xbe4fc23b	-0.20288937
37	0xbea9570b	-0.3307422
38	0x3e570dde	0.21001384
39	0x3dfc7b04	0.12328151
40	0xbe5b9b78	-0.21446025
41	0x3c8db9f0	0.017300576
42	0x3cbdb6d0	0.02315846
43	0xbe0fe436	-0.140519
44	0xbd2944d8	-0.04132542
45	0x3dafdc3a	0.08586927
46	0xbe9d9679	-0.30778864
47	0x39e21620	0.00043122564
48	0xbe131d45	-0.14366634
49	0x3e4c48c7	0.19949637
50	0x3dae6396	0.08515088
51	0x3e99eaae	0.3006186
52	0xbda975a7	-0.082743935
53	0xbdc9f5af	-0.098613136
54	0x3bafc7f0	0.0053644106
55	0x3dc40898	0.09571952
56	0xbe58b2a3	-0.21161895
57	0x3e3c55de	0.1839213
58	0xbd35bb17	-0.044367876
59	0x3e67cf6f	0.22637723
60	0xbe989ac5	-0.2980558
61	0x3ddfc76a	0.10926707
62	0x3d12fdbb	0.035886507
63	0xbeb871b4	-0.3602425
64	0x3d8b870e	0.06812869
65	0xbdcb9d80	-0.0994215
66	0x3d77a130	0.060456455
67	0xbd58c9c4	-0.052926794
68	0x3ded2a46	0.11580329
69	0xbeaeb1e3	-0.34120092
70	0xbdebbd9a	-0.11510773
71	0xbe86b4b7	-0.2630975
72	0xbe9b8173	-0.303722
73	0xbdd275b1	-0.10276354
74	0x3d41d20a	0.04731945
75	0x3e466c39	0.19377221
76	0xbe8ed27f	-0.2789497
77	0x3e0b1ab4	0.13584405
78	0xbdc83737	-0.097761564
79	0xbe8efb5f	-0.27926156
80	0x3bd51513	0.0065027564
81	0xbe954e9d	-0.2916154
82	0xbe5eeecd	-0.21770783
83	0xbe94f0a0	-0.29089832
84	0x3df9b7e1	0.12193275
85	0xbe056268	-0.1302582
86	0xbda9c594	-0.08289638
87	0x3d558ca0	0.052136064
88	0xbdd16cd7	-0.10225838
89	0x3dca0aa1	0.098653086
90	0x3d15cceb	0.036572378
91	0xbe0bc637	-0.13649832
92	0xbea0ece5	-0.31430736
93	0xbe6ff156	-0.23431906
94	0xbe4fa193	-0.2027648
95	0xbd8f43ae	-0.06995331
96	0x3e6197fb	0.22030632
97	0x3e1c7f8d	0.15283032
98	0xb9eea180	-0.00045515224
99	0x3d08edf1	0.033430044
100	0x3ea1152c	0.31461465
101	0x3d701030	0.058609188
102	0x3e7a5f79	0.24450482
103	0xbde2f5e8	-0.11082059
104	0xbe74c27d	-0.23902316
105	0x3e080dd0	0.13286519
106	0xbe3d373d	-0.18478103
107	0xbe054f4e	-0.13018534
108	0x3da40267	0.08008271
109	0x3ea6e640	0.32597542
110	0xbe61d6d8	-0.22054613
111	0x3e9fd0ed	0.31214085
112	0xbe826bf5	-0.2547299
113	0x3e0a1a8f	0.13486694
114	0xbd799481	-0.06093264
115	0xbe586e73	-0.21135883
116	0x3e82d054	0.25549567
117	0xbd7e1b23	-0.0620376
118	0x3cd4687c	0.025928728
119	0xbde374cf	-0.11106264
120	0x3de84abb	0.11342379
121	0xbe710e60	-0.2354064
122	0xbe7e3470	-0.24824691
123	0xbe99588d	-0.2995037
124	0x3d7f529d	0.062334646
125	0x3e42921e	0.19001052
126	0xbdbedbba	-0.09319253
127	0xbcf50c23	-0.029913014
128	0xbe0e035e	-0.13868472
129	0xbe06570c	-0.13119143
130	0xbd5c0003	-0.05371095
131	0xbe998028	-0.29980588
132	0xbe8739fb	-0.26411423
133	0xbd8ef95b	-0.069811545
134	0xbd877db6	-0.06615774
135	0x3dd74344	0.10510877
136	0x3e9831d3	0.29725513
137	0xbe9cbe03	-0.30613717
138	0x3e42f2f0	0.19037986
139	0x3e9a0554	0.3008219
140	0xbd1dc8ef	-0.038521703
141	0xbe11f86b	-0.1425492
142	0x3df17d95	0.11791531
143	0xbd3348e0	-0.04377067
