checkpoints/epoch_15.pth (torch, 24780 bytes, 7 tensors)

encoder.0.weight f4 [16, 1, 1, 1]
0	0xbeff9014	-0.4991461
1	0x3f7d4f99	0.9894958
2	0xbf788039	-0.9707065
3	0xbf658294	-0.8965237
4	0xbf39bff8	-0.72558546
5	0x3eb70805	0.35748306
6	0x3d90aaf8	0.0706386
7	0x3f6c906b	0.92407864
8	0xbf2a31f4	-0.6648247
9	0x3ee1ed84	0.44126523
10	0x3d066591	0.032811705
11	0x3f0f4d76	0.5597757
12	0xbf722dc5	-0.9460109
13	0xbd217aa0	-0.039423585
14	0xbf29deea	-0.66355765
15	0xbed94728	-0.424371

encoder.0.bias f4 [16]
0	0xbf2cc1d2	-0.67483246
1	0x3f4a5c82	0.79047406
2	0x3edfb8ef	0.4369578
3	0x3e0a725f	0.13520192
4	0xbe1527e0	-0.14565992
5	0x3f56c056	0.8388723
6	0x3ef48edc	0.47765243
7	0xbf248756	-0.64269006
8	0xbf3f7aaa	-0.74796546
9	0x3f18207d	0.59424573
10	0x3f19fc04	0.6015017
11	0x3f36724f	0.7126817
12	0x3ef107e9	0.47076347
13	0xbd0dc5c0	-0.034612417
14	0xbeac46a0	-0.33647633
15	0xbed47854	-0.41498053

encoder.2.weight f4 [32, 16, 1, 1]
0	0x3db77478	0.089577615
1	0xbdf004af	-0.11719643
2	0xbcd8abaa	-0.026449043
3	0x3d1f4a8e	0.03888946
4	0xbc407a00	-0.011747837
5	0x3e5e3e51	0.2170346
6	0xbe560ca9	-0.20903267
7	0xbdcebcbb	-0.10094591
8	0xbca85540	-0.020548463
9	0xbdff0422	-0.1245196
10	0x3c5e9b2a	0.013586799
11	0x3e30b75e	0.17257449
12	0x3d1fcb6b	0.039012354
13	0x3d9eb9a0	0.07750249
14	0xbd597f40	-0.05309987
15	0x3c177a00	0.009245396
16	0xbe4193ea	-0.18904081
17	0x3e6d7136	0.23187718
18	0xbe7fb3a6	-0.24970874
19	0xbe3696f8	-0.17831028
20	0xbde1d7e0	-0.11027503
21	0xbe7fc92e	-0.24979088
22	0xbe61c96e	-0.22049496
23	0xbe57c846	-0.21072492
24	0x3d15e9a0	0.036599755
25	0xbd47a9c0	-0.04874587
26	0xbe44b90e	-0.19211218
27	0x3dcde8d8	0.10054177
28	0x3d847a5c	0.06468651
29	0x3dc7d0dc	0.09756634
30	0xbd853b6c	-0.065054744
31	0x3e12e85c	0.1434645
32	0x3e240a0e	0.1601946
33	0xbdbabd10	-0.09118092
34	0xbc8d2950	-0.017231613
35	0xbe46c532	-0.19411162
36	0x3dc31010	0.09524548
37	0x3c6fe120	0.014641076
38	0xbe297f3a	-0.1655244
39	0xbe172acc	-0.1476242
40	0xbe047654	-0.12935764
41	0x3c11db20	0.008902341
42	0xbe2a034e	-0.16602823
43	0x3d877c54	0.066155106
44	0xbe7bb628	-0.24581206
45	0xbc6bc8c0	-0.014391124
46	0xbe5e2058	-0.21692026
47	0xbe37b742	-0.17941001
48	0x3da61838	0.08110088
49	0x3ce8dab6	0.028424602
50	0xbe2db81d	-0.16964765
51	0xbe2aa6de	-0.16665217
52	0x3d590200	0.052980423
53	0x3dd5ac22	0.10433222
54	0x3e6da039	0.23205651
55	0xbe130653	-0.14357881
56	0x3cf78e00	0.030219078
57	0x3e3b5d21	0.18297245
58	0x3e5c50c4	0.21515185
59	0x3cd86ab4	0.026418068
60	0x3d7d4a89	0.06183866
61	0xbde6144c	-0.1123434
62	0x3e77af3a	0.24187937
63	0x3d768a88	0.060190707
64	0xbb203d80	-0.002445072
65	0x3e2f3c35	0.17112811
66	0x3cbf34ee	0.023340669
67	0x3ca969db	0.020680359
68	0xbd909898	-0.07060355
69	0xbe3957e2	-0.18099931
70	0x3e7f7fd0	0.249511
71	0xbe60c1b1	-0.21948887
72	0xbe7bcd4e	-0.24590036
73	0x3e57d21b	0.21076243
74	0xbe26cb8e	-0.16288587
75	0xbdc53726	-0.09629659
76	0x3e5ad64f	0.21370815
77	0x3c050d40	0.008120835
78	0x3daf52ec	0.08560738
79	0x3e2cfa7c	0.16892427
80	0xbc482040	-0.01221472
81	0xbdbd800c	-0.09252939
82	0xbe7eb6ca	-0.24874416
83	0xbde92fc4	-0.11386064
84	0xbca3eea0	-0.020011246
85	0x3d1cc3d0	0.03827268
86	0xbe738cf8	-0.23784244
87	0x3e2c575c	0.168302
88	0xbc436ae0	-0.011927336
89	0xbe5ac504	-0.21364218
90	0xbe762c80	-0.24040413
91	0x3e1068ee	0.14102527
92	0x3dd9f0a4	0.10641602
93	0x3e413fb4	0.18871957
94	0x3e1f6b58	0.15568292
95	0x3db672a8	0.08908588
96	0x3d874bec	0.06606278
97	0x3dcafe14	0.09911743
98	0x3e68e2ff	0.22742842
99	0x3d8a0aa7	0.06740313
100	0xbe6ce424	-0.23133904
101	0x3e0ff9c3	0.1406012
102	0xbe1c56dd	-0.1526751
103	0x3e028763	0.12746958
104	0xbded1ac8	-0.11577374
105	0x3d67df10	0.056609213
106	0x3e6c1719	0.23055686
107	0x3de2656b	0.110545
108	0x3cfe49a8	0.031040981
109	0x3df2d618	0.118572414
110	0x3e75f54e	0.24019358
111	0xbddb09b0	-0.10695207
112	0xbc917f10	-0.017760783
113	0xbe1b8c98	-0.15190351
114	0xbcc75700	-0.024333477
115	0x3e79f352	0.24409226
116	0xbe10ff18	-0.1415981
117	0xbd886804	-0.066604644
118	0xbe3ec836	-0.18631062
119	0x3e1ce496	0.15321574
120	0xbe0f39b4	-0.13986856
121	0x3cb04550	0.021517426
122	0xbe3bf2b0	-0.18354297
123	0xbcd7ee60	-0.026358783
124	0xbdb90858	-0.090347946
125	0xbe5db68a	-0.21651664
126	0x3dbe9a94	0.09306827
127	0x3e30da46	0.17270765
128	0xbe32033e	-0.1738405
129	0xbe2d86fa	-0.1694602
130	0xbe1846c8	-0.14870751
131	0xbe3a600f	-0.18200706
132	0x3caf29d0	0.021382242
133	0x3e4a9f35	0.19787295
134	0x3d579744	0.052634493
135	0x3d758a61	0.05994642
136	0xbe62ae4c	-0.22136801
137	0x3e036255	0.1283048
138	0xbdf7144f	-0.120644204
139	0x3e403d49	0.18773378
140	0x3d3b1cd7	0.0456818
141	0x3e55e5d0	0.20888448
142	0x3dc687d8	0.09693879
143	0xbddd5828	-0.1080783
144	0x3e57e76e	0.21084377
145	0xbd938be2	-0.07204415
146	0x3e1bfc08	0.15232861
147	0xbd45cd11	-0.04829127
148	0x3e550c28	0.20805418
149	0x3e8b0e61	0.27159408
150	0x3e44ccfd	0.19218822
151	0xbe29a6f9	-0.16567601
152	0xbe3b96de	-0.1831927
153	0x3e89b1ff	0.26893613
154	0xbd56c23d	-0.052431334
155	0xbbab941c	-0.005236162
156	0x3ce19dfc	0.027541153
157	0xbe734e0c	-0.23760241
158	0xbe0d92e2	-0.13825563
159	0xbe559e8a	-0.20861259
160	0x3e647610	0.22310662
161	0xbced0b10	-0.02893594
162	0x3e5d48de	0.21609828
163	0xbd10ff78	-0.035399884
164	0x3e116666	0.14199218
165	0x3da9d330	0.08292234
166	0xbdd74f60	-0.105131865
167	0xbe4ec51c	-0.20192379
168	0x3da80ba8	0.08205348
169	0x3d9038cc	0.07042083
170	0x3e17bfda	0.1481928
171	0xbe72b73a	-0.23702708
172	0x3c4314a0	0.011906773
173	0x3dbf5320	0.09342027
174	0x3e4a9c68	0.19786227
175	0x3e7b0d6c	0.24516839
176	0xbe2e9ee8	-0.17052805
177	0xbd5799fe	-0.052637093
178	0x3df66fa6	0.12033014
179	0xbe2bbc91	-0.16771151
180	0x3cbf8460	0.023378551
181	0x3e6b9194	0.23004752
182	0xbdc949c2	-0.09828521
183	0xbe3ccd64	-0.18437725
184	0x3e44aa7c	0.1920566
185	0x3cf23e39	0.029570686
186	0x3e5dc0bd	0.21655555
187	0xbd964cc1	-0.073388584
188	0x3dbe0959	0.09279127
189	0xbdd89354	-0.105749756
190	0x3cd09670	0.02546236
191	0xbe410090	-0.18847871
192	0x3e115c4c	0.14195365
193	0x3e3ebb0a	0.18626037
194	0x3dfb260c	0.12263116
195	0x3e514b57	0.20438896
196	0x3cb0d470	0.021585673
197	0x3c050b9e	0.008120446
198	0x3e32b954	0.1745351
199	0x3d879b1c	0.06621382
200	0x3e2f2216	0.17102847
201	0xbe173836	-0.14767537
202	0xbdbc496b	-0.09193691
203	0x3e7e5e9c	0.24840778
204	0x3e588d1e	0.21147582
205	0x3e57faa4	0.21091706
206	0xbe7743de	-0.24146983
207	0x3d9df000	0.07711792
208	0xbe4fccee	-0.20293018
209	0xbdca9dcf	-0.09893381
210	0xbdc92581	-0.098216064
211	0x3ba0048a	0.0048833536
212	0xbe2316b2	-0.15926626
213	0x3e0da827	0.13833676
214	0xbe1bda99	-0.15220107
215	0xbe5bf838	-0.21481407
216	0x3dc595c0	0.09647703
217	0x3e903b01	0.28170016
218	0x3e8d905b	0.27649197
219	0x3e658bea	0.22416654
220	0x3db9cee0	0.090726614
221	0xbdae2cac	-0.08504614
222	0xbe224514	-0.15846664
223	0xbe581f84	-0.21105772
224	0x3c826090	0.015915185
225	0x3dc5a68c	0.09650907
226	0x3d7af1a8	0.061265618
227	0xbe5824f0	-0.2110784
228	0x3bd1a500	0.0063978434
229	0x3dbd13d0	0.092322946
230	0xbe75bbe0	-0.2399745
231	0xbd9a3784	-0.0753012
232	0xbe2ac48a	-0.16676536
233	0xbe4aae0c	-0.19792956
234	0xbe5ffcae	-0.21873733
235	0x3e218fb4	0.15777475
236	0x3e70dc06	0.23521432
237	0xbda01530	-0.07816541
238	0xbe365fda	-0.17810002
239	0xbdfa190c	-0.122118086
240	0xbadfcc00	-0.0017074347
241	0x3e1e99d4	0.15488368
242	0x3dfd9ad6	0.12383048
243	0x3e6df00d	0.23236103
244	0x3cf473a0	0.02984029
245	0xbde7be90	-0.11315644
246	0x3bb20243	0.0054323985
247	0x3e658dda	0.22417393
248	0x3dce2140	0.10064936
249	0xbd8a9a0c	-0.06767663
250	0x3da93f5b	0.08264037
251	0x3e84ff3a	0.25975972
252	0xbe1ec1d8	-0.15503633
253	0xbb053a80	-0.0020329058
254	0xbe5150b0	-0.20440936
255	0xbe2089e6	-0.15677604

encoder.2.bias f4 [32]
0	0x3e874c8e	0.26425594
1	0xbbb87440	-0.0056290925
2	0x3d9f703a	0.077850774
3	0xbde0edb2	-0.10982837
4	0x3d39edfc	0.045392975
5	0x3dbdf152	0.09274544
6	0xbe0a0cdc	-0.13481468
7	0x3e853e8e	0.26024288
8	0x3d9095c0	0.070598125
9	0xbe0acf3c	-0.13555616
10	0xbd6e06b0	-0.058111846
11	0x3e6ca70d	0.231106
12	0x3e813ef8	0.25243354
13	0x3e63fe45	0.22264965
14	0xbe2b0978	-0.16702831
15	0x3e018f8c	0.12652415
16	0x3df2644c	0.11835536
17	0xbcaa95e0	-0.02082342
18	0xbd80ad24	-0.06283024
19	0xbe1f9d1f	-0.1558728
20	0x3c890226	0.016724657
21	0xbd563e2f	-0.052305397
22	0x3df06d6b	0.1173962
23	0xbe3bfbee	-0.18357822
24	0x3e7f3060	0.24920797
25	0x3d0dd38a	0.034625567
26	0xbe678e84	-0.22612959
27	0x3e31dc95	0.17369302
28	0xbda7bbdc	-0.08190128
29	0xbe65ee36	-0.22454152
30	0xbe6d3330	-0.23164058
31	0xbd8ee1ff	-0.06976699

decoder.0.weight f4 [32, 16, 3, 3]
0	0xbc8ab8f0	-0.016933888
1	0x3b6235c1	0.0034516903
2	0xbd312be6	-0.043254755
3	0x3b7e5653	0.0038808777
4	0xbdb33c7e	-0.08751772
5	0xbd5be748	-0.053687364
6	0xbd8d34d4	-0.06894842
7	0x3bd92f07	0.0066279205
8	0xbd7bd42b	-0.061481636
9	0xbcaaaaf5	-0.020833472
10	0xbcb12aa9	-0.021626787
11	0xbd3e09e7	-0.046396162
12	0x3d8f9b28	0.070120156
13	0x3ddc43e9	0.1075514
14	0x3d473471	0.048633996
15	0x3d51a856	0.05118593
16	0x3d94235f	0.07233309
17	0x3dbe2167	0.09283715
18	0xbd1da3e0	-0.03848636
19	0xbd9966f0	-0.07490337
20	0xbbb8989c	-0.005633427
21	0xbd844d43	-0.06460049
22	0xbcd2e60c	-0.02574446
23	0x3d9adb51	0.075613625
24	0xbd3c2899	-0.045937154
25	0x3cb98f54	0.022651352
26	0xbca13438	-0.01967822
27	0xbd2d3568	-0.04228726
28	0xbd067670	-0.032827795
29	0x3d6a707d	0.057236183
30	0xbd1aeb16	-0.03782185
31	0xbda81b62	-0.08208348
32	0x3ccb7894	0.02483777
33	0x3c33af05	0.010967021
34	0xbc6aa2c0	-0.014321029
35	0x3a9088e0	0.001102712
36	0x3cc0319c	0.023461156
37	0xbd5b88c0	-0.05359721
38	0xbd89237c	-0.06696221
39	0x3d8f3c31	0.069939025
40	0xbd4bf1e3	-0.049791228
41	0xbc8a5fcc	-0.016891383
42	0xbcb2ce8c	-0.021827005
43	0xbcbdd906	-0.023174774
44	0xbd9d64a3	-0.076852106
45	0xbc092ed3	-0.00837298
46	0x3ca81033	0.020515537
47	0x3d6b003c	0.05737327
48	0x3d494311	0.049136225
49	0xbd446d45	-0.04795577
50	0xbd9c9737	-0.076460294
51	0xbd5b4073	-0.05352826
52	0x3b285994	0.0025688158
53	0x3d6d3ccb	0.057919305
54	0xbdb3bde6	-0.08776455
55	0xbdab23d3	-0.08356442
56	0x3ce65678	0.028117403
57	0xbd3f1312	-0.046649046
58	0x3d085033	0.03327961
59	0x3d3ea216	0.046541296
60	0x3d40d55f	0.047078487
61	0xbd615bb5	-0.0550191
62	0xbc3f69aa	-0.011682907
63	0x3cfb5c54	0.030683674
64	0xbd48d321	-0.049029473
65	0x3d424672	0.047430463
66	0x3d89714d	0.067110635
67	0x3d803ffb	0.06262203
68	0x3da4b371	0.08042038
69	0xbda11f7f	-0.078673355
70	0x3d81d2a9	0.06339008
71	0x3bc32440	0.005955249
72	0xbd72d83e	-0.059288256
73	0x3cc7d6e6	0.024394464
74	0xbbb52630	-0.005528234
75	0x3d092bca	0.033489026
76	0xbc56f918	-0.013120912
77	0x3b7fde74	0.0039042505
78	0x3ce049bc	0.02737891
79	0x3d9fdab0	0.07805383
80	0x3ba5bc10	0.005057819
81	0x3d5d0d87	0.05396798
82	0xbcd5ba91	-0.026089938
83	0xbd1e2d43	-0.038617384
84	0xbc40d4e8	-0.011769511
85	0x3d0840cd	0.033264924
86	0xbd35d9b1	-0.04439706
87	0x3d9f2aaa	0.077718094
88	0x3cddbcf3	0.027067637
89	0x3dcfdf5b	0.101500235
90	0xbcebd92f	-0.028790085
91	0x3cd1ef90	0.025626928
92	0x3c3e6d4b	0.011622737
93	0xb9d722a0	-0.00041033793
94	0x3da6d962	0.08146931
95	0x3da75b6e	0.08171736
96	0x3cddaed1	0.027060898
97	0xbd73ec7e	-0.05955171
98	0x3d8144a6	0.06311922
99	0x3d4acdf7	0.04951283
100	0x3d79e702	0.06101132
101	0x3d2b3fbb	0.041808825
102	0x3cbf8cb2	0.023382518
103	0xbd12c798	-0.03583488
104	0xba4f30aa	-0.0007903675
105	0xbd46cc61	-0.048534755
106	0xbd23b915	-0.03997143
107	0x3cf2d598	0.029642865
108	0xbcc0b40f	-0.023523359
109	0xbda3482f	-0.07972752
110	0x3bf9558a	0.007609074
111	0x3cbbb560	0.022913635
112	0x3bd16310	0.006389983
113	0xbd852090	-0.065003514
114	0x3d8d51d6	0.069003746
115	0x3d66fb92	0.05639226
116	0xbcde9491	-0.027170451
117	0x3d0dc755	0.034613926
118	0x3de35c5d	0.11101601
119	0x3dc7863b	0.09742399
120	0x3dc3ca1f	0.09560036
121	0xbd8fef9c	-0.07028124
122	0x3cc8dafa	0.024518479
123	0x3b102f92	0.002200101
124	0x3d87ea32	0.06636466
125	0x3d2fdc42	0.042934664
126	0x3daf852e	0.08570324
127	0x3d9a3d30	0.07531202
128	0xbcc9e9a4	-0.024647541
129	0xbd50f195	-0.05101164
130	0xbd344934	-0.044015124
131	0xbcea8387	-0.02862717
132	0x3d9dc859	0.07704229
133	0x3bc9cec6	0.0061586825
134	0x3c2967ed	0.010339719
135	0xbd65fa04	-0.056146637
136	0xbcf496ed	-0.029857123
137	0xbc7e787f	-0.015531658
138	0x3d02ef62	0.031966574
139	0x3d974ed9	0.07388086
140	0x3d885535	0.06656877
141	0xbda8eb23	-0.08247974
142	0xbbdcd8e9	-0.006739725
143	0xbd7f801a	-0.062378027
144	0x3da400a3	0.08007934
145	0x3d1fb27a	0.038988568
146	0x3c83f334	0.01610718
147	0x3d5a44b6	0.053288184
148	0x3c62a128	0.013832368
149	0x3d60ab5a	0.054850914
150	0x3d140662	0.0361389
151	0xbcb1a0fc	-0.021683209
152	0x3da0bb05	0.07848171
153	0x3cc05cb4	0.023481704
154	0xbca02ce4	-0.019552656
155	0xbb00a7a0	-0.0019631162
156	0xbc2a4ec0	-0.010394752
157	0x3c95da70	0.018292636
158	0x3d98574d	0.07438526
159	0x3d9df2c1	0.07712317
160	0x3d49f202	0.049303062
161	0x3cd741c0	0.02627647
162	0xbd7874eb	-0.060658377
163	0xbce9a070	-0.028518885
164	0xbd917150	-0.07101691
165	0x3d3b89ca	0.045785703
166	0x3d0744ea	0.033024706
167	0xbd648400	-0.055789948
168	0xbd00b980	-0.031426907
169	0xbcdf4726	-0.027255606
170	0x3d9b4643	0.07581761
171	0x3d44613e	0.0479443
172	0x3d1b4ce6	0.037915133
173	0x3d86a5a9	0.06574566
174	0xbd9f413a	-0.07776113
175	0xbd5576c0	-0.052115202
176	0xbd160266	-0.03662338
177	0xbbb0bd80	-0.005393684
178	0x3d1647b6	0.036689483
179	0x3d4ea6aa	0.050451912
180	0x3d975605	0.07389454
181	0xbd03a906	-0.032143615
182	0x3d271a8e	0.04079681
183	0xbcedcaec	-0.029027425
184	0xbda26788	-0.07929903
185	0x3d4322ce	0.047640614
186	0xbda10756	-0.07862727
187	0xbda56027	-0.0807498
188	0xbda35e93	-0.07977023
189	0xbd9fa09a	-0.07794304
190	0xbb295300	-0.0025836825
191	0x3bbb01c0	0.0057069957
192	0x3d4449d2	0.047921963
193	0x3d7acab6	0.061228476
194	0x3d4550da	0.04817281
195	0x3da4ae39	0.08041043
196	0x3d823e25	0.063595094
197	0xbd66d2d3	-0.0563534
198	0x3d6554da	0.055989124
199	0x3be7e570	0.0070769116
200	0xbd920376	-0.07129566
201	0x3bc9b300	0.0061553717
202	0x3d1c625e	0.038179748
203	0xbca87c90	-0.020567209
204	0x3d4319c2	0.047631986
205	0xbc09f958	-0.008421265
206	0xbd4ebb7b	-0.050471764
207	0x3da2837f	0.07935237
208	0x3d6a0aa2	0.057139046
209	0xbd7fe548	-0.06247452
210	0x3bed9f10	0.0072516277
211	0x3c92f3fc	0.017938606
212	0xbce8e470	-0.02842924
213	0x3d844329	0.06458122
214	0x3d794036	0.060852252
215	0x3d639146	0.055558465
216	0x3d24065e	0.040045135
217	0x3da72f71	0.081633456
218	0xbcabae80	-0.020957232
219	0x3c08f378	0.008358829
220	0x3cc837c4	0.024440654
221	0x3c7a5fd8	0.01528164
222	0xbca9fc1c	-0.020750098
223	0x3ca611c0	0.020272136
224	0xbd260aee	-0.040537767
225	0xbd4c5a06	-0.04989054
226	0xbd65986e	-0.05605357
227	0xbc024bf8	-0.007952683
228	0x3d7ae6c6	0.06125524
229	0xbda7c5df	-0.08192038
230	0x3d42d12e	0.04756277
231	0xbd5f9913	-0.054589342
232	0xbd8944da	-0.067025855
233	0x3d9fd335	0.078039564
234	0xbd21af30	-0.039473712
235	0xbd49a808	-0.049232513
236	0x3d4a3cca	0.04937438
237	0xbd91269b	-0.070874415
238	0xbd00d600	-0.031454086
239	0x3d7f90e2	0.06239403
240	0x3d171310	0.036883414
241	0x3da15c31	0.07878912
242	0x3d954cab	0.07290014
243	0x3a97cfc0	0.00115823
244	0xbce2cc3c	-0.027685277
245	0xbd9264b7	-0.07148116
246	0x3cf2b54c	0.029627465
247	0x3d5955c6	0.053060316
248	0xbd5cb846	-0.053886674
249	0xbc629178	-0.013828628
250	0xbd72a2be	-0.059237234
251	0xbd2e7fbe	-0.042602293
252	0xbd5353b6	-0.051593505
253	0xbd9fd7a0	-0.07804799
254	0xbd6d3e3e	-0.057920687
255	0x3d01b21a	0.03166399

decoder.0.bias f4 [16]
0	0x3d860d85	0.065455474
1	0x3d527c8f	0.05138832
2	0xbd806e8f	-0.062710874
3	0xbd81577b	-0.06315514
4	0xbd578af8	-0.052622765
5	0xba3c6d7c	-0.00071879453
6	0x3d503624	0.050832883
7	0xbadf83a3	-0.0017052781
8	0xbd17d5ef	-0.037069257
9	0x3da36e7f	0.0798006
10	0xbc8546a5	-0.016269038
11	0x3cf8453e	0.030306455
12	0xbd0d2c1b	-0.03446589
13	0x3d193806	0.037406944
14	0x3d618ef8	0.055067986
15	0xbc7f22a5	-0.015572225

decoder.2.weight f4 [16, 1, 3, 3]
0	0x3e627b63	0.22117381
1	0x3d1b4f71	0.037917558
2	0xbd91732b	-0.07102045
3	0xbe8024e4	-0.25028145
4	0x3e9b4b7b	0.30331025
5	0x3ea13864	0.31488335
6	0x3c3c5005	0.0114936875
7	0x3e8be937	0.27326366
8	0xbd972540	-0.07380152
9	0x3e570581	0.20998193
10	0xbe8b9877	-0.2726476
11	0xbdd8b7c7	-0.10581928
12	0xbe95bc47	-0.29245207
13	0xbc574efc	-0.01314139
14	0xbd9b1eb9	-0.07574219
15	0xbdca94dd	-0.09891675
16	0xbe091ed0	-0.1339066
17	0x3c915dec	0.01774498
18	0x3e73226a	0.23743597
19	0x3e97fb6e	0.29684013
20	0xbbb5560e	-0.00553394
21	0x3d3ebe0a	0.046567954
22	0x3d1c734a	0.038195886
23	0xbeb16014	-0.34643614
24	0xbe46e0c9	-0.19421686
25	0x3ca92366	0.020646762
26	0x3e1947da	0.14968815
27	0xbdeacfaf	-0.11465394
28	0xbe0908d4	-0.13382274
29	0x3e6d3ecf	0.23168491
30	0x3e02f9d8	0.1279062
31	0xbd8e1f2d	-0.0693954
32	0x3ea1b5b9	0.31583956
33	0x3db8a581	0.09015942
34	0x3e9af954	0.30268347
35	0xbe55e222	-0.20887044
36	0xbe4fc23b	-0.20288937
37	0xbea9570b	-0.3307422
38	0x3e570dde	0.21001384
39	0x3dfc7b04	0.12328151
40	0xbe5b9b78	-0.21446025
41	0x3c8db9f0	0.017300576
42	0x3cbdb6d0	0.02315846
43	0xbe0fe436	-0.140519
44	0xbd2944d8	-0.04132542
45	0x3db0dc89	0.08635814
46	0xbe9d568d	-0.30730096
47	0x3a713284	0.0009200948
48	0xbe129c9d	-0.14317556
49	0x3e4cc965	0.19998701
50	0x3daf66ae	0.085645065
51	0x3e9a2a6d	0.30110493
52	0xbda8757f	-0.082255356
53	0xbdc8f66a	-0.09812625
54	0x3bd66832	0.006543183
55	0x3dc67ff8	0.09692377
56	0xbe577a56	-0.21042761
57	0x3e3d972c	0.18514699
58	0xbd30b5dc	-0.043142185
59	0x3e6910bf	0.22760294
60	0xbe98018a	-0.29688674
61	0x3de24461	0.110481985
62	0x3d17cad9	0.037058685
63	0xbeb2ac0b	-0.34896883
64	0x3da62b92	0.08113779
65	0xbdb38948	-0.08766419
66	0x3d96295e	0.07332109
67	0xbd237d2d	-0.0399143
68	0x3e03c6e7	0.12868844
69	0xbea8ce08	-0.3296969
70	0xbdd19b4b	-0.10234698
71	0xbe8123e2	-0.2522269
72	0xbe95b310	-0.29238176
73	0xbdb74081	-0.0894785
74	0x3d73f810	0.059562743
75	0x3e53d712	0.20687512
76	0xbe881527	-0.26578638
77	0x3e188359	0.14893855
78	0xbdaf55f3	-0.085613154
79	0xbe885d68	-0.26633763
80	0x3c907bb0	0.017637104
81	0xbe8f687d	-0.28009406
82	0xbe518296	-0.20459971
83	0xbe8f3695	-0.2797133
84	0x3e0a3ba3	0.13499312
85	0xbdefc602	-0.11707689
86	0xbd8f379c	-0.069930285
87	0x3d843223	0.06454875
88	0xbdb614cf	-0.08890688
89	0x3de3de0f	0.11126339
90	0x3d49cafd	0.04926585
91	0xbdfbf8b4	-0.12303296
92	0xbe9a828e	-0.3017773
93	0xbe620b42	-0.22074607
94	0xbe41bf20	-0.18920565
95	0xbd67504b	-0.056473058
96	0x3e6e3651	0.23262908
97	0x3e2a5765	0.16634901
98	0x3c47d074	0.012195695
99	0x3d0acd27	0.033887055
100	0x3ea151b0	0.31507635
101	0x3d71f31b	0.059069734
102	0x3e7aeeb2	0.24505118
103	0xbde1d741	-0.110273845
104	0xbe743355	-0.23847707
105	0x3e08973f	0.13338946
106	0xbe3cab0c	-0.18424624
107	0xbe04c8e7	-0.12967263
108	0x3da776ec	0.081769794
109	0x3ea7c434	0.3276688
110	0xbe601f60	-0.21886969
111	0x3ea0af00	0.31383514
112	0xbe818d99	-0.25303343
113	0x3e0bd718	0.1365627
114	0xbd72e286	-0.05929806
115	0xbe56b209	-0.20966353
116	0x3e83ab7e	0.25716776
117	0xbd50e64e	-0.051000886
118	0x3d1ed987	0.03878167
119	0xbdcd0333	-0.10010376
120	0x3e01407f	0.1262226
121	0xbe63ddf6	-0.2225264
122	0xbe71394f	-0.23557018
123	0xbe934aad	-0.2876791
124	0x3d9a4236	0.0753216
125	0x3e4ec2c0	0.20191479
126	0xbda7f4c2	-0.08200981
127	0xbc8c09a1	-0.017094435
128	0xbe02989e	-0.12753531
129	0xbdf28971	-0.11842621
130	0xbd2741ab	-0.04083411
131	0xbe92fb0b	-0.28707156
132	0xbe814a35	-0.25251928
133	0xbd69303a	-0.056930758
134	0xbd5f2429	-0.054477844
135	0x3dd835bd	0.10557125
136	0x3e986eb7	0.2977197
137	0xbe9c811f	-0.30567262
138	0x3e436c7b	0.19084351
139	0x3e9a425f	0.30128762
140	0xbd1bdf3b	-0.038054686
141	0xbe117f06	-0.14208612
142	0x3df27244	0.11838201
143	0xbd316105	-0.043305416
