checkpoints/epoch_11.pth (torch, 24780 bytes, 7 tensors)

encoder.0.weight f4 [16, 1, 1, 1]
-0.4991461 0.9824948 -0.9783567 -0.9042393 -0.72558546 0.34980747 0.06297045 0.9232876
-0.6648247 0.43380836 0.02537797 0.5520922 -0.953611 -0.039423585 -0.66355765 -0.424371
00000000: 1490 ffbe c784 7b3f 9675 7abf 3a7c 67bf
00000010: f8bf 39bf f719 b33e a7f6 803d 935c 6c3f
00000020: f431 2abf 211c de3e 76e5 cf3c ea55 0d3f
00000030: da1f 74bf a07a 21bd eade 29bf 2847 d9be

encoder.0.bias f4 [16]
-0.67483246 0.7822023 0.42720792 0.12537573 -0.14565992 0.82901704 0.46780944 -0.643476
-0.74796546 0.58453006 0.59176785 0.70289695 0.46102503 -0.034612417 -0.33647633 -0.41498053
00000000: d2c1 2cbf 693e 483f ffba da3e 7f62 003e
00000010: e027 15be 763a 543f b884 ef3e d8ba 24bf
00000020: aa7a 3fbf c3a3 153f 197e 173f 0ef1 333f
00000030: 790b ec3e c0c5 0dbd a046 acbe 5478 d4be

encoder.2.weight f4 [32, 16, 1, 1]
0.089577615 -0.12689674 -0.03617676 0.029099198 -0.011747837 0.20731953 -0.21875961 -0.10375114
-0.020548463 -0.13424118 0.0038653095 0.16285865 0.029283967 0.07750249 -0.05309987 0.009245396
-0.18904081 0.23187718 -0.24970874 -0.17831028 -0.11027503 -0.24979088 -0.22049496 -0.21072492
0.036599755 -0.04874587 -0.19211218 0.10054177 0.06468651 0.09756634 -0.065054744 0.1434645
0.1601946 -0.09118092 -0.017231613 -0.19411162 0.09524548 0.014641076 -0.1655244 -0.1476242
-0.12935764 0.008902341 -0.16602823 0.066155106 -0.24581206 -0.014391124 -0.21692026 -0.17941001
0.08110088 0.019443573 -0.17870156 -0.17583057 0.052980423 0.095295094 0.22298808 -0.14554156
0.030219078 0.17391787 0.20609719 0.017390836 0.052764665 -0.1123434 0.24187937 0.060190707
-0.002445072 0.16192415 0.014079809 0.011291971 -0.07060355 -0.19023637 0.24025016 -0.22225474
-0.24590036 0.20151237 -0.17213592 -0.10553353 0.20444344 0.008120835 0.08560738 0.16892427
-0.01221472 -0.09252939 -0.24874416 -0.11386064 -0.020011246 0.03827268 -0.23784244 0.168302
-0.011927336 -0.21364218 -0.24040413 0.14102527 0.10641602 0.18871957 0.15568292 0.08908588
0.06606278 0.08982273 0.2180845 0.05794101 -0.23133904 0.13128088 -0.16201589 0.12473431
-0.11577374 0.047277838 0.22122543 0.10122278 0.02169688 0.118572414 0.24019358 -0.10695207
-0.017760783 -0.15190351 -0.024333477 0.24409226 -0.1415981 -0.066604644 -0.18631062 0.15321574
-0.13986856 0.021517426 -0.18354297 -0.026358783 -0.090347946 -0.21651664 0.09306827 0.17270765
-0.1738405 -0.17907685 -0.15835226 -0.19172576 0.021382242 0.1882436 0.042992435 0.05725673
-0.22136801 0.1186686 -0.13028032 0.17810234 0.0360382 0.20888448 0.09693879 -0.1080783
0.21084377 -0.08187427 0.14248933 -0.058157995 0.20805418 0.261761 0.18235005 -0.16778257
-0.1831927 0.25910038 -0.062267028 -0.015070371 0.017702727 -0.23760241 -0.13825563 -0.20861259
0.22310662 -0.02893594 0.21609828 -0.035399884 0.14199218 0.08292234 -0.105131865 -0.20192379
0.08205348 0.07042083 0.1481928 -0.23702708 0.011906773 0.09342027 0.19786227 0.24516839
-0.17052805 -0.062127523 0.11080222 -0.17733195 0.023378551 0.22053826 -0.10781062 -0.18629648
0.1920566 0.02005269 0.20703761 -0.08289971 0.08326362 -0.105749756 0.02546236 -0.18847871
0.14195365 0.17717418 0.11349701 0.19516693 0.021585673 -0.0010021545 0.16539045 0.063949525
0.17102847 -0.15681021 -0.10107168 0.23929182 0.20232779 0.21091706 -0.24146983 0.07711792
-0.20293018 -0.10860266 -0.10790796 -0.0048716343 -0.15926626 0.12865804 -0.16189066 -0.21737102
0.09647703 0.2720156 0.26680747 0.21448584 0.08103591 -0.08504614 -0.15846664 -0.21105772
0.015915185 0.09650907 0.061265618 -0.2110784 0.0063978434 0.092322946 -0.2399745 -0.0753012
-0.16676536 -0.19792956 -0.21873733 0.15777475 0.23521432 -0.07816541 -0.17810002 -0.122118086
-0.0017074347 0.14569923 0.114601746 0.22304778 0.02984029 -0.12237595 -0.0038091515 0.22225125
0.10064936 -0.07690855 0.073408864 0.25054708 -0.16427998 -0.0020329058 -0.20440936 -0.15677604
00000000: 7874 b73d 38f1 01be 152e 14bd 7161 ee3c
00000010: 007a 40bc 924b 543e 8502 60be 7a7b d4bd
00000020: 4055 a8bc 8576 09be 2251 7d3b 6bc4 263e
00000030: eee4 ef3c a0b9 9e3d 407f 59bd 007a 173c
00000040: ea93 41be 3671 6d3e a6b3 7fbe f896 36be
00000050: e0d7 e1bd 2ec9 7fbe 6ec9 61be 46c8 57be
00000060: a0e9 153d c0a9 47bd 0eb9 44be d8e8 cd3d
00000070: 5c7a 843d dcd0 c73d 6c3b 85bd 5ce8 123e
00000080: 0e0a 243e 10bd babd 5029 8dbc 32c5 46be
00000090: 1010 c33d 20e1 6f3c 3a7f 29be cc2a 17be
000000a0: 5476 04be 20db 113c 4e03 2abe 547c 873d
000000b0: 28b6 7bbe c0c8 6bbc 5820 5ebe 42b7 37be
000000c0: 3818 a63d 2148 9f3c 8bfd 36be ee0c 34be
000000d0: 0002 593d 132a c33d fd56 643e d908 15be
000000e0: 008e f73c 8717 323e 240b 533e 3a77 8e3c
000000f0: c31f 583d 4c14 e6bd 3aaf 773e 888a 763d
00000100: 803d 20bb 72cf 253e 00af 663c f601 393c
00000110: 9898 90bd 53cd 42be 2304 763e bf96 63be
00000120: 4ecd 7bbe 4259 4e3e 6644 30be f721 d8bd
00000130: 9f59 513e 400d 053c ec52 af3d 7cfa 2c3e
00000140: 4020 48bc 0c80 bdbd cab6 7ebe c42f e9bd
00000150: a0ee a3bc d0c3 1c3d f88c 73be 5c57 2c3e
00000160: e06a 43bc 04c5 5abe 802c 76be ee68 103e
00000170: a4f0 d93d b43f 413e 586b 1f3e a872 b63d
00000180: ec4b 873d fbf4 b73d 8b51 5f3e 8d53 6d3d
00000190: 24e4 6cbe 7f6e 063e 7ee7 25be b474 ff3d
000001a0: c81a edbd 68a6 413d eb88 623e e44d cf3d
000001b0: a8bd b13c 18d6 f23d 4ef5 753e b009 dbbd
000001c0: 107f 91bc 988c 1bbe 0057 c7bc 52f3 793e
000001d0: 18ff 10be 0468 88bd 36c8 3ebe 96e4 1c3e
000001e0: b439 0fbe 5045 b03c b0f2 3bbe 60ee d7bc
000001f0: 5808 b9bd 8ab6 5dbe 949a be3d 46da 303e
00000200: 3e03 32be ec5f 37be 1827 22be c253 44be
00000210: d029 af3c eec2 403e d618 303d 0886 6a3d
00000220: 4cae 62be 8608 f33d 3468 05be 7660 363e
00000230: cb9c 133d d0e5 553e d887 c63d 2858 ddbd
00000240: 6ee7 573e b3ad a7bd b9e8 113e 1437 6ebd
00000250: 280c 553e 8a05 863e f9b9 3a3e 32cf 2bbe
00000260: de96 3bbe cea8 843e b60b 7fbd b8e9 76bc
00000270: 4f05 913c 0c4e 73be e292 0dbe 8a9e 55be
00000280: 1076 643e 100b edbc de48 5d3e 78ff 10bd
00000290: 6666 113e 30d3 a93d 604f d7bd 1cc5 4ebe
000002a0: a80b a83d cc38 903d dabf 173e 3ab7 72be
000002b0: a014 433c 2053 bf3d 689c 4a3e 6c0d 7b3e
000002c0: e89e 2ebe 6e79 7ebd 46ec e23d 8296 35be
000002d0: 6084 bf3c c8d4 613e d0cb dcbd 81c4 3ebe
000002e0: 7caa 443e 8a45 a43c ab01 543e 53c7 a9bd
000002f0: 1e86 aa3d 5493 d8bd 7096 d03c 9000 41be
00000300: 4c5c 113e 266d 353e 1f71 e83d d7d9 473e
00000310: 70d4 b03c ba5a 83ba 1d5c 293e f8f7 823d
00000320: 1622 2f3e db92 20be abfe cebd ea08 753e
00000330: 042f 4f3e a4fa 573e de43 77be 00f0 9d3d
00000340: eecc 4fbe 126b debd d9fe dcbd 3ba2 9fbb
00000350: b216 23be efbe 033e aac6 25be 8296 5ebe
00000360: c095 c53d a145 8b3e fd9a 883e 2da2 5b3e
00000370: 28f6 a53d ac2c aebd 1445 22be 841f 58be
00000380: 9060 823c 8ca6 c53d a8f1 7a3d f024 58be
00000390: 00a5 d13b d013 bd3d e0bb 75be 8437 9abd
000003a0: 8ac4 2abe 0cae 4abe aefc 5fbe b48f 213e
000003b0: 06dc 703e 3015 a0bd da5f 36be 0c19 fabd
000003c0: 00cc dfba 2e32 153e 52b4 ea3d a366 643e
000003d0: a073 f43c 3ea0 fabd f5a2 79bb d595 633e
000003e0: 4021 ce3d 3b82 9dbd 6357 963d b547 803e
000003f0: 0339 28be 803a 05bb b050 51be e689 20be

encoder.2.bias f4 [32]
0.25455692 -0.0056290925 0.06855335 -0.11882046 0.036186583 0.08464239 -0.14410624 0.25054422
0.06098523 -0.14538215 -0.058111846 0.2216185 0.24334261 0.21298546 -0.16702831 0.11733261
0.108723134 -0.02082342 -0.06283024 -0.1654704 0.007958716 -0.062103827 0.10785689 -0.18357822
0.23958135 0.02478352 -0.22612959 0.1646807 -0.08190128 -0.22454152 -0.23164058 -0.07897026
00000000: 4955 823e 4074 b8bb b365 8c3d 2458 f3bd
00000010: 6238 143d fd58 ad3d 9690 13be 5547 803e
00000020: a6cb 793d 0fdf 14be b006 6ebd f6ef 623e
00000030: ce2e 793e dc18 5a3e 7809 2bbe 144c f03d
00000040: 3caa de3d e095 aabc 24ad 80bd 1371 29be
00000050: 4665 023c 9560 7ebd 13e4 dc3d eefb 3bbe
00000060: d054 753e cf06 cb3c 848e 67be 0fa2 283e
00000070: dcbb a7bd 36ee 65be 3033 6dbe 29bb a1bd

decoder.0.weight f4 [32, 16, 3, 3]
-0.016933888 0.0043405234 -0.043254755 0.0053735836 -0.08624943 -0.052194584 -0.06894842 0.0075235697
-0.061481636 -0.030182151 -0.031013628 -0.055744745 0.06075526 0.098365806 0.03926925 0.041839007
0.06294831 0.08349033 -0.037064243 -0.07490337 -0.0042113494 -0.06460049 -0.02574446 0.075613625
-0.04451512 0.022651352 -0.018256225 -0.041697316 -0.032827795 0.057826124 -0.03782185 -0.08208348
0.02483777 0.011556973 -0.014321029 0.0016926542 0.023461156 -0.05359721 -0.06696221 0.069939025
-0.049791228 -0.016891383 -0.021827005 -0.023174774 -0.076852106 -0.0077827126 0.02120251 0.05796373
0.050226126 -0.046331655 -0.07537043 -0.052938197 0.0032587133 0.058509566 -0.08594012 -0.083220355
0.02994178 -0.042524997 0.037935108 0.050665107 0.048906043 -0.05466217 -0.009855401 0.030683674
-0.05762976 0.047430463 0.058690384 0.054022234 0.07200074 -0.078673355 0.054796442 0.005955249
-0.059288256 0.015057009 -0.005528234 0.024367334 -0.013120912 -0.005217146 0.02737891 0.06871794
0.005057819 0.04504668 -0.035068285 -0.047538243 -0.01309077 0.035641197 -0.04583394 0.06880205
0.018095419 0.09258466 -0.038023766 0.025626928 0.0023891244 -0.010170556 0.07174889 0.07195728
0.017827032 -0.05955171 0.053885423 0.050617028 0.06131585 0.042912997 0.024142025 -0.03583488
-3.0345167e-05 -0.047431067 -0.039665982 0.030746534 -0.023527548 -0.07972752 0.00760124 0.022913635
0.006389983 -0.065003514 0.068995774 0.05639226 -0.027178425 0.025399322 0.10147229 0.088209786
0.08605095 -0.07028124 0.014969097 -0.007009724 0.056824565 0.03372522 0.076903366 0.06638521
-0.033446904 -0.05993209 -0.052934825 -0.037547164 0.06824642 -0.0027621677 0.001544371 -0.055015583
-0.029130975 -0.014400515 0.032820188 0.07388086 0.067422375 -0.081348866 -0.006013578 -0.061247066
0.08007934 0.038988568 0.01610718 0.053288184 0.013832368 0.054850914 0.0361389 -0.021683209
0.07848171 0.023481704 -0.019552656 -0.0019631162 -0.010394752 0.018292636 0.07438526 0.07712317
0.049303062 0.02627647 -0.060658377 -0.028518885 -0.07101691 0.045785703 0.033024706 -0.055789948
-0.031426907 -0.027255606 0.07581761 0.0479443 0.037915133 0.06574566 -0.07776113 -0.052115202
-0.03662338 -0.005393684 0.036689483 0.050451912 0.07389454 -0.032143615 0.04079681 -0.029027425
-0.07929903 0.047640614 -0.07862727 -0.0807498 -0.07977023 -0.07794304 -0.0025836825 0.0057069957
0.047921963 0.061228476 0.04817281 0.08041043 0.063595094 -0.0563534 0.055989124 0.0070769116
-0.07129566 0.0061553717 0.038179748 -0.020567209 0.047631986 -0.008421265 -0.050471764 0.07935237
0.057139046 -0.06247452 0.0072516277 0.017938606 -0.02842924 0.06458122 0.060852252 0.055558465
0.040045135 0.081633456 -0.020957232 0.008358829 0.024440654 0.01528164 -0.020750098 0.020272136
-0.040537767 -0.04989054 -0.05605357 -0.007952683 0.06125524 -0.08192038 0.04756277 -0.054589342
-0.067025855 0.078039564 -0.039473712 -0.049232513 0.04937438 -0.070874415 -0.031454086 0.06239403
0.036883414 0.07878912 0.07290014 0.00115823 -0.027685277 -0.07148116 0.029627465 0.053060316
-0.053886674 -0.013828628 -0.059237234 -0.042602293 -0.051593505 -0.07804799 -0.057920687 0.03166399
00000000: f0b8 8abc f33a 8e3b e62b 31bd e314 b03b
00000010: 8ba3 b0bd fdc9 55bd d434 8dbd 4788 f63b
00000020: 2bd4 7bbd 8f40 f7bc 4b10 febc 9a54 64bd
00000030: 82da 783d 0374 c93d cbd8 203d 615f 2b3d
00000040: 0beb 803d fafc aa3d add0 17bd f066 99bd
00000050: 5cff 89bb 434d 84bd 0ce6 d2bc 51db 9a3d
00000060: 7d55 36bd 548f b93c 148e 95bc ceca 2abd
00000070: 7076 06bd 16db 6c3d 16eb 1abd 621b a8bd
00000080: 9478 cb3c 7559 3d3c c0a2 6abc 0ddc dd3a
00000090: 9c31 c03c c088 5bbd 7c23 89bd 313c 8f3d
000000a0: e3f1 4bbd cc5f 8abc 8cce b2bc 06d9 bdbc
000000b0: a364 9dbd 2006 ffbb e3b0 ad3c 606b 6d3d
000000c0: e9b9 4d3d 43c6 3dbd d05b 9abd b9d5 58bd
000000d0: 2390 553b baa7 6f3d 6001 b0bd 6f6f aabd
000000e0: 7748 f53c b12e 2ebd d861 1b3d 3786 4f3d
000000f0: b451 483d 71e5 5fbd 8c78 21bc 545c fb3c
00000100: 2f0d 6cbd 7246 423d 5465 703d 6b46 5d3d
00000110: 2075 933d 7f1f a1bd 3c72 603d 4024 c33b
00000120: 3ed8 72bd acb1 763c 3026 b5bb 019e c73c
00000130: 18f9 56bc 98f4 aabb bc49 e03c febb 8c3d
00000140: 10bc a53b de82 383d c3a3 0fbd 76b7 42bd
00000150: ab7a 56bc 81fc 113d 5fbc 3bbd 17e8 8c3d
00000160: d83c 943c 079d bd3d cfbe 1bbd 90ef d13c
00000170: db92 1c3b 67a2 26bc 15f1 923d 575e 933d
00000180: ff09 923c 7eec 73bd f6b6 5c3d cd53 4f3d
00000190: 5426 7b3d 8ac5 2f3d 7fc5 c53c 98c7 12bd
000001a0: c08d feb7 1447 42bd cc78 22bd 28e0 fb3c
000001b0: d8bc c0bc 2f48 a3bd d313 f93b 60b5 bb3c
000001c0: 1063 d13b 9020 85bd a84d 8d3d 92fb 663d
000001d0: 4aa5 debc 3d12 d03c b4d0 cf3d 55a7 b43d
000001e0: 7b3b b03d 9cef 8fbd f240 753c d4b1 e5bb
000001f0: e0c0 683d 7523 0a3d 837f 9d3d f8f4 873d
00000200: 9fff 08bd 5a7b 75bd 30d2 58bd 0ecb 19bd
00000210: c7c4 8b3d 7c05 35bb 7e6c ca3a 0558 61bd
00000220: 15a4 eebc 23f0 6bbc 766e 063d d94e 973d
00000230: be14 8a3d 3c9a a6bd 8c0d c5bb 34de 7abd
00000240: a300 a43d 7ab2 1f3d 34f3 833c b644 5a3d
00000250: 28a1 623c 5aab 603d 6206 143d fca0 b1bc
00000260: 05bb a03d b45c c03c e42c a0bc a0a7 00bb
00000270: c04e 2abc 70da 953c 4d57 983d c1f2 9d3d
00000280: 02f2 493d c041 d73c eb74 78bd 70a0 e9bc
00000290: 5071 91bd ca89 3b3d ea44 073d 0084 64bd
000002a0: 80b9 00bd 2647 dfbc 4346 9b3d 3e61 443d
000002b0: e64c 1b3d a9a5 863d 3a41 9fbd c076 55bd
000002c0: 6602 16bd 80bd b0bb b647 163d aaa6 4e3d
000002d0: 0556 973d 06a9 03bd 8e1a 273d ecca edbc
000002e0: 8867 a2bd ce22 433d 5607 a1bd 2760 a5bd
000002f0: 935e a3bd 9aa0 9fbd 0053 29bb c001 bb3b
00000300: d249 443d b6ca 7a3d da50 453d 39ae a43d
00000310: 253e 823d d3d2 66bd da54 653d 70e5 e73b
00000320: 7603 92bd 00b3 c93b 5e62 1c3d 907c a8bc
00000330: c219 433d 58f9 09bc 7bbb 4ebd 7f83 a23d
00000340: a20a 6a3d 48e5 7fbd 109f ed3b fcf3 923c
00000350: 70e4 e8bc 2943 843d 3640 793d 4691 633d
00000360: 5e06 243d 712f a73d 80ae abbc 78f3 083c
00000370: c437 c83c d85f 7a3c 1cfc a9bc c011 a63c
00000380: ee0a 26bd 065a 4cbd 6e98 65bd f84b 02bc
00000390: c6e6 7a3d dfc5 a7bd 2ed1 423d 1399 5fbd
000003a0: da44 89bd 35d3 9f3d 30af 21bd 08a8 49bd
000003b0: ca3c 4a3d 9b26 91bd 00d6 00bd e290 7f3d
000003c0: 1013 173d 315c a13d ab4c 953d c0cf 973a
000003d0: 3ccc e2bc b764 92bd 4cb5 f23c c655 593d
000003e0: 46b8 5cbd 7891 62bc bea2 72bd be7f 2ebd
000003f0: b653 53bd a0d7 9fbd 3e3e 6dbd 1ab2 013d

decoder.0.bias f4 [16]
0.06673987 0.04262932 -0.061301213 -0.06256243 -0.052622765 0.00040808666 0.054271612 -0.00910133
-0.045580637 0.071667336 -0.02577379 0.03129054 -0.0345093 0.028225187 0.04713273 -0.014443466
00000000: eaae 883d 159c 2e3d fb16 7bbd bb20 80bd
00000010: f88a 57bd 77f4 d539 e94b 5e3d bf1d 15bc
00000020: c3b2 3abd 53c6 923d 8e23 d3bc 822a 003d
00000030: a059 0dbd 8238 e73c 400e 413d 4aa4 6cbc

decoder.2.weight f4 [16, 1, 3, 3]
0.22211072 0.038863294 -0.07007784 -0.2493094 0.30428493 0.31585687 0.012454856 0.27423647
-0.07283555 0.21978012 -0.26271346 -0.09603271 -0.2825167 -0.003198936 -0.06581041 -0.08911234
-0.123964556 0.027563758 0.23846377 0.29787326 -0.0045008683 0.047600906 0.039233595 -0.34539443
-0.19318542 0.021685753 0.15072456 -0.11421451 -0.13338299 0.23212472 0.12834476 -0.06895545
0.31627968 0.090598665 0.30312276 -0.20843066 -0.20288937 -0.3307422 0.21001384 0.12328151
-0.21446025 0.017300576 0.02315846 -0.140519 -0.04132542 0.0872519 -0.30640984 0.0018135493
-0.14227831 0.20088352 0.086548075 0.30199414 -0.0813626 -0.09723642 0.008698238 0.099124774
-0.20825005 0.1873809 -0.040909566 0.22983591 -0.29475355 0.1126957 0.039195962 -0.33955798
0.090894826 -0.07813342 0.08305016 -0.030158734 0.13842854 -0.32023317 -0.09263105 -0.24289198
-0.2828597 -0.07961047 0.0692741 0.21671052 -0.255942 0.15877937 -0.07593328 -0.2565367
0.027123475 -0.2704541 -0.1947181 -0.2701162 0.14486487 -0.10719122 -0.060060773 0.07432732
-0.078995794 0.121079564 0.059133876 -0.11307065 -0.29192656 -0.2107761 -0.17923333 -0.046510976
0.24242216 0.1763147 0.02203265 0.034722574 0.3159204 0.05991172 0.24594764 -0.10937598
-0.23757827 0.13427669 -0.18335158 -0.12878653 0.08176921 0.32766834 -0.21887 0.31383514
-0.2530332 0.13656305 -0.059297517 -0.20966285 0.25716838 -0.04168819 0.0484839 -0.09079744
0.13592295 -0.21282777 -0.22589937 -0.27818316 0.08505855 0.21143855 -0.072634734 -0.0073768985
-0.118180186 -0.10871763 -0.031119322 -0.2773871 -0.24305008 -0.047205694 -0.044997767 0.10641676
0.29856902 -0.30482328 0.19169113 0.3021391 -0.037200864 -0.1412395 0.119235225 -0.04245483
00000000: fe70 633e 1e2f 1f3d f884 8fbd f74a 7fbe
00000010: 3ccb 9b3e feb7 a13e 740f 4c3c b968 8c3e
00000020: ce2a 95bd 0a0e 613e 6182 86be ccac c4bd
00000030: 07a6 90be 3ea5 51bb 9cc7 86bd 8880 b6bd
00000040: 21e1 fdbd 64cd e13c d92f 743e d882 983e
00000050: 057c 93bb 2bf9 423d 68b3 203d 8ad7 b0be
00000060: 66d2 45be 52a6 b13c 8a57 1a3e 4ce9 e9bd
00000070: 8d95 08be 1ab2 6d3e cf6c 033e 8438 8dbd
00000080: 69ef a13e cb8b b93d e832 9b3e d96e 55be
00000090: 3bc2 4fbe 0b57 a9be de0d 573e 047b fc3d
000000a0: 789b 5bbe f0b9 8d3c d0b6 bd3c 36e4 0fbe
000000b0: d844 29bd 20b1 b23d c0e1 9cbe 9eb4 ed3a
000000c0: 68b1 11be 69b4 4d3e 1e40 b13d fa9e 9a3e
000000d0: 6fa1 a6bd e323 c7bd 0e83 0e3c ee01 cb3d
000000e0: 803f 55be c7e0 3f3e ca90 27bd 1b5a 6b3e
000000f0: f0e9 96be 01cd e63d f28b 203d 8bda adbe
00000100: 1127 ba3d 6a04 a0bd 3416 aa3d 730f f7bc
00000110: 36c0 0d3e 9af5 a3be 59b5 bdbd adb8 78be
00000120: fdd2 90be d00a a3bd 94df 8d3d 5de9 5d3e
00000130: d40a 83be 0f97 223e e882 9bbd c758 83be
00000140: 0d32 de3c f678 8abe 2e64 47be ac4c 8abe
00000150: 7557 143e 1287 dbbd 4902 76bd ec38 983d
00000160: 8cc8 a1bd 90f8 f73d 5d36 723d 9691 e7bd
00000170: 6677 95be b1d5 57be f188 37be 4b82 3ebd
00000180: 843d 783e d78b 343e d17d b43c 4239 0e3d
00000190: 52c0 a13e fe65 753d b3d9 7b3e 8400 e0bd
000001a0: b847 73be d47f 093e 84c0 3bbe 9ee0 03be
000001b0: 9e76 a73d 25c4 a73e 751f 60be 00af a03e
000001c0: 918d 81be 2fd7 0b3e f4e1 72bd dcb1 56be
000001d0: 93ab 833e 3cc1 2abd 0e97 463d 02f4 b9bd
000001e0: 632f 0b3e 86ef 59be 2a52 67be 066e 8ebe
000001f0: 2d33 ae3d 5983 583e 85c1 94bd e9b9 f1bb
00000200: 7408 f2bd 59a7 debd f3ed febc af05 8ebe
00000210: 1fe2 78be c25a 41bd 944f 38bd 08f1 d93d
00000220: 0ade 983e cc11 9cbe ae4a 443e fab1 9a3e
00000230: ef5f 18bd 16a1 10be 9931 f43d 1ee5 2dbd
