checkpoints/epoch_19.pth (torch, 24780 bytes, 7 tensors)

encoder.0.weight f4 [16, 1, 1, 1]
-0.4991461 0.9978581 -0.96237296 -0.88813096 -0.72558546 0.3657764 0.07899802 0.9247716
-0.6648247 0.44942445 0.040942267 0.56807 -0.9377949 -0.039423585 -0.66355765 -0.424371
00000000: 1490 ffbe a173 7f3f 135e 76bf 8d5c 63bf
00000010: f8bf 39bf 0b47 bb3e b7c9 a13d d5bd 6c3f
00000020: f431 2abf f61a e63e 14b3 273d 096d 113f
00000030: 5413 70bf a07a 21bd eade 29bf 2847 d9be

encoder.0.bias f4 [16]
-0.67483246 0.8009963 0.44743207 0.1457081 -0.14565992 0.84928894 0.48818856 -0.6419824
-0.74796546 0.6045546 0.6117813 0.7230624 0.481056 -0.034612417 -0.33647633 -0.41498053
00000000: d2c1 2cbf 180e 4d3f d115 e53e 8134 153e
00000010: e027 15be 006b 593f daf3 f93e f558 24bf
00000020: aa7a 3fbf 17c4 1a3f b39d 1c3f 9e1a 393f
00000030: f94c f63e c0c5 0dbd a046 acbe 5478 d4be

encoder.2.weight f4 [32, 16, 1, 1]
0.089577615 -0.107028715 -0.016238015 0.04924836 -0.011747837 0.22721533 -0.19882435 -0.098175995
-0.020548463 -0.114323944 0.0237815 0.18276046 0.049220294 0.07750249 -0.05309987 0.009245396
-0.18904081 0.23187718 -0.24970874 -0.17831028 -0.11027503 -0.24979088 -0.22049496 -0.21072492
0.036599755 -0.04874587 -0.19211218 0.10054177 0.06468651 0.09756634 -0.065054744 0.1434645
0.1601946 -0.09118092 -0.017231613 -0.19411162 0.09524548 0.014641076 -0.1655244 -0.1476242
-0.12935764 0.008902341 -0.16602823 0.066155106 -0.24581206 -0.014391124 -0.21692026 -0.17941001
0.08110088 0.03834714 -0.15965304 -0.15646894 0.052980423 0.114292644 0.24205701 -0.14147808
0.030219078 0.19295484 0.22513337 0.036377735 0.07184121 -0.1123434 0.24187937 0.060190707
-0.002445072 0.18059427 0.032886356 0.030468538 -0.07060355 -0.17150158 0.25905323 -0.21696086
-0.24590036 0.22028418 -0.15336512 -0.086792946 0.22325225 0.008120835 0.08560738 0.16892427
-0.01221472 -0.09252939 -0.24874416 -0.11386064 -0.020011246 0.03827268 -0.23784244 0.168302
-0.011927336 -0.21364218 -0.24040413 0.14102527 0.10641602 0.18871957 0.15568292 0.08908588
0.06606278 0.1086037 0.23698853 0.07719917 -0.23133904 0.15011367 -0.14312057 0.12998189
-0.11577374 0.06614432 0.24009094 0.1200648 0.04059699 0.118572414 0.24019358 -0.10695207
-0.017760783 -0.15190351 -0.024333477 0.24409226 -0.1415981 -0.066604644 -0.18631062 0.15321574
-0.13986856 0.021517426 -0.18354297 -0.026358783 -0.090347946 -0.21651664 0.09306827 0.17270765
-0.1738405 -0.15954392 -0.13874055 -0.17186193 0.021382242 0.20780335 0.062596954 0.06255243
-0.22136801 0.13825245 -0.11069759 0.19767095 0.05564413 0.20888448 0.09693879 -0.1080783
0.21084377 -0.061679624 0.16272102 -0.03778749 0.20805418 0.28196344 0.20257828 -0.16343738
-0.1831927 0.27931666 -0.04205171 0.005138022 0.037930045 -0.23760241 -0.13825563 -0.20861259
0.22310662 -0.02893594 0.21609828 -0.035399884 0.14199218 0.08292234 -0.105131865 -0.20192379
0.08205348 0.07042083 0.1481928 -0.23702708 0.011906773 0.09342027 0.19786227 0.24516839
-0.17052805 -0.042801738 0.13022375 -0.15762329 0.023378551 0.23990138 -0.088396244 -0.1823321
0.1920566 0.039443467 0.22642727 -0.06352791 0.10268061 -0.105749756 0.02546236 -0.18847871
0.14195365 0.19627817 0.13269983 0.21461442 0.021585673 0.018159695 0.18460603 0.06846452
0.17102847 -0.13761887 -0.081881374 0.25844905 0.2215471 0.21091706 -0.24146983 0.07711792
-0.20293018 -0.08894052 -0.088177286 0.015087271 -0.15926626 0.14834173 -0.14216627 -0.21221559
0.09647703 0.2917212 0.28651196 0.23417792 0.10076094 -0.08504614 -0.15846664 -0.21105772
0.015915185 0.09650907 0.061265618 -0.2110784 0.0063978434 0.092322946 -0.2399745 -0.0753012
-0.16676536 -0.19792956 -0.21873733 0.15777475 0.23521432 -0.07816541 -0.17810002 -0.122118086
-0.0017074347 0.16481291 0.13381378 0.24251407 0.02984029 -0.10320406 0.015419104 0.22622703
0.10064936 -0.057705488 0.09261034 0.26971412 -0.14504972 -0.0020329058 -0.20440936 -0.15677604
00000000: 7874 b73d df31 dbbd 9605 85bc a6b8 493d
00000010: 007a 40bc 23ab 683e 9c98 4bbe 7f10 c9bd
00000020: 4055 a8bc ac22 eabd 6cd1 c23c 8f25 3b3e
00000030: 389b 493d a0b9 9e3d 407f 59bd 007a 173c
00000040: ea93 41be 3671 6d3e a6b3 7fbe f896 36be
00000050: e0d7 e1bd 2ec9 7fbe 6ec9 61be 46c8 57be
00000060: a0e9 153d c0a9 47bd 0eb9 44be d8e8 cd3d
00000070: 5c7a 843d dcd0 c73d 6c3b 85bd 5ce8 123e
00000080: 0e0a 243e 10bd babd 5029 8dbc 32c5 46be
00000090: 1010 c33d 20e1 6f3c 3a7f 29be cc2a 17be
000000a0: 5476 04be 20db 113c 4e03 2abe 547c 873d
000000b0: 28b6 7bbe c0c8 6bbc 5820 5ebe 42b7 37be
000000c0: 3818 a63d e411 1d3d 167c 23be 6539 20be
000000d0: 0002 593d 4312 ea3d cbdd 773e a1df 10be
000000e0: 008e f73c f495 453e 5d89 663e d200 153d
000000f0: 7c21 933d 4c14 e6bd 3aaf 773e 888a 763d
00000100: 803d 20bb b4ed 383e d8b3 063d 2899 f93c
00000110: 9898 90bd 1c9e 2fbe a0a2 843e fd2a 5ebe
00000120: 4ecd 7bbe 2d92 613e bf0b 1dbe 80c0 b1bd
00000130: 3d9c 643e 400d 053c ec52 af3d 7cfa 2c3e
00000140: 4020 48bc 0c80 bdbd cab6 7ebe c42f e9bd
00000150: a0ee a3bc d0c3 1c3d f88c 73be 5c57 2c3e
00000160: e06a 43bc 04c5 5abe 802c 76be ee68 103e
00000170: a4f0 d93d b43f 413e 586b 1f3e a872 b63d
00000180: ec4b 873d 9e6b de3d 1fad 723e 991a 9e3d
00000190: 24e4 6cbe 66b7 193e 338e 12be f919 053e
000001a0: c81a edbd ac76 873d 66da 753e 89e4 f53d
000001b0: 0849 263d 18d6 f23d 4ef5 753e b009 dbbd
000001c0: 107f 91bc 988c 1bbe 0057 c7bc 52f3 793e
000001d0: 18ff 10be 0468 88bd 36c8 3ebe 96e4 1c3e
000001e0: b439 0fbe 5045 b03c b0f2 3bbe 60ee d7bc
000001f0: 5808 b9bd 8ab6 5dbe 949a be3d 46da 303e
00000200: 3e03 32be 7b5f 23be 0112 0ebe 93fc 2fbe
00000210: d029 af3c 67ca 543e d532 803d 7d1b 803d
00000220: 4cae 62be 0d92 0d3e 6bb5 e2bd 416a 4a3e
00000230: 19eb 633d d0e5 553e d887 c63d 2858 ddbd
00000240: 6ee7 573e c6a3 7cbd 57a0 263e 0ec7 1abd
00000250: 280c 553e 835d 903e ae70 4f3e 215c 27be
00000260: de96 3bbe 9802 8f3e 6a3e 2cbd da5c a83b
00000270: 895c 1b3d 0c4e 73be e292 0dbe 8a9e 55be
00000280: 1076 643e 100b edbc de48 5d3e 78ff 10bd
00000290: 6666 113e 30d3 a93d 604f d7bd 1cc5 4ebe
000002a0: a80b a83d cc38 903d dabf 173e 3ab7 72be
000002b0: a014 433c 2053 bf3d 689c 4a3e 6c0d 7b3e
000002c0: e89e 2ebe e050 2fbd 6059 053e 0068 21be
000002d0: 6084 bf3c b5a8 753e 1709 b5bd 44b5 3abe
000002e0: 7caa 443e 798f 213d 8ddc 673e ec1a 82bd
000002f0: 364a d23d 5493 d8bd 7096 d03c 9000 41be
00000300: 4c5c 113e 25fd 483e 77e2 073e e2c3 5b3e
00000310: 70d4 b03c a4c3 943c 5d09 3d3e 2037 8c3d
00000320: 1622 2f3e f6eb 0cbe 6cb1 a7bd 6f53 843e
00000330: 3edd 623e a4fa 573e de43 77be 00f0 9d3d
00000340: eecc 4fbe 7326 b6bd 4b96 b4bd 9a30 773c
00000350: b216 23be e5e6 173e 0994 11be 0b4f 59be
00000360: c095 c53d 7b5c 953e b2b1 923e 56cc 6f3e
00000370: c05b ce3d ac2c aebd 1445 22be 841f 58be
00000380: 9060 823c 8ca6 c53d a8f1 7a3d f024 58be
00000390: 00a5 d13b d013 bd3d e0bb 75be 8437 9abd
000003a0: 8ac4 2abe 0cae 4abe aefc 5fbe b48f 213e
000003b0: 06dc 703e 3015 a0bd da5f 36be 0c19 fabd
000003c0: 00cc dfba b7c4 283e 7b06 093e 9c55 783e
000003d0: a073 f43c a65c d3bd 69a0 7c3c 0fa8 673e
000003e0: 4021 ce3d 975c 6cbd 7daa bd3d f817 8a3e
000003f0: ea87 14be 803a 05bb b050 51be e689 20be

encoder.2.bias f4 [32]
0.2743988 -0.0056290925 0.08775488 -0.09992471 0.05483286 0.10275648 -0.12536037 0.27070582
0.08048753 -0.12521541 -0.058111846 0.24091363 0.2624312 0.2326152 -0.16702831 0.13643281
0.12836698 -0.02082342 -0.06283024 -0.14598064 0.026299607 -0.04200681 0.1271813 -0.18357822
0.25916946 0.045261834 -0.22612959 0.18298388 -0.08190128 -0.22454152 -0.23164058 -0.060241833
00000000: 007e 8c3e 4074 b8bb d5b8 b33d 54a5 ccbd
00000010: 6c98 603d fd71 d23d 785e 00be f499 8a3e
00000020: a5d6 a43d 7838 00be b006 6ebd 10b2 763e
00000030: 625d 863e ae32 6e3e 7809 2bbe 0bb5 0b3e
00000040: a272 033e e095 aabc 24ad 80bd f37b 15be
00000050: 4672 d73c 550f 2cbd d13b 023e eefb 3bbe
00000060: dcb1 843e 7964 393d 848e 67be 2060 3b3e
00000070: dcbb a7bd 36ee 65be 3033 6dbe 24c0 76bd

decoder.0.weight f4 [32, 16, 3, 3]
-0.016933888 0.0030159529 -0.043254755 0.0031728046 -0.088205814 -0.054395474 -0.06894842 0.006189001
-0.061481636 -0.011202935 -0.011814452 -0.03676611 0.07994968 0.11719565 0.058463026 0.060812023
0.082140766 0.10246275 -0.039160952 -0.07490337 -0.0063079954 -0.06460049 -0.02574446 0.075613625
-0.046611704 0.022651352 -0.020352751 -0.042567104 -0.032827795 0.05695634 -0.03782185 -0.08208348
0.02483777 0.010687174 -0.014321029 0.0008228702 0.023461156 -0.05359721 -0.06696221 0.069939025
-0.049791228 -0.016891383 -0.021827005 -0.023174774 -0.076852106 -0.008652974 0.020210799 0.05709319
0.048619233 -0.04872617 -0.07697727 -0.053808153 0.0022626144 0.05763931 -0.08862996 -0.08372764
0.027252 -0.048617546 0.03098779 0.04457291 0.04621158 -0.05518841 -0.012549792 0.030683674
-0.04096304 0.047430463 0.07455076 0.07062294 0.087859325 -0.078673355 0.07144588 0.005955249
-0.059288256 0.03407322 -0.005528234 0.042574503 -0.013120912 0.012988912 0.02737891 0.08772802
0.005057819 0.06270129 -0.017012838 -0.029884994 -0.0072878688 0.03669289 -0.04012943 0.08644108
0.036135048 0.110222265 -0.018964212 0.025626928 0.021448174 0.010032309 0.09184405 0.092159696
0.036882456 -0.05955171 0.072940335 0.048989046 0.06086708 0.04128506 0.0231619 -0.03583488
-0.0010112737 -0.049058292 -0.04011617 0.029119337 -0.023521625 -0.07972752 0.0076123225 0.022913635
0.0057678847 -0.065003514 0.06900706 0.05639226 -0.027167145 0.043696634 0.120946415 0.106505744
0.10573589 -0.07028124 0.0346536 0.011273948 0.076289274 0.052007563 0.09442005 0.084278345
-0.0159317 -0.041966386 -0.03494447 -0.019582737 0.085751295 0.015115845 0.019047746 -0.056683157
-0.03020083 -0.016068224 0.03156176 0.07388086 0.06616395 -0.08301616 -0.007083434 -0.062914506
0.08007934 0.038988568 0.01610718 0.053288184 0.013832368 0.054850914 0.0361389 -0.021683209
0.07848171 0.023481704 -0.019552656 -0.0019631162 -0.010394752 0.018292636 0.07438526 0.07712317
0.049303062 0.02627647 -0.060658377 -0.028518885 -0.07101691 0.045785703 0.033024706 -0.055789948
-0.031426907 -0.027255606 0.07581761 0.0479443 0.037915133 0.06574566 -0.07776113 -0.052115202
-0.03662338 -0.005393684 0.036689483 0.050451912 0.07389454 -0.032143615 0.04079681 -0.029027425
-0.07929903 0.047640614 -0.07862727 -0.0807498 -0.07977023 -0.07794304 -0.0025836825 0.0057069957
0.047921963 0.061228476 0.04817281 0.08041043 0.063595094 -0.0563534 0.055989124 0.0070769116
-0.07129566 0.0061553717 0.038179748 -0.020567209 0.047631986 -0.008421265 -0.050471764 0.07935237
0.057139046 -0.06247452 0.0072516277 0.017938606 -0.02842924 0.06458122 0.060852252 0.055558465
0.040045135 0.081633456 -0.020957232 0.008358829 0.024440654 0.01528164 -0.020750098 0.020272136
-0.040537767 -0.04989054 -0.05605357 -0.007952683 0.06125524 -0.08192038 0.04756277 -0.054589342
-0.067025855 0.078039564 -0.039473712 -0.049232513 0.04937438 -0.070874415 -0.031454086 0.06239403
0.036883414 0.07878912 0.07290014 0.00115823 -0.027685277 -0.07148116 0.029627465 0.053060316
-0.053886674 -0.013828628 -0.059237234 -0.042602293 -0.051593505 -0.07804799 -0.057920687 0.03166399
00000000: f0b8 8abc 4ba7 453b e62b 31bd d4ee 4f3b
00000010: 40a5 b4bd cacd 5ebd d434 8dbd 1acd ca3b
00000020: 2bd4 7bbd 848c 37bc 6791 41bc 1098 16bd
00000030: a8bc a33d 4604 f03d ed76 6f3d 0716 793d
00000040: 6b39 a83d fed7 d13d 3c67 20bd f066 99bd
00000050: 4db3 cebb 434d 84bd 0ce6 d2bc 51db 9a3d
00000060: eaeb 3ebd 548f b93c d0ba a6bc d85a 2ebd
00000070: 7076 06bd 0d4b 693d 16eb 1abd 621b a8bd
00000080: 9478 cb3c 4219 2f3c c0a2 6abc e2b5 573a
00000090: 9c31 c03c c088 5bbd 7c23 89bd 313c 8f3d
000000a0: e3f1 4bbd cc5f 8abc 8cce b2bc 06d9 bdbc
000000b0: a364 9dbd 34c5 0dbc 1e91 a53c 8cda 693d
000000c0: f624 473d 1895 47bd 42a6 9dbd f065 5cbd
000000d0: 5f48 143b 3217 6c3d a083 b5bd 6679 abbd
000000e0: 963f df3c 3123 47bd 1bda fd3c 1592 363d
000000f0: 5b48 3d3d 3e0d 62bd a59d 4dbc 545c fb3c
00000100: dcc8 27bd 7246 423d 12ae 983d c3a2 903d
00000110: 97ef b33d 7f1f a1bd 3852 923d 4024 c33b
00000120: 3ed8 72bd 5c90 0b3d 3026 b5bb 9a62 2e3d
00000130: 18f9 56bc 72cf 543c bc49 e03c c0aa b33d
00000140: 10bc a53b 8969 803d 825e 8bbc 60d1 f4bc
00000150: 13cf eebb 494b 163d c25e 24bd 0508 b13d
00000160: 5802 143d 36bc e13d d65a 9bbc 90ef d13c
00000170: 15b4 af3c 8e5e 243c bc18 bc3d 39be bc3d
00000180: 0f12 173d 7eec 73bd be61 953d bda8 483d
00000190: c24f 793d 861a 293d 06be bd3c 98c7 12bd
000001a0: b78c 84ba 59f1 48bd da50 24bd ad8b ee3c
000001b0: 6cb0 c0bc 2f48 a3bd ca70 f93b 60b5 bb3c
000001c0: 8600 bd3b 9020 85bd 9353 8d3d 92fb 663d
000001d0: a28d debc 3efb 323d c1b2 f73d af1f da3d
000001e0: 0f8c d83d 9cef 8fbd eff0 0d3d 5db6 383c
000001f0: 8d3d 9c3d e205 553d 4d5f c13d 209a ac3d
00000200: 3283 82bc f2e4 2bbd ef21 0fbd fa6b a0bc
00000210: 609e af3d 73a8 773c 050a 9c3c 992c 68bd
00000220: bb67 f7bc 82a1 83bc e746 013d d94e 973d
00000230: f780 873d 6004 aabd 271c e8bb 52d9 80bd
00000240: a300 a43d 7ab2 1f3d 34f3 833c b644 5a3d
00000250: 28a1 623c 5aab 603d 6206 143d fca0 b1bc
00000260: 05bb a03d b45c c03c e42c a0bc a0a7 00bb
00000270: c04e 2abc 70da 953c 4d57 983d c1f2 9d3d
00000280: 02f2 493d c041 d73c eb74 78bd 70a0 e9bc
00000290: 5071 91bd ca89 3b3d ea44 073d 0084 64bd
000002a0: 80b9 00bd 2647 dfbc 4346 9b3d 3e61 443d
000002b0: e64c 1b3d a9a5 863d 3a41 9fbd c076 55bd
000002c0: 6602 16bd 80bd b0bb b647 163d aaa6 4e3d
000002d0: 0556 973d 06a9 03bd 8e1a 273d ecca edbc
000002e0: 8867 a2bd ce22 433d 5607 a1bd 2760 a5bd
000002f0: 935e a3bd 9aa0 9fbd 0053 29bb c001 bb3b
00000300: d249 443d b6ca 7a3d da50 453d 39ae a43d
00000310: 253e 823d d3d2 66bd da54 653d 70e5 e73b
00000320: 7603 92bd 00b3 c93b 5e62 1c3d 907c a8bc
00000330: c219 433d 58f9 09bc 7bbb 4ebd 7f83 a23d
00000340: a20a 6a3d 48e5 7fbd 109f ed3b fcf3 923c
00000350: 70e4 e8bc 2943 843d 3640 793d 4691 633d
00000360: 5e06 243d 712f a73d 80ae abbc 78f3 083c
00000370: c437 c83c d85f 7a3c 1cfc a9bc c011 a63c
00000380: ee0a 26bd 065a 4cbd 6e98 65bd f84b 02bc
00000390: c6e6 7a3d dfc5 a7bd 2ed1 423d 1399 5fbd
000003a0: da44 89bd 35d3 9f3d 30af 21bd 08a8 49bd
000003b0: ca3c 4a3d 9b26 91bd 00d6 00bd e290 7f3d
000003c0: 1013 173d 315c a13d ab4c 953d c0cf 973a
000003d0: 3ccc e2bc b764 92bd 4cb5 f23c c655 593d
000003e0: 46b8 5cbd 7891 62bc bea2 72bd be7f 2ebd
000003f0: b653 53bd a0d7 9fbd 3e3e 6dbd 1ab2 013d

decoder.0.bias f4 [16]
0.06482436 0.060039736 -0.06337955 -0.063436285 -0.052622765 -0.0012497716 0.049176313 0.004515769
-0.028914845 0.08732102 -0.006628439 0.029880537 -0.03507131 0.04641678 0.06261493 -0.016107656
00000000: a2c2 843d 3aec 753d 23cd 81bd e2ea 81bd
00000010: f88a 57bd 60cf a3ba 1a6d 493d 04f9 933b
00000020: d3de ecbc 5dd5 b23d 6033 d9bb 07c8 f43c
00000030: efa6 0fbd 861f 3e3d 423c 803d 34f4 83bc

decoder.2.weight f4 [16, 1, 3, 3]
0.2207294 0.037467297 -0.07146876 -0.25074616 0.30284223 0.31441617 0.011035485 0.27279705
-0.07426381 0.20009466 -0.2832947 -0.11567368 -0.3030911 -0.023813462 -0.08635773 -0.10886705
-0.14457344 0.0077151796 0.23694842 0.29635003 -0.0060239825 0.04607797 0.03770365 -0.3469303
-0.19470614 0.020153914 0.14919652 -0.11486238 -0.13403137 0.23147628 0.12769817 -0.06960409
0.31563076 0.08995107 0.3024751 -0.20907907 -0.20288937 -0.3307422 0.21001384 0.12328151
-0.21446025 0.017300576 0.02315846 -0.140519 -0.04132542 0.08593418 -0.30772385 0.00049616705
-0.14360118 0.19956157 0.085216545 0.30068314 -0.08267901 -0.09854846 0.00552092 0.09587943
-0.21146075 0.18408425 -0.044204876 0.22654022 -0.2979005 0.10942861 0.036042295 -0.35813063
0.07077507 -0.097171865 0.06306225 -0.050271064 0.11841059 -0.33902156 -0.112538196 -0.26110938
-0.30161327 -0.100043565 0.049696315 0.19643785 -0.2762678 0.13850184 -0.09540993 -0.27666038
0.008550284 -0.28947875 -0.21505722 -0.2888629 0.12456307 -0.12758483 -0.08029851 0.054548033
-0.09952829 0.101125084 0.03905005 -0.13375063 -0.31187755 -0.23153085 -0.1999798 -0.06720226
0.22267433 0.1555996 0.0020218063 0.03349072 0.31467596 0.058670335 0.24458496 -0.11074051
-0.23894334 0.13293943 -0.18470432 -0.13011444 0.08115388 0.3270506 -0.21948183 0.31321648
-0.25365287 0.13594343 -0.05989531 -0.21028271 0.25655696 -0.059994794 0.02852464 -0.109031096
0.11599952 -0.23279035 -0.24570355 -0.29722795 0.06497945 0.19230564 -0.09110758 -0.027321374
-0.1366009 -0.12861715 -0.05108979 -0.29723734 -0.26190552 -0.06719804 -0.06392118 0.105170175
0.29731682 -0.30607548 0.19044141 0.30088374 -0.038459696 -0.14248772 0.11797728 -0.043708898
00000000: e306 623e 4f77 193d 375e 92bd cd61 80be
00000010: 230e 9b3e 28fb a03e 2ece 343c 0eac 8b3e
00000020: a017 98bd 9de5 4c3e 010c 91be 53e6 ecbd
00000030: c22e 9bbe 7314 c3bc 52dc b0bd b0f5 debd
00000040: 0f0b 14be 9ecf fc3b 9ba2 723e 31bb 973e
00000050: d464 c5bb 41bc 3c3d 246f 1a3d d9a0 b1be
00000060: 0c61 47be d219 a53c f9c6 183e f83c ebbd
00000070: 853f 09be 1e08 6d3e 4fc3 023e 978c 8ebd
00000080: 5b9a a13e 4438 b83d 04de 9a3e d318 56be
00000090: 3bc2 4fbe 0b57 a9be de0d 573e 047b fc3d
000000a0: 789b 5bbe f0b9 8d3c d0b6 bd3c 36e4 0fbe
000000b0: d844 29bd 42fe af3d fb8d 9dbe 3511 023a
000000c0: 300c 13be de59 4c3e 0386 ae3d 24f3 993e
000000d0: 9d53 a9bd c6d3 c9bd d5e8 b43b 6f5c c43d
000000e0: 2b89 58be 9580 3c3e 2c10 35bd 29fa 673e
000000f0: 6a86 98be 1b1c e03d 16a1 133d e65c b7be
00000100: 85f2 903d 0b02 c7bd c826 813d 08e9 4dbd
00000110: 4081 f23d 3c94 adbe 6d7a e6bd 21b0 85be
00000120: 0e6d 9abe a4e3 ccbd 5d8e 4b3d 0127 493e
00000130: f972 8dbe 6dd3 0d3e 4866 c3bd 6ea6 8dbe
00000140: 7e16 0c3c 8f36 94be f637 5cbe d7e5 93be
00000150: ec1a ff3d 99a5 02be 8c73 a4bd c26d 5f3d
00000160: 7dd5 cbbd ab1a cf3d f2f2 1f3d edf5 08be
00000170: 6aae 9fbe 6c16 6dbe 81c7 4cbe 57a1 89bd
00000180: bd04 643e 8055 1f3e 4880 043b 912d 093d
00000190: 351d a13e 4e50 703d 7b74 7a3e eccb e2bd
000001a0: 90ad 74be 4621 083e 2123 3dbe b83c 05be
000001b0: 0134 a63d 2d73 a73e d8bf 60be e95d a03e
000001c0: cade 81be c134 0b3e c954 75bd 5a54 57be
000001d0: 6f5b 833e 1abd 75bd 81ac e93c b24b dfbd
000001e0: 2891 ed3d 9860 6ebe b699 7bbe 432e 98be
000001f0: f213 853d c5eb 443e 9c96 babd 13d1 dfbc
00000200: 1be1 0bbe 37b4 03be 8743 51bd 7e2f 98be
00000210: 7b18 86be 209f 89bd 1ce9 82bd 7663 d73d
00000220: e939 983e edb5 9cbe 1303 433e 6f0d 9a3e
00000230: ea87 1dbd 4de8 11be 129e f13d 1a08 33bd
