checkpoints/epoch_9.pth (torch, 24320 bytes, 7 tensors)

encoder.0.weight f4 [16, 1, 1, 1]
00000000: 3c0c b03e c099 353d b059 bc3e bd83 d13e
00000010: 9d7a 35bf 07ba cbbe dfa8 32bf 974d 24bf
00000020: 7524 ac3d bb04 883e 8038 7ebf 33dd a93e
00000030: d314 dcbd ec27 b9be 0d01 4cbd a59a d73e
0.34384334 0.04433608 0.36787176 0.4092082 -0.7089022 -0.39790365 -0.69788927 -0.6418089
0.08405391 0.2656611 -0.9930496 0.33176574 -0.107461594 -0.3616327 -0.04980569 0.42110172

encoder.0.bias f4 [16]
00000000: 108d 5dbf cc69 dfbe 78f1 bbbe fb60 9e3e
00000010: 5101 283f d765 c23e e5bd 193f d100 803d
00000020: 4fd8 1d3f ab00 383f 084c 94be 8ffe 243f
00000030: 74ca 6d3f 73cd c33e 67af 163f d43d 69bd
-0.8654337 -0.43635404 -0.36707664 0.30933365 0.6562701 0.37968323 0.6005538 0.06250156
0.61658186 0.7187602 -0.28964257 0.64450926 0.92887044 0.38242683 0.5886139 -0.05694373

encoder.2.weight f4 [32, 16, 1, 1]
00000000: d04f 73be 98f7 083e 00c6 4c3d f82e 053e
00000010: 0060 a3bc 483b 16bd 6cc0 593e e62a 5a3e
00000020: fc8a e1bd 9847 6bbe 60d8 fe3c 2e5e 1bbe
00000030: 00e2 f2bb a8bf 0dbd 8883 293e d02f 193d
00000040: 6086 a93d 5c88 12be 0ef6 77be ec8e 2f3e
00000050: 8c50 173e 2e5e 22be 58c5 0ebd d051 60bd
00000060: c38f b23d 8b01 dcbd 26ff 143e 6da9 0f3d
00000070: 2001 f0bb 5d16 f6bd 5c36 51be ad3b 4c3c
00000080: a075 f03d 3e72 6e3e 28c3 c2bd 2c60 2dbe
00000090: b892 f4bd 4418 fe3d c075 dc3c aca6 d1bd
000000a0: 48f8 56be c812 f1bd 009e 3cbc 5c3d 82bd
000000b0: dc7b 5d3e 6038 50bd 284f 72bd a090 3bbe
000000c0: f089 e8bd 70da d13c 3ad7 41be ba94 283e
000000d0: 3e83 7cbe c363 eb3d 21db 973d 0e4f 863d
000000e0: 1ba3 363e 0a77 7bbc a802 e33d fcc2 9a3c
000000f0: 7ea6 33be 0f31 a63d 8016 323e 39b0 b23d
00000100: 28f6 7abe 90f6 2bbd 8893 38be 8986 703e
00000110: 8c2e 8abd 78dd 153e 3e72 ef3b f9dc 263e
00000120: b8df 883e 1bed 2a3e d685 4bbe fab7 12be
00000130: a78e 54be abb7 bf3d 56df 58be 5820 a73d
00000140: e8ad 153e 263c 303e 188c aa3d acd1 653e
00000150: 46ff 3abe ec70 e93d bc51 90bd 98e6 1f3e
00000160: 0033 8dbd 0029 9d3c 4267 2dbe 800e 8fbd
00000170: 5a34 153e ccb1 62be 884f b7bd 8803 6cbd
00000180: 10ca 93bc 18c4 0e3d 9813 7cbd c033 763e
00000190: acbc b8bd be25 4d3e 5c68 dd3d d817 cb3d
000001a0: 2261 0fbe 6ac4 70be 8022 a53d 02be 51be
000001b0: 6056 3d3d 42b4 6abe 3a3c 6abe 4c8c 82bd
000001c0: 2c68 093e 3818 0f3e 00ee edba 1b01 c7bc
000001d0: 6c1e 8a3c f652 983d 361f 9e3c 16b6 49bd
000001e0: 341b 393e 0c82 babd 948f 723e 8ff6 033e
000001f0: 1c03 40bd 2c08 2c3e 7ac0 03be 9184 4e3d
00000200: c6e7 643e 8e4c 133e b484 54be fd3d b0bd
00000210: e672 103e 4dda 643e 9d00 ab3d bd32 ccbd
00000220: 3009 17be dde0 82be 305a 0a3d a5a5 5abe
00000230: 0052 513e b152 ed3d 7a3e 5d3e ed14 28be
00000240: a8e1 37bd 9ce0 153e 3897 debd 5ff3 653e
00000250: 9807 eabd 4239 4f3e 2c35 543e c86b 973c
00000260: e1fd 3abe f681 363e 60fb 4b3e 3c7e 363e
00000270: a272 2abe 3157 46bd 5dee ee3d b0d6 18be
00000280: c806 e13d d052 f13d 2a99 193e 9098 423e
00000290: 6dc0 853c 2fd8 44be 46da 173e 83ff 21be
000002a0: c1c2 3bbe e260 3f3d ec9c 36be 0434 7a3e
000002b0: ad15 653e 9645 9ebd 3b98 d0bd 457f 27be
000002c0: e845 da3d 586b 26be 0c64 c43d 9d7e 143e
000002d0: bd6d 39bd 835a 08be 173f 283d 2353 f2bd
000002e0: 84da 33bc abf0 36be 40cf 95bd 0fa6 c4bd
000002f0: 8e7d 523e 9f1a 0fbc 2d79 4bbe 9a90 38be
00000300: d046 ad3d 0000 5f37 5872 a43d b995 503e
00000310: 61f0 d13d fd94 bebd 8fc1 573e 1403 27be
00000320: 8e8d 0fbc b905 343e f462 3e3e 0586 ff3b
00000330: 4fb0 b2bd a85a 2f3d a8fe 873e 8716 2fbe
00000340: 3ca3 78be 2aa9 3fbe bcf5 cd3d 9022 923d
00000350: 2ec9 6dbe 6f3c 813d 4841 5bbd 4fbd 4abe
00000360: d400 2bbe 9ac0 7d3e 60d7 033d 0e7f 193e
00000370: d2e9 743d 7c03 c03c 1e1e 7ebc 226e 26be
00000380: e2d7 243e 40ea f93b 043a 8d3d da24 07be
00000390: d14d fd3d fd08 513e 75ae b9bc 7359 993d
000003a0: fbeb 753d 7e0e 12be e26f 073e 5022 3bbd
000003b0: a68f c33d 4c7a d03d 23bc 17be 3cd3 84bd
000003c0: 70da 983d 08a3 28bd 5c7a d43d 40e3 4dbd
000003d0: 4c9b 903d fa4c 09be fc61 c9bd f0b7 583e
000003e0: bce5 49be 5822 a73d e6fb 41be 32ea 4fbe
000003f0: ec4e 843d bc3d f9bd e060 183c 1e79 22be
-0.23760915 0.133757 0.049993515 0.13006198 -0.019943237 -0.03667763 0.2126481 0.21305427
-0.11012837 -0.2297653 0.031109035 -0.15172645 -0.007412195 -0.034606606 0.16554081 0.037399113
0.08277583 -0.1430983 -0.24214956 0.17144364 0.1477682 -0.15856239 -0.03485617 -0.054765522
0.087188266 -0.10742482 0.14550456 0.035073686 -0.007324353 -0.12015984 -0.20430893 0.0124654
0.11741185 0.23285767 -0.09509879 -0.16931218 -0.11942047 0.12406972 0.026911616 -0.10236868
-0.2099315 -0.1177116 -0.0115122795 -0.063593596 0.2162928 -0.050835013 -0.05915752 -0.18316889
-0.113544345 0.025616854 -0.18929759 0.16462985 -0.2465944 0.114936374 0.074148424 0.06558047
0.17835657 -0.015348205 0.11084491 0.018891804 -0.1754398 0.08114826 0.17391396 0.08725018
-0.24507964 -0.041983187 -0.18025029 0.23488821 -0.06747159 0.14635265 0.00730732 0.16295232
0.26733184 0.16692011 -0.19875273 -0.14327994 -0.20757543 0.09361204 -0.21178946 0.08160466
0.14617121 0.17210445 0.08327502 0.22443265 -0.18261442 0.11398491 -0.070468396 0.15615308
-0.06894493 0.01918459 -0.16933921 -0.069851875 0.14570752 -0.22138137 -0.08950716 -0.057620555
-0.018040687 0.03485498 -0.061542124 0.24043179 -0.09020361 0.20033929 0.108109206 0.09916657
-0.14001897 -0.23512426 0.08063221 -0.20482638 0.04622495 -0.22920325 -0.22874537 -0.06374416
0.13418645 0.13974082 -0.0018152595 -0.02429252 0.01686021 0.074376985 0.019301992 -0.049245916
0.18076783 -0.09106836 0.23687583 0.12887023 -0.046877965 0.16799992 -0.12866393 0.050419394
0.2235404 0.14384672 -0.20753747 -0.08605573 0.1410633 0.223489 0.08349726 -0.09970615
-0.14749599 -0.25562182 0.033777416 -0.21352251 0.20441437 0.11588038 0.21605864 -0.16414233
-0.044892937 0.14636463 -0.108686864 0.2245612 -0.1142723 0.20236686 0.20723408 0.018484011
-0.1826091 0.17823014 0.1992011 0.17821592 -0.16645291 -0.048422996 0.11666558 -0.14925647
0.109876215 0.11783373 0.14999834 0.1900351 0.016327107 -0.19223092 0.14829358 -0.15820126
-0.18336011 0.046723254 -0.17833298 0.24433905 0.2237155 -0.07728116 -0.10185286 -0.16357143
0.10657865 -0.16251886 0.09589395 0.14501424 -0.04527067 -0.13315777 0.041075792 -0.11832263
-0.010977391 -0.17865245 -0.073149204 -0.09601986 0.20555708 -0.008734374 -0.19870444 -0.18023911
0.08460772 1.3291836e-05 0.08029622 0.20369615 0.10250927 -0.09305761 0.2106993 -0.16309768
-0.008761777 0.17580308 0.18592435 0.007797959 -0.087250344 0.042811066 0.26561475 -0.17098437
-0.24281019 -0.18716875 0.10056636 0.071354985 -0.23221275 0.06310355 -0.053529054 -0.19798778
-0.16699535 0.24780503 0.03218782 0.14989874 0.0597933 0.023439161 -0.01551011 -0.1625295
0.16097978 0.0076268017 0.06895831 -0.13197652 0.12368358 0.20413585 -0.022666195 0.07487764
0.0600395 -0.14263341 0.13226274 -0.04568702 0.09548883 0.10179576 -0.14817862 -0.06485602
0.07463539 -0.041171104 0.10374901 -0.05026555 0.070608705 -0.1340827 -0.09833142 0.21163917
-0.19716543 0.081608474 -0.18943748 -0.20304182 0.06460366 -0.12169978 0.009300441 -0.15866515

encoder.2.bias f4 [32]
00000000: 847b edbd 4214 a9bb 8089 2cbd 1ca0 393e
00000010: f1e8 443e c05c 49be 2585 143e 9285 193e
00000020: 6295 a53d 00f3 54ba a9f5 d0bd aadd 803e
00000030: 8d7e 07bd 287a 2d3c 8128 b83d 0c5d 75be
00000040: 2cf2 d8bd 2ef9 7abe 720a 863e 71dd cd3d
00000050: 693a 493e 18fd ec3c f318 323e e648 1cbe
00000060: aa60 43be 0ff4 ec3d d585 f43d bef7 b83c
00000070: a3ea 0e3e 8dbe ec3d d61d 973d 9c66 0cbe
-0.11595824 -0.0051598856 -0.042123318 0.18127483 0.19229485 -0.19664288 0.14503916 0.1499236
0.08085133 -0.0008123368 -0.10203106 0.25169116 -0.033079673 0.010588206 0.089921005 -0.23961276
-0.105930656 -0.24509117 0.26179844 0.10052002 0.19651188 0.028929278 0.1739233 -0.15262184
-0.19079843 0.11569988 0.11939589 0.02257907 0.13956694 0.11559782 0.07378738 -0.13711017

decoder.0.weight f4 [32, 16, 3, 3]
00000000: 384b 93bd 40f4 463c 6830 29bd b046 eb3c
00000010: 3a02 573d 601f 66bc 086f 57bd b8e6 4b3c
00000020: 69e2 803d 3a23 113d 4013 ffbb 68ff 453c
00000030: 20a2 77bc 36bf 273d 3f91 8abd 6c58 d53c
00000040: c6f3 363d 937b 973d 8e36 6cbd 5313 8bbd
00000050: 8035 3dbd 86bc 6d3d e69f d1bc 49ae 813d
00000060: 7701 863d 2bd3 05bd a064 a6bd 602c 4fbb
00000070: 001f 393c 5e50 673d 8774 9cbd 1897 183d
00000080: 4808 51bd f0f6 c2bc 0c97 a2bd 12f2 523d
00000090: 0bf5 18bd 3bb8 40bd 4bf5 62bd f6ba 7f3d
000000a0: b8e7 71bd 4d57 983d 9221 2b3d 5a04 453d
000000b0: 40a8 203c 6e77 29bd 1333 893d 0050 8237
000000c0: 4252 3a3d ec8c 8dbc 288b 10bc 380d 763c
000000d0: 8ce0 893c fcca 903c f85e 683c 662c 143d
000000e0: ee8f 82bd 5075 973c a41e 81bd f8d6 1d3d
000000f0: fa97 123d 22ed 463d d19f 843d 4e4a 683d
00000100: 00ab 833b 7030 9a3c a6a7 233d 005e 2b3b
00000110: da57 a7bd 42f3 463d 664d 603d 3e5c 773d
00000120: 10c0 ee3c 5cfd 9c3c c089 77bc ce7b 123d
00000130: 4247 a5bd afe8 98bd 5c4c ebbc 9b07 51bd
00000140: 8c9f dfbc 71f4 853d 6682 3cbd 635c 08bd
00000150: f2de 663d fa98 543d 7281 413d be74 4ebd
00000160: f068 b7bb a211 aabd e62b 11bd c09f ebba
00000170: a016 aa3c 30bb 68bd b701 a5bd 80c8 433c
00000180: 105e 66bd 40ea f13b c45b a9bd 32f3 263d
00000190: 2220 443d 48dd 1bbc 6aae 96bd bbc8 21bd
000001a0: 70b1 db3b 10cf f0bb cd5c 9b3d 145b 9bbc
000001b0: 241c a5bd 0a93 a4bd 7005 b7bc 26e7 733d
000001c0: 70e1 88bc e835 40bd 209a 003b e2bd 403d
000001d0: 40eb abba 4676 2ebd 74fa 98bc aa2b 90bd
000001e0: 80f1 e13c b864 5fbd 3d97 893d 026c 4d3d
000001f0: f2d0 6c3d 6e07 5c3d e0ed e5bc 0621 99bd
00000200: 81d4 a73d 50c6 d13b ffb7 853d 7afb 5d3d
00000210: eede 81bd 80bb 0b3b e240 173d 0ad6 313d
00000220: e032 413c f020 a7bd 50a9 fd3b 851f 953d
00000230: d0d1 cabb 3968 923d e2e8 3c3d 3ba3 87bd
00000240: 384b 32bd d02b c63b 83ae 94bd 26a4 d8bc
00000250: a327 6bbd 532a 64bd 3260 7b3d d029 e5bb
00000260: b966 8e3d ca0a 4b3d a204 773d 8579 303c
00000270: 0b64 91bd d0e3 b7bb 77bc 7bbd d320 71bd
00000280: f263 563d 44ed 55bb dceb 73bd 9100 5a3c
00000290: 1864 8abd eb14 58bd 3286 2abc 8a74 3e3d
000002a0: a046 78bd 75af 8ebd 82d6 5d3d 3334 13bd
000002b0: 2025 4c3d 00a5 c9bb 14cd 7abc 126f 4a3d
000002c0: bcb1 68ba 00c0 613c 17a8 17bd 9ee4 3bbd
000002d0: 4dc4 693c e2e2 8a3d 5ae3 0dbb 8e35 173d
000002e0: 2e3d c33b b07c efbc 2713 873d 2307 743d
000002f0: 7d49 6cbd b7a5 e3bc ada2 b3bc 58fc 893d
00000300: 31b9 18bd 6116 b03d 0f86 7fbd 348e 373c
00000310: cdbb 5bbc f342 b33c 9600 743d 8a2a 423d
00000320: e874 2c3c 58d2 113d 8a1e 623d b806 72bd
00000330: db25 a83d 08ac 293d f098 f5bc 758a 8f3d
00000340: 6a62 9bbd c44e 86bc 6b55 44bd 0890 673c
00000350: 6030 793b f29c 463d 400c 803b a481 a9bd
00000360: 1a05 393d 714e 9b3d 5d34 983d 4347 9a3d
00000370: 6baf abbc a55a 1e3d 30f6 fabb 3694 3b3d
00000380: 90bf e13c aa23 2a3d 0bca 5bbd 2049 22bb
00000390: 40ec e2bc 5260 88bd 1463 98bc e346 21bd
000003a0: bfe3 e23b ce91 703d e844 6fbc c7ab 76bd
000003b0: 84f7 d33c a8d7 093d bd1e 0dbd 4468 2e3d
000003c0: 104d c43b bb97 41bd 60cc ab3c b6a4 863d
000003d0: 269e 85bd a42c 3d3d 00f4 8c3d 49bd 873d
000003e0: 2cb2 89bd 4872 163c 479f 85bd c5ed d83c
000003f0: aadb 383d 0e6d 4c3d 0095 9fbc b7e1 8f3c
-0.07192081 0.012143195 -0.04130593 0.02872023 0.052492358 -0.014045566 -0.052596122 0.012445144
0.06293184 0.035433985 -0.007784277 0.012084819 -0.015114337 0.040953837 -0.06765985 0.02604314
0.044666074 0.07396617 -0.057669215 -0.06790795 -0.0461936 0.058041118 -0.02558894 0.063320704
0.06543248 -0.03267209 -0.081246614 -0.0031612143 0.011298895 0.05647313 -0.07639413 0.03725347
-0.05103329 -0.02379939 -0.07938966 0.051500387 -0.037343066 -0.047050696 -0.05540971 0.06243416
-0.059058875 0.07438526 0.041780062 0.048099853 0.009805739 -0.041373663 0.06699195 1.553446e-05
0.045488603 -0.01727911 -0.00882224 0.0150178 0.016830705 0.017674915 0.014182799 0.036175154
-0.06375109 0.018488556 -0.06304672 0.03853509 0.035789467 0.04856599 0.06475795 0.056711487
0.0040181875 0.018821925 0.039954804 0.0026148558 -0.08171053 0.048571832 0.054761313 0.060390703
0.029144317 0.01916378 -0.015108526 0.0357626 -0.08070232 -0.07466256 -0.028722934 -0.051032644
-0.027297758 0.06540764 -0.046022795 -0.03329123 0.05636496 0.051903702 0.04724259 -0.050404303
-0.0055972263 -0.083041444 -0.035442255 -0.0017976686 0.020762742 -0.05681914 -0.08056968 0.011949658
-0.05624205 0.007382661 -0.08269456 0.040759273 0.047882207 -0.009513207 -0.073574856 -0.039498072
0.006704502 -0.0073489025 0.0758606 -0.018964328 -0.08062008 -0.08035858 -0.02234146 0.059546612
-0.01670906 -0.04692641 0.0019623116 0.047056086 -0.0013116375 -0.042593263 -0.018674113 -0.07039578
0.027580976 -0.054539412 0.067182995 0.050151832 0.057816453 0.053718023 -0.02806753 -0.07477002
0.08194829 0.0064018145 0.06529235 0.054194905 -0.063413486 0.0021321476 0.03692711 0.043417014
0.011791915 -0.08160579 0.007741131 0.072814025 -0.0061895624 0.07148785 0.04612053 -0.066229306
-0.043528765 0.0060477033 -0.07259848 -0.02644546 -0.057410847 -0.055704426 0.061371036 -0.00699351
0.069531865 0.049570836 0.060307153 0.01077116 -0.0709916 -0.005611874 -0.06145903 -0.058869194
0.05234141 -0.0032642642 -0.059551105 0.013305799 -0.067573726 -0.052754324 -0.010407971 0.04649786
-0.06061423 -0.069670595 0.05415965 -0.035938453 0.049840093 -0.0061537027 -0.0153076835 0.04942233
-0.0008876582 0.0137786865 -0.037025537 -0.045872323 0.014267993 0.06781556 -0.0021650405 0.036916308
0.005958221 -0.02923426 0.0659545 0.05957712 -0.05768727 -0.02778898 -0.021928156 0.06737584
-0.037285987 0.085980184 -0.062383708 0.011203337 -0.013411474 0.02188251 0.05957087 0.04740385
0.0105259195 0.03560099 0.055204906 -0.05908844 0.08210345 0.041423827 -0.029980153 0.070088305
-0.0758713 -0.01639498 -0.047933023 0.014133461 0.0038023219 0.04848952 0.0039077103 -0.0827668
0.04517088 0.07583321 0.074318625 0.07533123 -0.02095767 0.038660664 -0.0076587424 0.04579564
0.027557164 0.04153792 -0.05365948 -0.0024762824 -0.027700543 -0.06658997 -0.018601932 -0.039374243
0.006924122 0.0587328 -0.014603831 -0.060222413 0.02587486 0.03365293 -0.034453142 0.042579904
0.005990632 -0.047263842 0.020971477 0.06574385 -0.06524305 0.04618515 0.06882477 0.066279
-0.06723437 0.00918252 -0.0652452 0.026480565 0.045131363 0.04990869 -0.019480228 0.017563684

decoder.0.bias f4 [16]
00000000: 702c f4bc 618d abbc 1438 c73c 1f03 cf3d
00000010: 722f 66bd fad5 913d da82 61bd efba 9fbd
00000020: c284 333c df8f 57bc b36b 733d a199 cd3d
00000030: f703 92bd ed91 b03d 510c d9bc 396d 90bd
-0.029806346 -0.020941438 0.024318732 0.10108017 -0.05619759 0.07120891 -0.05505643 -0.07799327
0.010956945 -0.01315686 0.05942888 0.10039068 -0.071296625 0.08621583 -0.02649513 -0.070520826

decoder.2.weight f4 [16, 1, 3, 3]
00000000: 8ca2 de3d 0e59 0d3e 703e 92bd 1d15 5cbd
00000010: c427 c4bd 1013 b6bd 7566 bc3c 341d 09be
00000020: eb90 d53d 5dcc 98be 4f84 2fbe 36ca 0c3e
00000030: a6f5 673e 15f6 a23d 905f b3bc e0b9 823e
00000040: 8e37 e13d b137 a33d 7027 64be a104 913e
00000050: a411 b0bc 0a2c 7a3e 7d1d b73d 408c 353e
00000060: 26bb 53be 6d9b a3be a512 0d3e 0aae fabd
00000070: 1cbd 513e 57a0 9bbe 0a2b 3e3e 70b2 12be
00000080: dc84 94be 8296 94be b51c 96be 6f3d 143e
00000090: 195e 8dbd 1d45 63bd 4ad4 993e 010e 913e
000000a0: 7122 4cbe 4fcd a83d 1f69 44be a897 953c
000000b0: 7b73 ac3d 97d8 25be 4cc7 5ebe fc48 5a3d
000000c0: fd52 a1be 7296 abbd c60b 203d 93d9 1f3d
000000d0: 8f37 2e3e 3c4d 99be 63dd 343e 959b 713e
000000e0: f55f 8c3e b29b 3a3c 321b 363e 44ce 533e
000000f0: 4814 8cbe 34ae 66bd 05a0 423d 9f29 3d3e
00000100: 4c4c 8abe 93d7 a5be 6c70 a53e 6424 48be
00000110: 8dec 40bd cdf1 a23e b4c6 44be 70e4 a53e
00000120: c3a9 cabc 372a 96be e210 9c3e 7688 a13e
00000130: d200 8dbe bb76 41be 1ef9 11be 34f7 943e
00000140: 6787 d1bd 8574 adbe 0b4f 7fbe 7893 ffbd
00000150: b458 b1be c0d7 9fbe bca8 a9be 0881 7dbe
00000160: a99d adbe 6443 58bb ddbd f4bd 3948 9e3e
00000170: 7d51 91be 997e 40be 4f5e 73be 502d 4cbe
00000180: bde4 6ebe d2c5 0fbe 0b7a cbbd 83d6 62be
00000190: f9fa 9dbe 71db 643e 2d34 a63d c477 36bb
000001a0: 24a6 9a3e 75ca 8fbd 9607 85be ea4d 87be
000001b0: eb6b a53e 3dc0 c13c 1d06 aa3b b1d6 523e
000001c0: 28df 5cbe f3c6 813d ac0d 223e a923 c2bd
000001d0: 46f5 85bc cedd 883e e3ee 20be 570d adbe
000001e0: 37f6 1abe 9150 93bd 9402 71be 5b11 9fbe
000001f0: d7ca 8b3e fe12 ebbd 035d 68be cc08 f83c
00000200: 2a71 60be ade3 87be ceaf 983d 6aba 96be
00000210: 147a 0a3e 0785 49be 6f9a 88be 6364 1abd
00000220: a3e7 053e 885a afbc 6726 93be b615 833d
00000230: 180f ed3d 538a fd3d 218c 43be 5870 8d3e
0.10870847 0.13803503 -0.07140815 -0.053731073 -0.09577897 -0.08890355 0.022998074 -0.13390046
0.104280315 -0.29843417 -0.17140315 0.13749012 0.22652301 0.07957093 -0.021896154 0.25532436
0.10996924 0.07969607 -0.22280669 0.28323844 -0.021492787 0.24430862 0.08941171 0.17729282
-0.2067686 -0.31954518 0.13776644 -0.122402266 0.20482296 -0.30395767 0.18571106 -0.14325881
-0.29007614 -0.29021078 -0.29318777 0.1447656 -0.06902713 -0.055485833 0.30044776 0.28330997
-0.19935013 0.082422845 -0.19180726 0.018260792 0.08420464 -0.16195904 -0.21755713 0.05329226
-0.31508628 -0.083783045 0.039073728 0.039025854 0.17013381 -0.29941738 0.17662577 0.23594506
0.2741696 0.01138966 0.17783812 0.20684153 -0.27359223 -0.056318477 0.047515888 0.18472908
-0.27011335 -0.32391033 0.32312334 -0.19545132 -0.047100592 0.31825104 -0.19216424 0.32400846
-0.024739152 -0.29329082 0.3048163 0.31549424 -0.27539688 -0.18892948 -0.14255187 0.2909485
-0.10230904 -0.3387796 -0.24932496 -0.12479299 -0.34637988 -0.31219292 -0.33136547 -0.24756253
-0.33909348 -0.0032999152 -0.11950276 0.30914477 -0.28382483 -0.18798293 -0.23766445 -0.1993916
-0.23329444 -0.14040306 -0.09935387 -0.22152142 -0.3085554 0.22349335 0.081154205 -0.0027842382
0.3020488 -0.070210375 -0.2598235 -0.2642663 0.32308897 0.023651237 0.005188717 0.20589711
-0.21569502 0.06336775 0.15825528 -0.09479458 -0.016352307 0.26731724 -0.15716128 -0.3379924
-0.15132986 -0.07193101 -0.2353614 -0.3106793 0.27303192 -0.11478232 -0.22691731 0.030277632
-0.21918169 -0.2654089 0.07455407 -0.29439098 0.13523132 -0.19679652 -0.26680323 -0.037693392
0.13076644 -0.021405473 -0.28740236 0.064006254 0.115751445 0.12379899 -0.19096424 0.27624774
