checkpoints/epoch_6.pth (torch, 24320 bytes, 7 tensors)

encoder.0.weight f4 [16, 1, 1, 1]
00000000: 7a9e 38bf 008f da3b 9986 213f 9dc0 643e
00000010: b810 5fbf 8c76 653f d08e 52bf 71a4 463f
00000020: 9e00 8e3e d2d4 0b3f f269 5cbf 565d 1e3f
00000030: d8d0 1abf a017 12bf 344e a8be bd70 1abf
-0.72116816 0.006669879 0.63096005 0.22339101 -0.87134886 0.89634013 -0.82249165 0.7759467
0.27734846 0.54621613 -0.8609916 0.6186117 -0.6047492 -0.570673 -0.32872164 -0.60328275

encoder.0.bias f4 [16]
00000000: ca94 39bf 9619 35bf dade dcbe e992 7d3f
00000010: 6ee7 3cbf bf4b 283d d85d 8cbe 8e85 92be
00000020: b760 273f e9f8 a7bd 09a6 0a3f 222e 5c3f
00000030: b4d2 babe b4a0 cbbe 24c0 a0be 5d11 fd3e
-0.7249266 -0.70742166 -0.43138772 0.9905229 -0.73790634 0.041087862 -0.27415347 -0.2861752
0.6538195 -0.08201773 0.541596 0.86007893 -0.3648888 -0.39771044 -0.31396592 0.4942731

encoder.2.weight f4 [32, 16, 1, 1]
00000000: 5064 8b3d 7410 31be 10b8 6c3d 68b5 52be
00000010: 90cd a03c 4aac 0c3e 0859 df3d 6c55 e3bd
00000020: ecbf d7bd 84af ea3d 90e3 7a3d 0ae2 35be
00000030: f05c da3c e4ed 1f3e 32a1 44be 907e 363d
00000040: da0f 113e 90c0 6c3e c863 8d3d 6280 28be
00000050: a2d5 513e 4e5e 05be 5c38 e0bd b87a f03d
00000060: 482a 1cbe 745e 973d 161e 2cbe ec89 23be
00000070: a447 a5bd a0e6 e73c 7079 11bd 4e9a 12be
00000080: 200f 2fbd 765a 7bbe e89d b5bd 00b5 b13a
00000090: f855 48be a0c9 363e f03d 8b3d c4f7 d8bd
000000a0: a02f 5fbe a262 613e 409e 13be 8051 5cbd
000000b0: 8e49 14be 2847 ef3d a03e e4bc 00a6 893d
000000c0: 06b9 613e c0b2 66bd 90b5 03bd c05e ca3b
000000d0: 2e04 32be d056 ecbc 6019 5c3d d22e 713e
000000e0: 52a2 733e 2c36 8e3d 80d7 b8bd 2662 6ebe
000000f0: 86a5 41be aaef 32be 74b6 c23d 4cad 9f3d
00000100: 1872 683e 3813 77be 4cb8 0e3e 7c64 c0bd
00000110: 5e36 2dbe 621e 21be e812 3fbd 4087 aabd
00000120: 847f 82bd 5c1d 0c3e 12a1 713e e283 13be
00000130: dcfc 783e 10d7 49be a0d3 963d 28a7 11be
00000140: a800 413d b040 983c 3ccc 073e 3038 f1bd
00000150: aa33 56be 547d 1fbe c485 f13d 149c 5fbe
00000160: a082 d8bc 24a6 913d 967e 563e 7263 233e
00000170: 0009 913a a22c 4cbe 08e8 66be a88f 78be
00000180: c0d7 bd3b c42f ca3d 44e1 b13d c213 e43c
00000190: 5460 5f3e 07d1 dabc b8c7 b63d 59ce 9d3c
000001a0: b51d 053e 9ed4 b0bc 3aee 39be 1648 8cbd
000001b0: de98 003e 5e13 1fbe 3a15 03be 41b6 06be
000001c0: 74cf b93d c09d 7ebc 2a9c 63be bce5 95bd
000001d0: b82f 3dbd 7270 21be 04e9 223e ce40 3cbe
000001e0: 224c 62be 4024 cf3d b02e 4e3e a8e2 fdbd
000001f0: 7857 3fbe 8c3f 88bd 7476 323e a4bc 3e3e
00000200: 5c4f 3b3e f0dc bd3c 9a12 483e 28ee 32bd
00000210: 100e 2c3e 108a 3cbe 6067 b83d 2c0d 78be
00000220: 2275 5ebe 8822 ec3d 3cf3 59be 8639 21be
00000230: 8856 18bd 682a d73d fe7c 023e 7a85 21be
00000240: 803f a0bc 7ca2 16be a810 3c3d e01c 6abd
00000250: 002e 5fbe c0c5 733c 9861 a13d 06a6 683e
00000260: a850 73be 28df 233e b8a9 3d3d 447a 4bbe
00000270: 047f cdbd f862 16bd 207e 803c 403a 7c3d
00000280: b428 b53d 00ea 4d3c 97c6 103e 5b32 e8bc
00000290: 3ec0 4b3e 533a 253e 76a4 68be 6c71 793e
000002a0: e037 0c3d 8c42 683e 2ea6 153d 3efe ee3d
000002b0: 6c7b 9e3d 1802 7cbe 14e6 45be 7883 0ebd
000002c0: b4b6 b5bd 48b3 7abd 659e c6bc 8371 a33c
000002d0: b2f5 133e 43b3 cbbd d890 42be 5687 603e
000002e0: f8fe 69be 5c79 693e 8acf 00be 10a4 1f3e
000002f0: e8f8 073e be96 0c3e 86f3 1b3e 0e66 fcbd
00000300: 78b7 cfbd e069 89bc ee10 7e3e fec1 3dbb
00000310: 0a54 46be ca67 45be 80e5 57be 674c 243e
00000320: c6a1 c0bd ba8e 6c3e 219a 843d 13bb d43d
00000330: 8864 7c3d 4044 8abc a46e 2a3e 9ef8 4a3d
00000340: c6b9 673e 50be 12be 3e97 1e3e 00fc 07be
00000350: 0c42 a33d f08c 94bc 36f7 123e e076 7dbc
00000360: 40d6 ddbc e003 933c 242c 533e 1444 97bd
00000370: 6894 07bd 4098 533c 748e c7bd e25b 2fbe
00000380: 80fd 733e 8291 163e 5a46 793d 1b78 c5bd
00000390: 187f a03d 0dc0 2b3d 929c 6ebe db82 45be
000003a0: 4fb7 603e ce60 d83d 54ae 5fbe 760d 573e
000003b0: 8079 f83d 20a2 01be 0c2a cd3d 286e 33bc
000003c0: d836 b5bd 50a6 83bd 8853 8d3d 9cef b2bd
000003d0: d03e 023e 60bf 0bbc 00aa 58bb b8d2 ea3d
000003e0: 3cea 023e ca0b 183e 0853 643d 0025 50be
000003f0: d002 0d3e 9847 21bd 0c38 893d 9c78 823d
0.068062425 -0.17291433 0.057792723 -0.20577013 0.01962927 0.13737598 0.10905653 -0.11100277
-0.10534653 0.11459258 0.061252177 -0.17762008 0.026655644 0.15618092 -0.19202116 0.044554293
0.14166203 0.23120332 0.069037974 -0.16455224 0.2049165 -0.13024256 -0.1094825 0.11742157
-0.15250504 0.073910624 -0.16808352 -0.15970582 -0.08070305 0.028308213 -0.035516202 -0.14316675
-0.042739034 -0.24546227 -0.08868009 0.001355797 -0.19564044 0.17850351 0.06798923 -0.105941325
-0.21795511 0.22010282 -0.14415836 -0.053788662 -0.14481184 0.11683494 -0.027861893 0.06721115
0.22043237 -0.056322813 -0.032155573 0.006175846 -0.17384407 -0.02884999 0.053735137 0.23553017
0.23792389 0.06943926 -0.09025478 -0.23279628 -0.18910798 -0.17474237 0.095074564 0.07796726
0.22699773 -0.24128425 0.13937491 -0.09394166 -0.1691527 -0.15734246 -0.04664889 -0.08326578
-0.06371978 0.13683075 0.235966 -0.14405778 0.24315208 -0.19710946 0.07364583 -0.14223921
0.047119766 0.018585533 0.13261503 -0.11778295 -0.20918146 -0.15575153 0.11793092 -0.21836883
-0.026429474 0.07111767 0.20946726 0.15955904 0.0011065304 -0.19938901 -0.2254945 -0.2427355
0.0057935417 0.09872392 0.08685544 0.027841453 0.2181409 -0.026711 0.08924812 0.019263433
0.12999614 -0.021585759 -0.18157282 -0.06849687 0.12558314 -0.15534732 -0.12801066 -0.13155462
0.09072772 -0.01554054 -0.2222754 -0.07319209 -0.046188086 -0.1576555 0.15909201 -0.18384096
-0.22099355 0.10114336 0.20134997 -0.12396747 -0.1868571 -0.066527456 0.17427999 0.18626648
0.18291992 0.02317664 0.19538346 -0.043684155 0.1680224 -0.18412042 0.09004092 -0.24223775
-0.2172437 0.11530024 -0.21284193 -0.157446 -0.037191898 0.10506135 0.12742993 -0.15773574
-0.01956153 -0.1471042 0.045914322 -0.057156444 -0.21794891 0.01487869 0.07879943 0.22719583
-0.23761237 0.16003096 0.046304435 -0.1987086 -0.10033992 -0.036715478 0.015685141 0.06157899
0.08845654 0.012567997 0.14138256 -0.028344324 0.19897553 0.1613553 -0.22718987 0.24359673
0.034232974 0.22681636 0.036535434 0.116695866 0.077383846 -0.24610174 -0.19326049 -0.034793347
-0.088727385 -0.061206132 -0.02424545 0.019951588 0.14449194 -0.09946301 -0.19000566 0.21926627
-0.22851169 0.22800201 -0.1257917 0.15589929 0.13278544 0.13729379 0.15229616 -0.12324153
-0.10142416 -0.016774118 0.24811146 -0.002895474 -0.19367996 -0.19277874 -0.21083641 0.1604477
-0.09405856 0.23101321 0.0647471 0.10387244 0.06161931 -0.016878247 0.16643769 0.049553506
0.2262946 -0.14330411 0.15487382 -0.13279724 0.07971582 -0.01813361 0.14352116 -0.015470237
-0.027079701 0.017946184 0.20622307 -0.07386032 -0.033100516 0.012914717 -0.09743968 -0.17124894
0.23827171 0.14703944 0.060858108 -0.09642049 0.07836741 0.0419312 -0.23301914 -0.19288199
0.21944927 0.10565339 -0.21843845 0.21001229 0.12132549 -0.12659502 0.100177854 -0.010951556
-0.08848351 -0.06428206 0.06900698 -0.08737108 0.12719274 -0.008529514 -0.0033060312 0.11465973
0.12784666 0.14848247 0.055743247 -0.20326614 0.13770604 -0.039374918 0.06700143 0.06370661

encoder.2.bias f4 [32]
00000000: 69f4 063e 84cc 73be fc41 abbd d8ca 32bd
00000010: e054 203d 28ef 03be d525 423e 965d 733d
00000020: d471 e3bd 309a 0fbe 5f91 6a3c dc81 7a3e
00000030: 4485 903d b04e b1bd 2aec de3c bc13 8fbd
00000040: b5d2 613e 3512 153e edf7 be3d 83b9 6b3c
00000050: f0ed 19be b073 a53d e07b f5bd c3f1 243e
00000060: c33f 003e 5842 d93d d9a0 1f3e f0a1 60bd
00000070: 0f1d fe3c 8f31 373e 7840 b2bd 5411 3ebe
0.13179173 -0.23808485 -0.08362195 -0.043650478 0.039143443 -0.128842 0.18959744 0.059415422
-0.11105695 -0.14023662 0.014316886 0.244636 0.070566684 -0.086575866 0.027212221 -0.06986186
0.22053035 0.14557727 0.09324632 0.014387491 -0.15032172 0.08078706 -0.11986518 0.1610785
0.12524323 0.10608357 0.15588702 -0.054841936 0.031019716 0.17889999 -0.08703703 -0.18561298

decoder.0.weight f4 [32, 16, 3, 3]
00000000: a85a 61bc bc6d 10ba d25a c03c 402c dfbc
00000010: c033 e53b 4ad3 783d 2e14 353d 0dca 68bd
00000020: d503 a9bd 26dd 5fbd d4d0 a13d 63d5 0c3d
00000030: 7132 483c 30d0 173d 516c 05bc 201e 7ebd
00000040: 116c 32bd 70d2 01bd 5697 513d 07af 54bc
00000050: 4c0c 373d de50 8ebd 9b84 5fbc 5975 073d
00000060: 79d4 82bd d3b4 0d3d b63c 8ebb 7758 98bd
00000070: 30e9 e83c 80de 54ba 1811 203c 8358 0bbd
00000080: eded 373b 0466 bb3c c69c 05bd d68a f6bc
00000090: 7eeb 3f3d 10dc a03d 5b93 a8bd b2d0 093d
000000a0: 5889 163c 7350 2dbd 696c 823d 9792 1fbd
000000b0: ac8b a3bd 06ce 95bd 946b 253d ca4c 6a3c
000000c0: 854f 8e3d 6cce 9d3d 960d 303d 9b85 d13c
000000d0: bce9 54bd fcdb 4fbd 85d7 953d 6a6d 14bd
000000e0: 7d38 35bd 4004 333c f9db 57bc aec4 36bd
000000f0: 6ed7 34bd e4fd 28bd 794a 0abd f68b 84bd
00000100: 80d9 0a3d c3fd 403d 51bf 143d f1f6 4a3d
00000110: eff7 263d db9e a63d d504 82bd d13a 17bd
00000120: a0d4 ff3c 0b1b 5bbd db48 623d 4fbd 99bc
00000130: 1f29 a23c c0b6 f63a d006 6b3d a0bb 5dbd
00000140: 1ca1 96bc 4f49 a7bd 2367 1fbd 1fb6 7d3d
00000150: a1e4 8abd 641d 37bc a1ec d7bb 2c84 633d
00000160: 167e 923b c3af 413d e0ce 8cbd 9445 423d
00000170: bd49 363c b3e6 4b3d e563 7d3d 6695 b93c
00000180: a129 733d 44df d7bc bbd8 a6bc e31e 41bd
00000190: 08c3 1abc c65a 023d 8589 8a3d b364 01bd
000001a0: 47ca 9e3d c60f 493d 4807 25bd ad54 973d
000001b0: 3a17 343d f4a7 90bd c57d 143d aa78 863c
000001c0: f38b 923d 8c20 583d 8c10 abba 4b16 263d
000001d0: 2a11 55bd 6040 3abb 2887 a3bd 6eba 643d
000001e0: 28fa 77bd 6074 543b c765 083d fd60 3abd
000001f0: 7c71 96bc 3f6f ebbb 5073 29bd cca0 cabc
00000200: 2bbf 97bd d84e d03c 4376 12bd 16b1 86bd
00000210: 2bdb 36bd dd19 7c3d a664 d5bc 381d 743c
00000220: cd92 82bd 94c9 85bb 6099 be3d 7ab5 093d
00000230: 0bee b93d 2999 0b3d bf94 8dbd 2b3e 00bd
00000240: 1b03 3abd 787c 0cbc b16a 843d 6aa6 7b3d
00000250: c8a6 41bd 3352 963d da83 a3bd 310a a83d
00000260: f176 8c3d 6059 01bd 43b4 4fbd b717 8b3d
00000270: 9a98 2e3d 80b4 10bb 38dc 70bc ab42 4fbd
00000280: 7437 89bc 4ef3 703d bbc8 33bd d096 e03c
00000290: aa50 4c3d 901b 40bd ce9d 61bd a08d b63c
000002a0: 06c9 bdbc ab57 8dbd ed4a 9d3d b900 a73d
000002b0: 8975 a93d e09a 4ebb 7867 36bd 37d0 a13d
000002c0: 9842 7abc 95eb a33d 2253 85bd c05d c3ba
000002d0: 11be a93d 9120 893d 52b8 313d 76d6 7ebd
000002e0: d398 a3bd aa0c 9abd 8368 803d 6036 7ebb
000002f0: 20b3 4b3b b7d2 83bd aa1c 243d e1b9 9e3d
00000300: db72 01bd 68e1 53bd 1832 003c 0080 6fb9
00000310: e2d6 83bd dc54 9bbc abb0 a03d 9f60 9dbd
00000320: bef9 523d 90db f33b 24f9 a3bc b834 6ebc
00000330: 46f6 333d 9ed5 773d c81d 0f3c 803e fabc
00000340: 3061 8e3c 1aba 413d 0040 25ba 4049 063c
00000350: 2d38 823d c859 7e3c 6072 49bc ba77 583d
00000360: 7aa3 3a3d 8e15 70bd de8b 7dbd f68b 3ebd
00000370: 0e2e a0bd 8476 97bc f049 ebbc 7020 ff3b
00000380: 4f83 90bd 0280 213d bc64 e63c 9678 e8bc
00000390: 870c 81bd 7263 3e3d 86f3 27bd 6895 71bd
000003a0: 3661 243d 59af a53d 333f 73bd 22f5 8fbd
000003b0: ef0f a43d 4248 253d b063 a2bc 70f0 e93b
000003c0: 20e7 e23c 8670 6fbd 6601 8fbd 1456 a3bc
000003d0: c075 4bbd a025 013d 2e27 603d 1a5f 1c3d
000003e0: f03a e5bc c0bb 033c fe86 4f3d 7734 97bd
000003f0: 5e85 013d 9485 95bc b0f9 b73b abfb 25bd
-0.013754524 -0.0005509516 0.023480806 -0.02724278 0.0069946945 0.060748376 0.044208698 -0.056833316
-0.08252684 -0.054654263 0.07901159 0.03438319 0.012219057 0.037063777 -0.0081435 -0.06204045
-0.04356009 -0.03169483 0.051169716 -0.012981183 0.04468946 -0.06949018 -0.013642455 0.033070896
-0.06388182 0.034596276 -0.0043407334 -0.07438748 0.028431505 -0.0008120313 0.0097697005 -0.03401996
0.0028065399 0.022875793 -0.032620214 -0.030095499 0.046855442 0.078544736 -0.08231231 0.033646293
0.009188019 -0.04231305 0.06368334 -0.03895816 -0.07985625 -0.073146865 0.040385798 0.0143005345
0.06948761 0.077053875 0.042981707 0.025576403 -0.05198072 -0.050746903 0.07316498 -0.036237158
-0.044243325 0.010926306 -0.013175004 -0.044621162 -0.044150762 -0.041257754 -0.03376243 -0.06472008
0.03389883 0.047117006 0.036315266 0.049551908 0.04076379 0.08135768 -0.06348578 -0.036921326
0.031229317 -0.053492587 0.05524526 -0.018767027 0.019794999 0.0018822774 0.057379544 -0.05413401
-0.01838737 -0.081682794 -0.03891672 0.061941262 -0.06781889 -0.011176441 -0.0065894877 0.05554597
0.004470597 0.04728676 -0.06875396 0.047429636 0.011125979 0.04978056 0.061862845 0.022654247
0.059365872 -0.026351579 -0.020367017 -0.047148596 -0.009445913 0.03182485 0.06764511 -0.031590175
0.07753425 0.04908731 -0.040290147 0.073891975 0.043967463 -0.070632845 0.036252756 0.016414959
0.071555994 0.052765414 -0.0013051196 0.040548604 -0.052018322 -0.0028419718 -0.079847634 0.055841856
-0.060541302 0.0032417998 0.033300187 -0.04550265 -0.01836466 -0.0071848924 -0.041369736 -0.024734877
-0.07409509 0.02542822 -0.035757314 -0.06576745 -0.04464261 0.061548103 -0.02604897 0.014899544
-0.06375656 -0.004082868 0.09306598 0.033620335 0.09078606 0.03408161 -0.06913137 -0.031309288
-0.045413118 -0.008574598 0.06465662 0.061438 -0.047278196 0.07339897 -0.07984133 0.08205069
0.06858624 -0.031579375 -0.05070902 0.067916326 0.042626 -0.0022080243 -0.014700942 -0.05060069
-0.016750075 0.058825783 -0.043892603 0.027415663 0.049881615 -0.046901286 -0.055082135 0.022284329
-0.023167145 -0.06901487 0.076803066 0.08154435 0.08274371 -0.0031525418 -0.04453227 0.07901042
-0.015274666 0.08003918 -0.06509997 -0.0014905259 0.082882054 0.06695665 0.043388672 -0.062216245
-0.07988133 -0.07521947 0.06269934 -0.0038789734 0.0031082109 -0.06436675 0.0400664 0.07750297
-0.031603675 -0.051728636 0.007824443 -0.000228405 -0.0643747 -0.018961363 0.07846197 -0.07684445
0.051507704 0.0074419454 -0.02001626 -0.014538936 0.043936037 0.060506456 0.008735128 -0.03054738
0.017380327 0.04729662 -0.0006303787 0.008196175 0.06358371 0.015524335 -0.0122953355 0.052848555
0.04556606 -0.058614306 -0.061900966 -0.046520196 -0.07821284 -0.01848913 -0.02872178 0.0077858493
-0.07056295 0.03942872 0.028124206 -0.028377812 -0.063012175 0.046481557 -0.041003726 -0.058980376
0.04013177 0.080900855 -0.059386443 -0.07029177 0.080108516 0.040352114 -0.019822925 0.007139258
0.0276981 -0.05845692 -0.069826886 -0.019938506 -0.049672842 0.031530023 0.054724865 0.038176633
-0.027982205 0.008040369 0.050665848 -0.07383054 0.03162133 -0.018252172 0.005614482 -0.040523212

decoder.0.bias f4 [16]
00000000: 6c0d 44bd 0cc0 303d 2fbb 583d 8f61 fcbb
00000010: 10b7 ecbc c1c1 88bc 6dca 3ebc b4c8 573d
00000020: f943 813d f9be 253d c0b4 8e3d bfa4 b8bd
00000030: 12a7 a93c 4364 39bd 6d8d d5bc a9ac d03b
-0.047864363 0.0431519 0.052912887 -0.0077020596 -0.028895885 -0.016693952 -0.011644942 0.05268164
0.06311793 0.04046533 0.06968069 -0.09015798 0.020709548 -0.045261633 -0.026068414 0.006368239

decoder.2.weight f4 [16, 1, 3, 3]
00000000: 585f 813e d292 1bbe fc30 943e 28bd b8bd
00000010: cd44 813e 712d 29be 3971 333d eda4 8abe
00000020: 0ef6 763e d391 d23d 311e d53d cfae a23d
00000030: 2620 b93d 9007 8e3d ba4c 80bd 5b31 7f3e
00000040: 3276 9fbe 1a0f 14bb a3fb 423c 2e9e 223e
00000050: 3211 a1be 00e7 9fbe b797 11be 9957 a03e
00000060: baa8 bd3c 1331 5dbe 8f21 39be 0e3d 9bbe
00000070: d5db 98bd b246 143e b2c1 6dbe 2133 0bbd
00000080: 27f2 943e 8204 9e3e 243c 073e a9f1 813e
00000090: 0a76 dc3c 444d fbbd 4ed0 05be 695e a1be
000000a0: 4c90 a53e c491 8ebe 3f53 c4bd 0657 033e
000000b0: 44bb 37be 3c04 623e 762e a4be aa2b 3d3c
000000c0: c11c 45be 8955 96be 697d 163e 000e 4ebb
000000d0: 8049 78be d7b9 78be d9ab 94be 19b2 e0bc
000000e0: be11 8bbe bec6 17bd 4311 043e 7b1c 23be
000000f0: 6f81 da3d 70d7 a6be fb0c e23d c0f2 9bbe
00000100: 919d 243e b2d3 49be 09d3 aebe e20a 8dbe
00000110: fccf a53d a65b 153e 00d5 06be 8c3d 433e
00000120: 260e aebd 7c5f da3d 7a44 6dbe a04a 4fbd
00000130: b83e c33d a596 e63d 5baf a2be f711 293d
00000140: 1997 6d3d e005 8cbe 71b9 c4bc 7651 8dbe
00000150: b9f0 943e ef99 1c3d 47f9 75bd dca4 e23d
00000160: 0f29 a9be 016f 2e3e bfdc 943e 60cc 7d3e
00000170: aa46 b43b 9cba 3e3d f84c fbbc e1f7 68be
00000180: de81 91be 7428 04be 6269 00be ca84 2c3e
00000190: f51c 203c fc62 d13d e1d2 d23d 73db f63c
000001a0: b4b4 74be d061 d0bd 513f a63e c68a 2b3e
000001b0: ebed d7bc 80e8 7a3e edaf 55be 6430 80be
000001c0: dd45 443d dd93 84bd 937f 503e d738 c1bd
000001d0: 4c8d 323e 8b50 9ebe c037 a63c 4435 9dbe
000001e0: 3b77 133c 987e 89bc e73a 55bd 8341 8a3e
000001f0: 19b0 1bbe 529c 2cbe fa18 8dbe 7d91 02be
00000200: 20a5 ae3d 28f7 89be 7610 43bc beeb 91bd
00000210: 7399 0c3e c0cc ce3d f31e 5fbe e34e 3abe
00000220: 13a6 e9bd 01ee 1ebe 98f3 e53d 49ec 903d
00000230: 8d8b 04be c3e3 a3be 19db 773e 3a91 80be
0.25268054 -0.15192726 0.28943622 -0.09020454 0.25247803 -0.16521241 0.04380915 -0.27078953
0.241173 0.1028172 0.10406149 0.07943498 0.09039335 0.06935036 -0.062646344 0.24921171
-0.31144863 -0.002259201 0.011900815 0.15880653 -0.3145843 -0.31230927 -0.14218031 0.31316832
0.023151744 -0.21600752 -0.18079208 -0.3032002 -0.07463805 0.14480093 -0.2321842 -0.033984307
0.29090998 0.30862814 0.13206536 0.25379685 0.026911754 -0.122705966 -0.13067743 -0.31517342
0.32336652 -0.27845585 -0.095861904 0.12826166 -0.1794253 0.22071928 -0.32066697 0.011546055
-0.1924925 -0.29362133 0.14696278 -0.003144145 -0.24246788 -0.24289642 -0.2903736 -0.027428674
-0.27161974 -0.03705477 0.1289721 -0.15928833 0.10669219 -0.3258624 0.11037632 -0.3045864
0.16075732 -0.19709662 -0.34145382 -0.27547365 0.080963105 0.14585742 -0.1316719 0.19066447
-0.08498792 0.106627434 -0.23170653 -0.050608277 0.09533447 0.11259202 -0.3177441 0.0412769
0.058005426 -0.27348232 -0.024014207 -0.27601212 0.29089907 0.03823274 -0.060052183 0.11066601
-0.33039138 0.17034532 0.29074666 0.24784994 0.005501588 0.046564683 -0.03067635 -0.22750808
-0.28419393 -0.12906057 -0.125402 0.1684753 0.009772529 0.10223958 0.10294128 0.030133938
-0.23897058 -0.10174906 0.32470182 0.16752157 -0.026358565 0.24502754 -0.20867892 -0.2503692
0.04791819 -0.06473515 0.20361166 -0.094346695 0.17436713 -0.30920824 0.020290256 -0.307047
0.009000595 -0.016783997 -0.052058127 0.27003106 -0.15203895 -0.16856506 -0.27558118 -0.12750812
0.08527589 -0.26946378 -0.01190578 -0.071250424 0.13730411 0.10097647 -0.2178915 -0.18194155
-0.11408629 -0.15520479 0.112281024 0.07076318 -0.1294386 -0.32009706 0.24204673 -0.251108
