checkpoints/epoch_3.pth (torch, 24320 bytes, 7 tensors)

encoder.0.weight f4 [16, 1, 1, 1]
0	0x3eb00c3c	0.34384334
1	0x3d3599c0	0.04433608
2	0x3ebc59b0	0.36787176
3	0x3ecce51e	0.40018553
4	0xbf37d3cc	-0.7180755
5	0xbec761e4	-0.38941872
6	0xbf35034b	-0.7070815
7	0xbf2661c3	-0.6499292
8	0x3dbec7a8	0.09315425
9	0x3e8365e5	0.25663677
10	0xbf7e3880	-0.9930496
11	0x3ea51cb6	0.32248467
12	0xbdee9735	-0.11649934
13	0xbebdc243	-0.37062272
14	0xbd6fe3bf	-0.058566805
15	0x3edb8422	0.42874247

encoder.0.bias f4 [16]
0	0xbf5d8d10	-0.8654337
1	0xbedf69cc	-0.43635404
2	0xbebbf178	-0.36707664
3	0x3e97f330	0.29677725
4	0x3f24c4c5	0.64362746
5	0x3ec84b9c	0.39120185
6	0x3f168465	0.5879577
7	0x3d578667	0.05261841
8	0x3f2107eb	0.62902707
9	0x3f34bd1c	0.7060106
10	0xbe944c08	-0.28964257
11	0x3f21cfd8	0.6320777
12	0x3f6aa6dd	0.91660863
13	0x3ebe0199	0.37110594
14	0x3f139b09	0.5765844
15	0xbd4941e4	-0.049135104

encoder.2.weight f4 [32, 16, 1, 1]
0	0xbe734fd0	-0.23760915
1	0x3e08f798	0.133757
2	0x3d4cc600	0.049993515
3	0x3e052ef8	0.13006198
4	0xbca36000	-0.019943237
5	0xbd163b48	-0.03667763
6	0x3e59c06c	0.2126481
7	0x3e5a2ae6	0.21305427
8	0xbde18afc	-0.11012837
9	0xbe6b4798	-0.2297653
10	0x3cfed860	0.031109035
11	0xbe1b5e2e	-0.15172645
12	0xbbf2e200	-0.007412195
13	0xbd0dbfa8	-0.034606606
14	0x3e298388	0.16554081
15	0x3d192fd0	0.037399113
16	0x3da98660	0.08277583
17	0xbe12885c	-0.1430983
18	0xbe77f60e	-0.24214956
19	0x3e2fca8e	0.17167112
20	0x3e17508c	0.1477682
21	0xbe225c03	-0.15855412
22	0xbd0ec558	-0.03485617
23	0xbd6051d0	-0.054765522
24	0x3db30f54	0.08743158
25	0xbddb5e31	-0.10711325
26	0x3e14ff26	0.14550456
27	0x3d10ecd2	0.0353821
28	0xbbe746c0	-0.0070579946
29	0xbdf613ad	-0.120154716
30	0xbe510840	-0.20413303
31	0x3c4e540e	0.012593282
32	0x3df075a0	0.11741185
33	0x3e6e723e	0.23285767
34	0xbdc2c328	-0.09509879
35	0xbe2d602c	-0.16931218
36	0xbdf492b8	-0.11942047
37	0x3dfe1844	0.12406972
38	0x3cdc75c0	0.026911616
39	0xbdd1a6ac	-0.10236868
40	0xbe56f848	-0.2099315
41	0xbdf112c8	-0.1177116
42	0xbc3c9e00	-0.0115122795
43	0xbd823d5c	-0.063593596
44	0x3e5d7bdc	0.2162928
45	0xbd503860	-0.050835013
46	0xbd724f28	-0.05915752
47	0xbe3b90a0	-0.18316889
48	0xbde889f0	-0.113544345
49	0x3cd1da70	0.025616854
50	0xbe41d73a	-0.18929759
51	0x3e3185d7	0.17336212
52	0xbe739574	-0.2378748
53	0x3dfd3984	0.12364486
54	0x3da9b6d8	0.08286828
55	0x3d983184	0.07431319
56	0x3e3f8fd3	0.18707208
57	0xbbd90e39	-0.00662401
58	0x3de302a8	0.11084491
59	0x3ce23c60	0.02761668
60	0xbe2ab8ad	-0.1667201
61	0x3db8067d	0.089856125
62	0x3e3b0461	0.18263389
63	0x3dbc2cbe	0.091882214
64	0xbe7af628	-0.24507964
65	0xbd2bf690	-0.041983187
66	0xbe389388	-0.18025029
67	0x3e64149f	0.22273491
68	0xbda304db	-0.079599105
69	0x3e098247	0.13428603
70	0xbb9e0711	-0.0048226197
71	0x3e1a3bd7	0.1506189
72	0x3e82b04c	0.2552513
73	0x3e1e827e	0.15479466
74	0xbe4b85d6	-0.19875273
75	0xbe1f22f6	-0.1554068
76	0xbe60f77a	-0.21969405
77	0x3da6e332	0.08148803
78	0xbe654a2f	-0.2239158
79	0x3d97f249	0.07419259
80	0x3e15ade8	0.14617121
81	0x3e303c26	0.17210445
82	0x3daa8c18	0.08327502
83	0x3e65d1ac	0.22443265
84	0xbe3aff46	-0.18261442
85	0x3de970ec	0.11398491
86	0xbd9051bc	-0.070468396
87	0x3e1fe698	0.15615308
88	0xbd8d3300	-0.06894493
89	0x3c9d2900	0.01918459
90	0xbe2d6742	-0.16933921
91	0xbd8f0e80	-0.069851875
92	0x3e15345a	0.14570752
93	0xbe62b1cc	-0.22138137
94	0xbdb74f88	-0.08950716
95	0xbd6c0388	-0.057620555
96	0xbc93ca10	-0.018040687
97	0x3d0ec418	0.03485498
98	0xbd7c1398	-0.061542124
99	0x3e7633c0	0.24043179
100	0xbdb8bcac	-0.09020361
101	0x3e4d25be	0.20033929
102	0x3ddd685c	0.108109206
103	0x3dcb17d8	0.09916657
104	0xbe0f6122	-0.14001897
105	0xbe70c46a	-0.23512426
106	0x3da52280	0.08063221
107	0xbe51be02	-0.20482638
108	0x3d3d5660	0.04622495
109	0xbe6ab442	-0.22920325
110	0xbe6a3c3a	-0.22874537
111	0xbd828c4c	-0.06374416
112	0x3e09682c	0.13418645
113	0x3e0f1838	0.13974082
114	0xbaedee00	-0.0018152595
115	0xbca0d07b	-0.019630661
116	0x3cb077f0	0.021541566
117	0x3da1ff48	0.07910019
118	0x3cc47549	0.023981707
119	0xbd373ad1	-0.044733826
120	0x3e3deef7	0.18548189
121	0xbdb0eb03	-0.08638575
122	0x3e728f94	0.23687583
123	0x3e08c1d2	0.13355187
124	0xbd2cd14e	-0.042191796
125	0x3e30d11d	0.1726727
126	0xbdfdeb78	-0.12398428
127	0x3d51bbe2	0.05120457
128	0x3e64e7c6	0.2235404
129	0x3e134c8e	0.14384672
130	0xbe5484b4	-0.20753747
131	0xbda819af	-0.08208024
132	0x3e1487cb	0.14504926
133	0x3e68fd5c	0.22752899
134	0x3db32924	0.08748081
135	0xbdc479fb	-0.095935784
136	0xbe12e77f	-0.14346121
137	0xbe80d521	-0.25162604
138	0x3d0a5a30	0.033777416
139	0xbe568e5c	-0.20952743
140	0x3e5569d8	0.20841157
141	0x3df57522	0.11985232
142	0x3e615426	0.22004756
143	0xbe22b0f1	-0.1588781
144	0xbd37e1a8	-0.044892937
145	0x3e15e09c	0.14636463
146	0xbdde9738	-0.108686864
147	0x3e59e114	0.21277267
148	0xbe010f92	-0.12603596
149	0x3e433c4a	0.19065967
150	0x3e4828cc	0.19546813
151	0x3bd5c84a	0.0065241205
152	0xbe46fe73	-0.19433002
153	0x3e2a767f	0.16646765
154	0x3e4bfb60	0.1992011
155	0x3e2a726a	0.16645208
156	0xbe367c33	-0.17820816
157	0xbd7679b6	-0.060174666
158	0x3dd6d7c9	0.104903765
159	0xbe2102f9	-0.1572379
160	0x3de106c8	0.109876215
161	0x3df152d0	0.11783373
162	0x3e19992a	0.14999834
163	0x3e35c9df	0.17752789
164	0x3b7b8cf9	0.0038383587
165	0xbe519724	-0.20467812
166	0x3e0b1004	0.13580328
167	0xbe2ee9b9	-0.17081346
168	0xbe48845c	-0.19581741
169	0x3d0c3a30	0.03423518
170	0xbe369cec	-0.17833298
171	0x3e6d6a0c	0.23184985
172	0x3e584d43	0.21123223
173	0xbdb7d813	-0.0897676
174	0xbdea2bca	-0.11434133
175	0xbe2e577b	-0.17025559
176	0x3dda45e8	0.10657865
177	0xbe266b58	-0.16251886
178	0x3dc4640c	0.09589395
179	0x3e07d6ec	0.1326558
180	0xbd6c07de	-0.05762469
181	0xbe14ff17	-0.14550434
182	0x3ceb499e	0.028721627
183	0xbe05d05b	-0.13067763
184	0xbcbf174a	-0.023326535
185	0xbe43976c	-0.19100732
186	0xbd95cf40	-0.073149204
187	0xbdddf3b7	-0.108375005
188	0x3e45d70b	0.19320314
189	0xbcacc70b	-0.021091005
190	0xbe581ff5	-0.2110594
191	0xbe3fd70e	-0.1873438
192	0x3dad46d0	0.08460772
193	0x375f0000	1.3291836e-05
194	0x3da47258	0.08029622
195	0x3e443b21	0.19163181
196	0x3db94b50	0.09047568
197	0xbdd71596	-0.10502164
198	0x3e4b6e4c	0.19866294
199	0xbe339411	-0.17536952
200	0xbca9ebd0	-0.020742327
201	0x3e27b39e	0.16377112
202	0x3e3e62f4	0.18592435
203	0xbb8acb69	-0.004235674
204	0xbdcb501e	-0.099273905
205	0x3cfc3144	0.03078521
206	0x3e81d596	0.25358266
207	0xbe367d27	-0.1782118
208	0xbe78a33c	-0.24281019
209	0xbe3fa92a	-0.18716875
210	0x3dcdf5bc	0.10056636
211	0x3d75ade8	0.059980303
212	0xbe796ca5	-0.24357851
213	0x3d53ee12	0.051740713
214	0xbd84e778	-0.06489462
215	0xbe5659a6	-0.20932636
216	0xbe36a4ae	-0.17836258
217	0x3e721bec	0.23643464
218	0x3d03d760	0.03218782
219	0x3e0dda39	0.13852777
220	0x3d4658fa	0.0484247
221	0x3c45c96c	0.0120719485
222	0xbcdc31cf	-0.02687922
223	0xbe2da3cb	-0.16957013
224	0x3e24d7e2	0.16097978
225	0x3bf9ea40	0.0076268017
226	0x3d8d3a04	0.06895831
227	0xbe1439a2	-0.1447511
228	0x3de327c6	0.110915706
229	0x3e43f97f	0.19138144
230	0xbd1123bd	-0.035434473
231	0x3d7e5212	0.062089987
232	0x3d41a9e1	0.04728115
233	0xbe1f21a9	-0.15540184
234	0x3e076fe2	0.13226274
235	0xbd6f6f6b	-0.058455866
236	0x3da96a34	0.0827221
237	0x3db65417	0.089027576
238	0xbe24cf4a	-0.160947
239	0xbd93b50f	-0.072122686
240	0x3d98da70	0.07463539
241	0xbd28a308	-0.041171104
242	0x3dd47a5c	0.10374901
243	0xbd4de340	-0.05026555
244	0x3d909b4c	0.070608705
245	0xbe094cfa	-0.1340827
246	0xbdc961fc	-0.09833142
247	0x3e58b7f0	0.21163917
248	0xbe49e5bc	-0.19716543
249	0x3da72258	0.081608474
250	0xbe41fbe6	-0.18943748
251	0xbe4fea32	-0.20304182
252	0x3d844eec	0.06460366
253	0xbdf93dbc	-0.12169978
254	0x3c1860e0	0.009300441
255	0xbe22791e	-0.15866515

encoder.2.bias f4 [32]
0	0xbded7b84	-0.11595824
1	0xbab51886	-0.0013816513
2	0xbd2c8980	-0.042123318
3	0x3e428806	0.18997201
4	0x3e388353	0.18018846
5	0xbe495cc0	-0.19664288
6	0x3e078f9d	0.13238378
7	0x3e1e5ee7	0.1546589
8	0x3dadc29d	0.08484385
9	0xbc4db485	-0.012555246
10	0xbdea8166	-0.11450462
11	0x3e751737	0.23934637
12	0xbd38ad77	-0.045087304
13	0xba4c875f	-0.0007802154
14	0x3d9e04ca	0.07715757
15	0xbe755d0c	-0.23961276
16	0xbdd8f22c	-0.105930656
17	0xbe7af92e	-0.24509117
18	0x3e7f43f5	0.24928267
19	0x3db47945	0.08812193
20	0x3e40dcea	0.18834272
21	0x3d20b97f	0.039239403
22	0x3e255889	0.16147055
23	0xbe2952ad	-0.16535445
24	0xbe492441	-0.19642736
25	0x3df2e32b	0.11859735
26	0x3ddf9a0a	0.109180525
27	0x3c2244b6	0.009904077
28	0x3e137705	0.14400871
29	0x3dfbf6dc	0.12302944
30	0x3d7b7e6c	0.061399862
31	0xbe08b81f	-0.13351487

decoder.0.weight f4 [32, 16, 3, 3]
0	0xbd934b38	-0.07192081
1	0x3c46f440	0.012143195
2	0xbd293068	-0.04130593
3	0x3ceb46b0	0.02872023
4	0x3d57023a	0.052492358
5	0xbc661f60	-0.014045566
6	0xbd576f08	-0.052596122
7	0x3c4be6b8	0.012445144
8	0x3d80e269	0.06293184
9	0x3d11233a	0.035433985
10	0xbbff1340	-0.007784277
11	0x3c45ff68	0.012084819
12	0xbc77a220	-0.015114337
13	0x3d27bf36	0.040953837
14	0xbd8a913f	-0.06765985
15	0x3cd5586c	0.02604314
16	0x3d36f3c6	0.044666074
17	0x3d977b93	0.07396617
18	0xbd6c368e	-0.057669215
19	0xbd8b1353	-0.06790795
20	0xbd3d3580	-0.0461936
21	0x3d6dbc86	0.058041118
22	0xbcd19fe6	-0.02558894
23	0x3d81ae49	0.063320704
24	0x3d860177	0.06543248
25	0xbd05d32b	-0.03267209
26	0xbda664a0	-0.081246614
27	0xbb4f2c60	-0.0031612143
28	0x3c391f00	0.011298895
29	0x3d67505e	0.05647313
30	0xbd9c7487	-0.07639413
31	0x3d189718	0.03725347
32	0xbd510848	-0.05103329
33	0xbcc2f6f0	-0.02379939
34	0xbda2970c	-0.07938966
35	0x3d52f212	0.051500387
36	0xbd18f50b	-0.037343066
37	0xbd40b83b	-0.047050696
38	0xbd62f54b	-0.05540971
39	0x3d7fbaf6	0.06243416
40	0xbd71e7b8	-0.059058875
41	0x3d98574d	0.07438526
42	0x3d2b2192	0.041780062
43	0x3d45045a	0.048099853
44	0x3c20a840	0.009805739
45	0xbd29776e	-0.041373663
46	0x3d893313	0.06699195
47	0x37825000	1.553446e-05
48	0x3d3a5242	0.045488603
49	0xbc8d8cec	-0.01727911
50	0xbc108b28	-0.00882224
51	0x3c760d38	0.0150178
52	0x3c89e08c	0.016830705
53	0x3c90cafc	0.017674915
54	0x3c685ef8	0.014182799
55	0x3d142c66	0.036175154
56	0xbd828fee	-0.06375109
57	0x3c977550	0.018488556
58	0xbd811ea4	-0.06304672
59	0x3d1dd6f8	0.03853509
60	0x3d1297fa	0.035789467
61	0x3d46ed22	0.04856599
62	0x3d849fd1	0.06475795
63	0x3d684a4e	0.056711487
64	0x3b83ab00	0.0040181875
65	0x3c9a3070	0.018821925
66	0x3d23a7a6	0.039954804
67	0x3b2b5e00	0.0026148558
68	0xbda757da	-0.08171053
69	0x3d46f342	0.048571832
70	0x3d604d66	0.054761313
71	0x3d775c3e	0.060390703
72	0x3ceec010	0.029144317
73	0x3c9cfd5c	0.01916378
74	0xbc7789c0	-0.015108526
75	0x3d127bce	0.0357626
76	0xbda54742	-0.08070232
77	0xbd98e8af	-0.07466256
78	0xbceb4c5c	-0.028722934
79	0xbd51079b	-0.051032644
80	0xbcdf9f8c	-0.027297758
81	0x3d85f471	0.06540764
82	0xbd3c8266	-0.046022795
83	0xbd085c63	-0.03329123
84	0x3d66def2	0.05636496
85	0x3d5498fa	0.051903702
86	0x3d418172	0.04724259
87	0xbd4e74be	-0.050404303
88	0xbbb768f0	-0.0055972263
89	0xbdaa11a2	-0.083041444
90	0xbd112be6	-0.035442255
91	0xbaeb9fc0	-0.0017976686
92	0x3caa16a0	0.020762742
93	0xbd68bb30	-0.05681914
94	0xbda501b7	-0.08056968
95	0x3c43c880	0.011949658
96	0xbd665e10	-0.05624205
97	0x3bf1ea40	0.007382661
98	0xbda95bc4	-0.08269456
99	0x3d26f332	0.040759273
100	0x3d442022	0.047882207
101	0xbc1bdd48	-0.009513207
102	0xbd96ae6a	-0.073574856
103	0xbd21c8bb	-0.039498072
104	0x3bdbb170	0.006704502
105	0xbbf0cf10	-0.0073489025
106	0x3d9b5ccd	0.0758606
107	0xbc9b5b14	-0.018964328
108	0xbda51c24	-0.08062008
109	0xbda4930a	-0.08035858
110	0xbcb70570	-0.02234146
111	0x3d73e726	0.059546612
112	0xbc88e170	-0.01670906
113	0xbd4035e8	-0.04692641
114	0x3b009a20	0.0019623116
115	0x3d40bde2	0.047056086
116	0xbaabeb40	-0.0013116375
117	0xbd2e7646	-0.042593263
118	0xbc98fa74	-0.018674113
119	0xbd902baa	-0.07039578
120	0x3ce1f180	0.027580976
121	0xbd5f64b8	-0.054539412
122	0x3d89973d	0.067182995
123	0x3d4d6c02	0.050151832
124	0x3d6cd0f2	0.057816453
125	0x3d5c076e	0.053718023
126	0xbce5ede0	-0.02806753
127	0xbd992106	-0.07477002
128	0x3da7d481	0.08194829
129	0x3bd1c650	0.0064018145
130	0x3d85b7ff	0.06529235
131	0x3d5dfb7a	0.054194905
132	0xbd81deee	-0.063413486
133	0x3b0bbb80	0.0021321476
134	0x3d1740e2	0.03692711
135	0x3d31d60a	0.043417014
136	0x3c4132e0	0.011791915
137	0xbda720f0	-0.08160579
138	0x3bfda950	0.007741131
139	0x3d951f85	0.072814025
140	0xbbcad1d0	-0.0061895624
141	0x3d926839	0.07148785
142	0x3d3ce8e2	0.04612053
143	0xbd87a33b	-0.066229306
144	0xbd324b38	-0.043528765
145	0x3bc62bd0	0.0060477033
146	0xbd94ae83	-0.07259848
147	0xbcd8a426	-0.02644546
148	0xbd6b27a3	-0.057410847
149	0xbd642a53	-0.055704426
150	0x3d7b6032	0.061371036
151	0xbbe529d0	-0.00699351
152	0x3d8e66b9	0.069531865
153	0x3d4b0aca	0.049570836
154	0x3d7704a2	0.060307153
155	0x3c4a0eff	0.012332677
156	0xbd8a4a35	-0.06752435
157	0xbbb7e3d0	-0.005611874
158	0xbd6d5ae8	-0.057948023
159	0xbd65ec4e	-0.05613356
160	0x3d5663f2	0.05234141
161	0xb99c017c	-0.00029755745
162	0xbd73ec86	-0.05955174
163	0x3c5d6ab3	0.013514209
164	0xbd882a69	-0.06648714
165	0xbd4c11ae	-0.04982155
166	0xbbf2345c	-0.0073914956
167	0x3d4a77cf	0.049430665
168	0xbd6be6b4	-0.057593063
169	0xbd8e4230	-0.06946218
170	0x3d6a91fe	0.057268135
171	0xbd133433	-0.035938453
172	0x3d452233	0.048128318
173	0xbbc9a500	-0.0061537027
174	0xbc994f45	-0.018714556
175	0x3d3c1ddf	0.045926925
176	0xbb8f976d	-0.004382065
177	0x3c61c000	0.0137786865
178	0xbd257208	-0.04039195
179	0xbd3be49e	-0.045872323
180	0x3c69c2b6	0.014267614
181	0x3d8cb04f	0.06869566
182	0xba4ecdc0	-0.00078889355
183	0x3d17358e	0.036916308
184	0x3c04192c	0.008062642
185	0xbcef7cb0	-0.02923426
186	0x3d8d89aa	0.06911023
187	0x3d808bc0	0.06276655
188	0xbd5ef59c	-0.05443345
189	0xbce3a4ca	-0.027788538
190	0xbcbbfef5	-0.022948721
191	0x3d86b388	0.065772116
192	0xbd260c18	-0.040538877
193	0x3da96001	0.082702644
194	0xbd86aa47	-0.065754466
195	0x3c1ff2f6	0.009762516
196	0xbc89701b	-0.016777089
197	0x3ca0a5ee	0.019610371
198	0x3d740096	0.05957087
199	0x3d422a8a	0.04740385
200	0x3c2c74e8	0.0105259195
201	0x3d11d258	0.03560099
202	0x3d621e8a	0.055204906
203	0xbd7206b8	-0.05908844
204	0x3da825db	0.08210345
205	0x3d29ac08	0.041423827
206	0xbcf598f0	-0.029980153
207	0x3d8f8a75	0.070088305
208	0xbd9b626a	-0.0758713
209	0xbc864ec4	-0.01639498
210	0xbd44556b	-0.047933023
211	0x3c679008	0.014133461
212	0x3b793060	0.0038023219
213	0x3d469cf2	0.04848952
214	0x3b800c40	0.0039077103
215	0xbda981a4	-0.0827668
216	0x3d39051a	0.04517088
217	0x3d997578	0.074931085
218	0x3d98345d	0.074318625
219	0x3d9afb68	0.07567483
220	0xbcb55776	-0.022136431
221	0x3d1ffd77	0.039060082
222	0xbbfaf630	-0.0076587424
223	0x3d405b62	0.04696215
224	0x3ce1bf90	0.027557164
225	0x3d2a23aa	0.04153792
226	0xbd6513f6	-0.05592724
227	0xbb224920	-0.0024762824
228	0xbce2ec40	-0.027700543
229	0xbd8862f5	-0.066594996
230	0xbc986314	-0.018601932
231	0xbd2146e3	-0.039374243
232	0x3b5c8208	0.003364684
233	0x3d7091ce	0.0587328
234	0xbc6f44e8	-0.014603831
235	0xbd7d6ebf	-0.061873194
236	0x3cd3f784	0.02587486
237	0x3cf6a3d4	0.030107416
238	0xbd1bcf25	-0.038039345
239	0x3d1f9f6d	0.0389704
240	0x3bc44d10	0.005990632
241	0xbd4f6575	-0.050633866
242	0x3cabcc60	0.020971477
243	0x3d86a4cd	0.06574402
244	0xbd878fcf	-0.06619226
245	0x3d37ee7e	0.04490518
246	0x3d885c98	0.06658286
247	0x3d82ecfe	0.06392859
248	0xbd8f168f	-0.069867246
249	0x3bcccec1	0.006250233
250	0xbd8bfa64	-0.068348676
251	0x3cbf8dcd	0.023383046
252	0x3d38dbaa	0.045131363
253	0x3d4c6d0e	0.04990869
254	0xbc9f9500	-0.019480228
255	0x3c8fe3b6	0.017564636

decoder.0.bias f4 [16]
0	0xbcf4e020	-0.029892027
1	0xbc748fc5	-0.014926855
2	0x3cf4fac9	0.02990474
3	0x3db5f4f5	0.088846125
4	0xbd47b131	-0.048752967
5	0x3d72ff86	0.059325717
6	0xbd582ef3	-0.05277915
7	0xbd96f360	-0.07370639
8	0x3abbba9f	0.0014322585
9	0xbcd13800	-0.025539398
10	0x3d430220	0.04760945
11	0x3db41741	0.08793498
12	0xbd87614a	-0.06610353
13	0x3d98511d	0.07437346
14	0xbd0e455b	-0.03473411
15	0xbd8ba7a7	-0.068190865

decoder.2.weight f4 [16, 1, 3, 3]
0	0x3ddea2fc	0.108709306
1	0x3e0d5950	0.13803601
2	0xbd923df4	-0.07140723
3	0xbd5c1468	-0.0537304
4	0xbdc4274c	-0.09577808
5	0xbdb61290	-0.08890259
6	0x3cbc67c0	0.02299869
7	0xbe091cfb	-0.13389961
8	0x3dd59130	0.10428083
9	0xbe967674	-0.29387248
10	0xbe2ad773	-0.1668375
11	0x3e11714d	0.14203377
12	0x3e6ca3fb	0.23109429
13	0x3dac5bb4	0.084159285
14	0xbc8def7b	-0.017326107
15	0x3e850e4c	0.2598747
16	0x3dea981f	0.11454796
17	0x3dac7527	0.084207825
18	0xbe5fe854	-0.2186597
19	0x3e932c64	0.28744805
20	0xbc8dcc2e	-0.017309275
21	0x3e7e80ff	0.24853896
22	0x3dbfd120	0.09366059
23	0x3e39e1c0	0.18152523
24	0xbe4f65eb	-0.20253722
25	0xbea16e3d	-0.31529418
26	0x3e11622f	0.1419761
27	0xbde10ee1	-0.10989166
28	0x3e5ec160	0.21753454
29	0xbe952f12	-0.29137474
30	0x3e4b275d	0.19839235
31	0xbe05b050	-0.13055539
32	0xbe8e09cc	-0.2774185
33	0xbe8e3319	-0.2777336
34	0xbe8f9c5f	-0.2804899
35	0x3e211f12	0.15734509
36	0xbd7878b2	-0.06066198
37	0xbd402cad	-0.046917606
38	0x3e9e1c23	0.30880842
39	0x3e955597	0.29166862
40	0xbe433d21	-0.19066288
41	0x3dba4f05	0.09097103
42	0xbe3bbfb8	-0.18334854
43	0x3cdd3b9e	0.027005967
44	0x3dbd3ad6	0.09239738
45	0xbe18d0af	-0.14923356
46	0xbe51abc0	-0.20475674
47	0x3d873642	0.06602146
48	0xbe9ac706	-0.30229968
49	0xbd915c44	-0.070976764
50	0x3d5471f6	0.051866494
51	0x3d53f920	0.051751256
52	0x3e3b54c6	0.18294057
53	0xbe92cc4c	-0.2867149
54	0x3e350e52	0.17681244
55	0x3e71daae	0.23618576
56	0x3e8c78b9	0.27435854
57	0x3c3e59e0	0.011618108
58	0x3e36552e	0.17805931
59	0x3e5402ce	0.20704195
60	0xbe8c00b3	-0.27344283
61	0xbd65c160	-0.05609262
62	0x3d4368a0	0.0477072
63	0x3e40ae6d	0.18816538
64	0xbe88867f	-0.26665112
65	0xbea4141e	-0.32046598
66	0x3ea735d7	0.32658264
67	0xbe44990d	-0.19199009
68	0xbd32cd37	-0.04365274
69	0x3ea4b30c	0.32167852
70	0xbe413a0f	-0.18869804
71	0x3ea7a7a8	0.327451
72	0xbc58f1b7	-0.013241223
73	0xbe900808	-0.28131127
74	0x3ea1e074	0.31616557
75	0x3ea79348	0.32729554
76	0xbe86e7a4	-0.26348603
77	0xbe356bde	-0.1771693
78	0xbe062fce	-0.13104174
79	0x3e9b064e	0.30278248
80	0xbdb9d715	-0.09074227
81	0xbea6eebe	-0.3260402
82	0xbe722ed5	-0.23650678
83	0xbde56944	-0.112017184
84	0xbeaac8d4	-0.33356345
85	0xbe9947c3	-0.29937562
86	0xbea31bcf	-0.31857154
87	0xbe707e0e	-0.23485586
88	0xbea70d6d	-0.3262743
89	0x3c1b8ad0	0.009493545
90	0xbddab4b7	-0.10679
91	0x3ea4d586	0.32194155
92	0xbe8ad19a	-0.27113038
93	0xbe336780	-0.17519951
94	0xbe6645ec	-0.2248761
95	0xbe3f197b	-0.18662064
96	0xbe61e6a8	-0.22060645
97	0xbe02af32	-0.12762144
98	0xbdb16b88	-0.08663088
99	0xbe55c021	-0.20874073
100	0xbe976a09	-0.29573086
101	0x3e71f02d	0.23626776
102	0x3dc072f6	0.09396927
103	0x3c2483a8	0.010041155
104	0x3ea1365d	0.31486788
105	0xbd6b328a	-0.057421245
106	0xbe7ced9d	-0.24700017
107	0xbe80c41d	-0.25149623
108	0x3ea7aa6a	0.32747203
109	0x3ce5e89a	0.028065015
110	0x3c1bf230	0.009518191
111	0x3e574ea9	0.210261
112	0xbe585e2b	-0.21129672
113	0x3d8abf65	0.06774787
114	0x3e268820	0.16262865
115	0xbdb92a56	-0.09041278
116	0xbc44b74d	-0.012006593
117	0x3e8f3ecb	0.27977595
118	0xbe13fc10	-0.14451623
119	0xbea6ad18	-0.32553935
120	0xbe0e12bc	-0.13874334
121	0xbd72ca70	-0.05927509
122	0xbe641aff	-0.22275923
123	0xbe98ace6	-0.2981941
124	0x3e924725	0.28569904
125	0xbdd19cc1	-0.102349766
126	0xbe6258f9	-0.22104253
127	0x3d142fd9	0.036178444
128	0xbe5a6a26	-0.21329555
129	0xbe84dc8c	-0.25949514
130	0x3da4c7c9	0.080459185
131	0xbe93b42e	-0.28848404
132	0x3e108772	0.14114168
133	0xbe437b0a	-0.19089904
134	0xbe8590d6	-0.26087064
135	0xbd17f701	-0.037100796
136	0x3e06bc3d	0.13157745
137	0xbca9f188	-0.020745054
138	0xbe92ba61	-0.2865782
139	0x3d84e082	0.06488134
140	0x3deed7bf	0.11662244
141	0x3dff3c83	0.124627136
142	0xbe42a6f7	-0.19009005
143	0x3e8ddbd6	0.27706784
