checkpoints/epoch_12.pth (torch, 24780 bytes, 7 tensors)

encoder.0.weight f4 [16, 1, 1, 1]
00000000: 1490 ffbe 4fe7 7b3f 33fe 79bf aa03 67bf
00000010: f8bf 39bf 7d0a b43e bfb0 843d a06c 6c3f
00000020: f431 2abf 7c04 df3e 0f5a de3c 47ce 0d3f
00000030: 81a8 73bf a07a 21bd eade 29bf 2847 d9be
-0.4991461 0.98399824 -0.976535 -0.90239966 -0.72558546 0.35164252 0.06479024 0.9235325
-0.6648247 0.4355811 0.027142553 0.5539288 -0.9517899 -0.039423585 -0.66355765 -0.424371

encoder.0.bias f4 [16]
00000000: d2c1 2cbf b1ad 483f 50ef db3e 98cf 023e
00000010: e027 15be 52d7 543f eabb f03e baaa 24bf
00000020: aa7a 3fbf 4e3e 163f fd18 183f 358c 343f
00000030: e541 ed3e c0c5 0dbd a046 acbe 5478 d4be
-0.67483246 0.7839003 0.42956018 0.12774503 -0.14565992 0.8314105 0.47018367 -0.6432301
-0.74796546 0.5868882 0.5941313 0.7052644 0.46339336 -0.034612417 -0.33647633 -0.41498053

encoder.2.weight f4 [32, 16, 1, 1]
00000000: 7874 b73d a510 ffbd 7e84 0abd 50e5 003d
00000010: 007a 40bc 6fb5 563e 1b98 5dbe 6e24 d3bd
00000020: 4055 a8bc 5a0c 07be 04ee cb3b 422e 293e
00000030: 849c 013d a0b9 9e3d 407f 59bd 007a 173c
00000040: ea93 41be 3671 6d3e a6b3 7fbe f896 36be
00000050: e0d7 e1bd 2ec9 7fbe 6ec9 61be 46c8 57be
00000060: a0e9 153d c0a9 47bd 0eb9 44be d8e8 cd3d
00000070: 5c7a 843d dcd0 c73d 6c3b 85bd 5ce8 123e
00000080: 0e0a 243e 10bd babd 5029 8dbc 32c5 46be
00000090: 1010 c33d 20e1 6f3c 3a7f 29be cc2a 17be
000000a0: 5476 04be 20db 113c 4e03 2abe 547c 873d
000000b0: 28b6 7bbe c0c8 6bbc 5820 5ebe 42b7 37be
000000c0: 3818 a63d a286 b03c d6d0 34be 27d9 31be
000000d0: 0002 593d 0a82 c73d f684 663e b393 14be
000000e0: 008e f73c a044 343e 4338 553e dbcf 9f3c
000000f0: 5fd9 603d 4c14 e6bd 3aaf 773e 888a 763d
00000100: 803d 20bb 8f1f 283e 62f1 853c 7c95 5e3c
00000110: 9898 90bd 267b 40be 7957 783e b6e3 62be
00000120: 4ecd 7bbe 13ac 503e 92f1 2dbe df7d d3bd
00000130: 37ad 533e 400d 053c ec52 af3d 7cfa 2c3e
00000140: 4020 48bc 0c80 bdbd cab6 7ebe c42f e9bd
00000150: a0ee a3bc d0c3 1c3d f88c 73be 5c57 2c3e
00000160: e06a 43bc 04c5 5abe 802c 76be ee68 103e
00000170: a4f0 d93d b43f 413e 586b 1f3e a872 b63d
00000180: ec4b 873d 82a4 bc3d e3ab 613e 6ed2 763d
00000190: 24e4 6cbe c6c7 083e 4a8d 23be 796b 003e
000001a0: c81a edbd 860d 4b3d b7e2 643e 8100 d43d
000001b0: 0d91 c43c 18d6 f23d 4ef5 753e b009 dbbd
000001c0: 107f 91bc 988c 1bbe 0057 c7bc 52f3 793e
000001d0: 18ff 10be 0468 88bd 36c8 3ebe 96e4 1c3e
000001e0: b439 0fbe 5045 b03c b0f2 3bbe 60ee d7bc
000001f0: 5808 b9bd 8ab6 5dbe 949a be3d 46da 303e
00000200: 3e03 32be abf6 34be 8cbc 1fbe 51e6 41be
00000210: d029 af3c dd2c 433e 86c2 393d 792b 6d3d
00000220: 4cae 62be ebdc f73d 00fe 02be 75ca 383e
00000230: e046 1d3d d0e5 553e d887 c63d 2858 ddbd
00000240: 6ee7 573e d5ce a2bd 5958 143e cf76 64bd
00000250: 280c 553e 493d 873e 9029 3d3e 0057 2bbe
00000260: de96 3bbe 93e0 853e 8c4d 75bd 65f1 4fbc
00000270: 1382 a43c 0c4e 73be e292 0dbe 8a9e 55be
00000280: 1076 643e 100b edbc de48 5d3e 78ff 10bd
00000290: 6666 113e 30d3 a93d 604f d7bd 1cc5 4ebe
000002a0: a80b a83d cc38 903d dabf 173e 3ab7 72be
000002b0: a014 433c 2053 bf3d 689c 4a3e 6c0d 7b3e
000002c0: e89e 2ebe 0bf9 74bd 58b0 e73d 5f30 33be
000002d0: 6084 bf3c 0036 643e f107 d8bd a34d 3ebe
000002e0: 7caa 443e 6a52 b73c 4963 563e d004 a5bd
000002f0: 4a4a af3d 5493 d8bd 7096 d03c 9000 41be
00000300: 4c5c 113e f998 373e 69cf ec3d c70d 4a3e
00000310: 70d4 b03c db05 943a 4d8c 2b3e 4d0d 843d
00000320: 1622 2f3e 4c63 1ebe 8a9f cabd f736 773e
00000330: 7b5f 513e a4fa 573e de43 77be 00f0 9d3d
00000340: eecc 4fbe 5594 d9bd 2a26 d8bd 4f9d 23bb
00000350: b216 23be c92a 063e 6e5a 23be faf9 5dbe
00000360: c095 c53d a97b 8c3e 05d1 893e 180e 5e3e
00000370: c4ce aa3d ac2c aebd 1445 22be 841f 58be
00000380: 9060 823c 8ca6 c53d a8f1 7a3d f024 58be
00000390: 00a5 d13b d013 bd3d e0bb 75be 8437 9abd
000003a0: 8ac4 2abe 0cae 4abe aefc 5fbe b48f 213e
000003b0: 06dc 703e 3015 a0bd da5f 36be 0c19 fabd
000003c0: 00cc dfba 116d 173e af2f ef3d 4ea8 663e
000003d0: a073 f43c 1a25 f6bd b4d1 d3ba 5b07 643e
000003e0: 4021 ce3d 8e05 99bd 05d4 9a3d 2266 813e
000003f0: f2f9 25be 803a 05bb b050 51be e689 20be
0.089577615 -0.124543466 -0.03381776 0.03146869 -0.011747837 0.20967649 -0.21640055 -0.10309683
-0.020548463 -0.13188305 0.006223442 0.16521552 0.031643406 0.07750249 -0.05309987 0.009245396
-0.18904081 0.23187718 -0.24970874 -0.17831028 -0.11027503 -0.24979088 -0.22049496 -0.21072492
0.036599755 -0.04874587 -0.19211218 0.10054177 0.06468651 0.09756634 -0.065054744 0.1434645
0.1601946 -0.09118092 -0.017231613 -0.19411162 0.09524548 0.014641076 -0.1655244 -0.1476242
-0.12935764 0.008902341 -0.16602823 0.066155106 -0.24581206 -0.014391124 -0.21692026 -0.17941001
0.08110088 0.021548573 -0.1765779 -0.17367993 0.052980423 0.097416 0.22511658 -0.14509468
0.030219078 0.17604303 0.20822243 0.019508293 0.0548948 -0.1123434 0.24187937 0.060190707
-0.002445072 0.16418289 0.016350452 0.013585445 -0.07060355 -0.18796977 0.24252118 -0.22157177
-0.24590036 0.20378141 -0.16986683 -0.103267424 0.20671545 0.008120835 0.08560738 0.16892427
-0.01221472 -0.09252939 -0.24874416 -0.11386064 -0.020011246 0.03827268 -0.23784244 0.168302
-0.011927336 -0.21364218 -0.24040413 0.14102527 0.10641602 0.18871957 0.15568292 0.08908588
0.06606278 0.09211065 0.22038226 0.060259275 -0.23133904 0.13357458 -0.15971866 0.12540998
-0.11577374 0.049573444 0.2235211 0.103516586 0.023994947 0.118572414 0.24019358 -0.10695207
-0.017760783 -0.15190351 -0.024333477 0.24409226 -0.1415981 -0.066604644 -0.18631062 0.15321574
-0.13986856 0.021517426 -0.18354297 -0.026358783 -0.090347946 -0.21651664 0.09306827 0.17270765
-0.1738405 -0.17672221 -0.15599269 -0.18935515 0.021382242 0.19060083 0.045351528 0.057902787
-0.22136801 0.12102684 -0.12792206 0.18045981 0.03839767 0.20888448 0.09693879 -0.1080783
0.21084377 -0.07949606 0.14486827 -0.055777367 0.20805418 0.26413944 0.18472886 -0.16732407
-0.1831927 0.261479 -0.059888408 -0.01269183 0.020081555 -0.23760241 -0.13825563 -0.20861259
0.22310662 -0.02893594 0.21609828 -0.035399884 0.14199218 0.08292234 -0.105131865 -0.20192379
0.08205348 0.07042083 0.1481928 -0.23702708 0.011906773 0.09342027 0.19786227 0.24516839
-0.17052805 -0.05980782 0.11312932 -0.17498921 0.023378551 0.22286224 -0.1054839 -0.18584304
0.1920566 0.022378165 0.20936312 -0.080575585 0.085590914 -0.105749756 0.02546236 -0.18847871
0.14195365 0.17929448 0.11562998 0.19731818 0.021585673 0.0011293249 0.16752739 0.064478494
0.17102847 -0.15467566 -0.09893711 0.24142061 0.20446579 0.21091706 -0.24146983 0.07711792
-0.20293018 -0.10623995 -0.10554154 -0.002496559 -0.15926626 0.13102259 -0.15952465 -0.2167739
0.09647703 0.27438095 0.26917282 0.21685064 0.08340219 -0.08504614 -0.15846664 -0.21105772
0.015915185 0.09650907 0.061265618 -0.2110784 0.0063978434 0.092322946 -0.2399745 -0.0753012
-0.16676536 -0.19792956 -0.21873733 0.15777475 0.23521432 -0.07816541 -0.17810002 -0.122118086
-0.0017074347 0.147877 0.11679017 0.2252514 0.02984029 -0.12018795 -0.0016160519 0.22268431
0.10064936 -0.074717626 0.07559971 0.25273234 -0.16208628 -0.0020329058 -0.20440936 -0.15677604

encoder.2.bias f4 [32]
00000000: de89 833e 4074 b8bb db07 913d ec05 efbd
00000010: 237b 1d3d aae6 b03d a138 11be a078 813e
00000020: 6eb8 813d b46f 12be b006 6ebd 3550 653e
00000030: 635b 7b3e 3684 5c3e 7809 2bbe dec3 f43d
00000040: c377 e33d e095 aabc 24ad 80bd fb08 27be
00000050: 8481 243c bea3 74bd 26ad e13d eefb 3bbe
00000060: c7bb 773e f880 de3c 848e 67be 80e9 2a3e
00000070: dcbb a7bd 36ee 65be 3033 6dbe 0c1e 9dbd
0.25691122 -0.0056290925 0.070815764 -0.116710514 0.03844751 0.08637746 -0.14181758 0.25287342
0.06334005 -0.14300424 -0.058111846 0.22393878 0.2454658 0.2153481 -0.16702831 0.11951421
0.11106827 -0.02082342 -0.06283024 -0.1631202 0.010040645 -0.05972647 0.110193536 -0.18357822
0.24192725 0.027161106 -0.22612959 0.16690636 -0.08190128 -0.22454152 -0.23164058 -0.076717466

decoder.0.weight f4 [32, 16, 3, 3]
00000000: f0b8 8abc 8edb 843b e62b 31bd b040 a03b
00000010: f873 b1bd 8ac4 57bd d434 8dbd 5516 ed3b
00000020: 2bd4 7bbd 8493 e4bc 5e47 ebbc 16fe 5abd
00000030: 2a1b 813d db0c ce3d 9834 2a3d a3b5 343d
00000040: 219d 853d 1aa8 af3d 3fb3 19bd f066 99bd
00000050: d413 99bb 434d 84bd 0ce6 d2bc 51db 9a3d
00000060: 0838 38bd 548f b93c 2453 99bc fe92 2bbd
00000070: 7076 06bd e612 6c3d 16eb 1abd 621b a8bd
00000080: 9478 cb3c b238 3a3c c0a2 6abc 10d6 c43a
00000090: 9c31 c03c c088 5bbd 7c23 89bd 313c 8f3d
000000a0: e3f1 4bbd cc5f 8abc 8cce b2bc 06d9 bdbc
000000b0: a364 9dbd 42a4 02bc 78d9 ab3c 03a3 6c3d
000000c0: 1248 4c3d 61ed 3fbd ba14 9bbd f49d 59bd
000000d0: 10c5 463b 6edf 6e3d eb36 b1bd cfa9 aabd
000000e0: 5272 f03c 089e 33bd 8740 153d f516 4a3d
000000f0: 8de5 453d 8f5e 60bd 1629 2bbc 545c fb3c
00000100: f738 63bd 7246 423d ae23 793d 811c 663d
00000110: 3ed4 973d 7f1f a1bd 1445 693d 4024 c33b
00000120: 3ed8 72bd a21b 8e3c 3026 b5bb 6810 da3c
00000130: 18f9 56bc cd56 42bb bc49 e03c a06c 913d
00000140: 10bc a53b 5f97 413d d78e 06bd 0ca3 39bd
00000150: e098 53bc aaac 0d3d aebd 3abd de71 913d
00000160: 0b64 a63c c226 c23d 96d4 12bd 90ef d13c
00000170: 279b 953b 799b ffbb 01c4 973d e938 983d
00000180: 61df a33c 7eec 73bd a5a1 653d 1cdd 4d3d
00000190: f0be 7a3d db4e 2e3d 6398 c33c 98c7 12bd
000001a0: 6a45 9bb9 99bd 43bd 7ce0 22bd 22f3 f83c
000001b0: dcb9 c0bc 2f48 a3bd 242a f93b 60b5 bb3c
000001c0: 1063 d13b 9020 85bd 134f 8d3d 92fb 663d
000001d0: 9d9f debc efb6 e23c b196 d43d 7850 b93d
000001e0: d5ef b43d 9cef 8fbd ec71 8d3c 7726 9bbb
000001f0: 194c 723d ce74 133d 03f8 a13d 5977 8c3d
00000200: bb0e 00bd c479 6cbd c7d0 4fbd 92c9 10bd
00000210: ee3c 903d a636 13ba 4a39 743b d3d7 62bd
00000220: 4291 f0bc 7aef 71bc c84c 053d d94e 973d
00000230: e783 893d 1b5a a7bd 3fc2 ccbb fa5d 7cbd
00000240: a300 a43d 7ab2 1f3d 34f3 833c b644 5a3d
00000250: 28a1 623c 5aab 603d 6206 143d fca0 b1bc
00000260: 05bb a03d b45c c03c e42c a0bc a0a7 00bb
00000270: c04e 2abc 70da 953c 4d57 983d c1f2 9d3d
00000280: 02f2 493d c041 d73c eb74 78bd 70a0 e9bc
00000290: 5071 91bd ca89 3b3d ea44 073d 0084 64bd
000002a0: 80b9 00bd 2647 dfbc 4346 9b3d 3e61 443d
000002b0: e64c 1b3d a9a5 863d 3a41 9fbd c076 55bd
000002c0: 6602 16bd 80bd b0bb b647 163d aaa6 4e3d
000002d0: 0556 973d 06a9 03bd 8e1a 273d ecca edbc
000002e0: 8867 a2bd ce22 433d 5607 a1bd 2760 a5bd
000002f0: 935e a3bd 9aa0 9fbd 0053 29bb c001 bb3b
00000300: d249 443d b6ca 7a3d da50 453d 39ae a43d
00000310: 253e 823d d3d2 66bd da54 653d 70e5 e73b
00000320: 7603 92bd 00b3 c93b 5e62 1c3d 907c a8bc
00000330: c219 433d 58f9 09bc 7bbb 4ebd 7f83 a23d
00000340: a20a 6a3d 48e5 7fbd 109f ed3b fcf3 923c
00000350: 70e4 e8bc 2943 843d 3640 793d 4691 633d
00000360: 5e06 243d 712f a73d 80ae abbc 78f3 083c
00000370: c437 c83c d85f 7a3c 1cfc a9bc c011 a63c
00000380: ee0a 26bd 065a 4cbd 6e98 65bd f84b 02bc
00000390: c6e6 7a3d dfc5 a7bd 2ed1 423d 1399 5fbd
000003a0: da44 89bd 35d3 9f3d 30af 21bd 08a8 49bd
000003b0: ca3c 4a3d 9b26 91bd 00d6 00bd e290 7f3d
000003c0: 1013 173d 315c a13d ab4c 953d c0cf 973a
000003d0: 3ccc e2bc b764 92bd 4cb5 f23c c655 593d
000003e0: 46b8 5cbd 7891 62bc bea2 72bd be7f 2ebd
000003f0: b653 53bd a0d7 9fbd 3e3e 6dbd 1ab2 013d
-0.016933888 0.0040544933 -0.043254755 0.004890524 -0.086646974 -0.05267767 -0.06894842 0.007235328
-0.061481636 -0.027902372 -0.028720554 -0.05346497 0.06304009 0.10061046 0.041554064 0.044118535
0.065241106 0.08576985 -0.037524458 -0.07490337 -0.004671553 -0.06460049 -0.02574446 0.075613625
-0.04497531 0.022651352 -0.018716402 -0.04188823 -0.032827795 0.05763521 -0.03782185 -0.08208348
0.02483777 0.011366056 -0.014321029 0.0015017409 0.023461156 -0.05359721 -0.06696221 0.069939025
-0.049791228 -0.016891383 -0.021827005 -0.023174774 -0.076852106 -0.007973732 0.02097772 0.057772648
0.04987342 -0.04685724 -0.07572313 -0.05312915 0.003032986 0.058318548 -0.08653053 -0.0833317
0.029351387 -0.043851882 0.03643849 0.0493383 0.04831462 -0.054777678 -0.010446807 0.030683674
-0.055474248 0.047430463 0.060825042 0.056179527 0.07413529 -0.078673355 0.056950644 0.005955249
-0.059288256 0.01734716 -0.005528234 0.026619151 -0.013120912 -0.0029653788 0.02737891 0.07100797
0.005057819 0.0472635 -0.032851066 -0.04532151 -0.012914866 0.034588493 -0.04559105 0.071017966
0.020311376 0.09480049 -0.03584727 0.025626928 0.0045656147 -0.007800516 0.07410432 0.0743273
0.020003976 -0.05955171 0.05606236 0.050259694 0.06121725 0.04255567 0.023876375 -0.03583488
-0.0002961562 -0.047788236 -0.039764866 0.030389372 -0.023526125 -0.07972752 0.0076039005 0.022913635
0.006389983 -0.065003514 0.06899848 0.05639226 -0.027175719 0.02767512 0.103803046 0.09048551
0.08834807 -0.07028124 0.017266236 -0.00473481 0.059154604 0.036000066 0.079086326 0.06858701
-0.031264048 -0.057733312 -0.050736215 -0.035348482 0.070428714 -0.0005615748 0.0037265592 -0.055381607
-0.02936614 -0.014766568 0.032543927 0.07388086 0.067146115 -0.08171483 -0.006248742 -0.06161306
0.08007934 0.038988568 0.01610718 0.053288184 0.013832368 0.054850914 0.0361389 -0.021683209
0.07848171 0.023481704 -0.019552656 -0.0019631162 -0.010394752 0.018292636 0.07438526 0.07712317
0.049303062 0.02627647 -0.060658377 -0.028518885 -0.07101691 0.045785703 0.033024706 -0.055789948
-0.031426907 -0.027255606 0.07581761 0.0479443 0.037915133 0.06574566 -0.07776113 -0.052115202
-0.03662338 -0.005393684 0.036689483 0.050451912 0.07389454 -0.032143615 0.04079681 -0.029027425
-0.07929903 0.047640614 -0.07862727 -0.0807498 -0.07977023 -0.07794304 -0.0025836825 0.0057069957
0.047921963 0.061228476 0.04817281 0.08041043 0.063595094 -0.0563534 0.055989124 0.0070769116
-0.07129566 0.0061553717 0.038179748 -0.020567209 0.047631986 -0.008421265 -0.050471764 0.07935237
0.057139046 -0.06247452 0.0072516277 0.017938606 -0.02842924 0.06458122 0.060852252 0.055558465
0.040045135 0.081633456 -0.020957232 0.008358829 0.024440654 0.01528164 -0.020750098 0.020272136
-0.040537767 -0.04989054 -0.05605357 -0.007952683 0.06125524 -0.08192038 0.04756277 -0.054589342
-0.067025855 0.078039564 -0.039473712 -0.049232513 0.04937438 -0.070874415 -0.031454086 0.06239403
0.036883414 0.07878912 0.07290014 0.00115823 -0.027685277 -0.07148116 0.029627465 0.053060316
-0.053886674 -0.013828628 -0.059237234 -0.042602293 -0.051593505 -0.07804799 -0.057920687 0.03166399

decoder.0.bias f4 [16]
00000000: b1d6 873d 7191 373d 54f5 7cbd 4b85 80bd
00000010: f88a 57bd 6849 3438 dfc1 593d f73a ebbb
00000020: dff1 31bd 2104 973d f6f4 bfbc abac fd3c
00000030: 3d4a 0dbd 08f4 f93c 1243 493d 64a0 72bc
0.06632746 0.044816438 -0.0617574 -0.062754236 -0.052622765 4.298371e-05 0.053163406 -0.00717866
-0.043443557 0.073738344 -0.023432236 0.030966124 -0.034494627 0.030511871 0.04913623 -0.014808748

decoder.2.weight f4 [16, 1, 3, 3]
00000000: 8321 633e 88ee 1d3d c424 90bd 269d 7fbe
00000010: 16a2 9b3e e38e a13e 02fa 463c a43f 8c3e
00000020: 17ce 95bd c79a 5e3e 5cbd 87be 8193 c9bd
00000030: 13e1 91be 9897 b7bb 92b3 8bbd 5467 bbbd
00000040: e466 01be 762b ce3c a8d8 733e 0657 983e
00000050: 7770 9ebb a79a 413d 4753 1f3d ba03 b1be
00000060: e629 46be 31e5 ae3c 9eff 193e da33 eabd
00000070: dbba 08be ca8c 6d3e 9a47 033e 2983 8dbd
00000080: bedc a13e 4441 b93d 4620 9b3e 2794 55be
00000090: 3bc2 4fbe 0b57 a9be de0d 573e 047b fc3d
000000a0: 789b 5bbe f0b9 8d3c d0b6 bd3c 36e4 0fbe
000000b0: d844 29bd 7c19 b23d 8c07 9dbe 41cf c73a
000000c0: 86fd 11be 5c68 4d3e eaa6 b03d 4379 9a3e
000000d0: e638 a7bd dcba c7bd ed15 033c 858c c93d
000000e0: 38f8 55be 7823 3f3e 7a85 2abd e59c 6a3e
000000f0: 5944 97be d455 e53d 67b7 1d3d c90b afbe
00000100: c74a b53d 7cd2 a4bd 083d a53d 6641 05bd
00000110: 3152 0b3e a827 a5be 5e8f c2bd 4718 7bbe
00000120: 6907 92be 4ff1 a7bd 9700 893d cf76 5b3e
00000130: 2c44 84be 9824 203e cc5e a0bd 6791 84be
00000140: 06f1 ca3c ffaf 8bbe aed8 49be 8b83 8bbe
00000150: 1de3 113e 8f70 e0bd 15d3 7fbd 4255 933d
00000160: ceb2 a6bd e812 f33d c865 683d e57f ecbd
00000170: 4db1 96be f74c 5abe 5400 3abe 505e 48bd
00000180: 80cb 753e de14 323e 7ae1 a03c bd1d 0d3d
00000190: 849c a13e 4748 743d f98e 7b3e 3296 e0bd
000001a0: a992 73be a235 093e 3d0b 3cbe e42a 04be
000001b0: b976 a73d 2ac4 a73e 6e1f 60be 00af a03e
000001c0: 938d 81be 27d7 0b3e 25e2 72bd ebb1 56be
000001d0: 8cab 833e 4934 34bd 01eb 3c3d 56ac bebd
000001e0: 78c4 083e 2a5a 5cbe 46bb 69be a99f 8fbe
000001f0: 235c a93d c31e 563e cd82 99bd 319e 1fbc
00000200: d4c7 f6bd 367f e3bd 3729 09bd 7f3b 8fbe
00000210: 3e46 7bbe c60d 4bbd 90dd 41bd 9461 d93d
00000220: 03ba 983e d335 9cbe c602 443e dc8d 9a3e
00000230: aa81 19bd e9e8 10be d6a0 f33d c005 2fbd
0.22180752 0.03855756 -0.070382625 -0.24962291 0.303971 0.31554326 0.012144567 0.27392304
-0.07314699 0.2173873 -0.26511657 -0.09842587 -0.2849203 -0.005602788 -0.0682136 -0.09150568
-0.12636906 0.025167208 0.23813117 0.29753894 -0.004835184 0.04726663 0.03889778 -0.34573156
-0.1935192 0.021349521 0.15038916 -0.11435671 -0.1335253 0.23198238 0.12820283 -0.069097824
0.31613725 0.090456516 0.3029806 -0.20857297 -0.20288937 -0.3307422 0.21001384 0.12328151
-0.21446025 0.017300576 0.02315846 -0.140519 -0.04132542 0.08696267 -0.3066982 0.0015244262
-0.14256868 0.20059341 0.08625586 0.3017064 -0.081651494 -0.097524375 0.008000833 0.09841255
-0.20895469 0.18665874 -0.0416312 0.22911413 -0.29544333 0.11198011 0.038504984 -0.3418868
0.08852153 -0.08047959 0.080682814 -0.032533072 0.13605572 -0.32256818 -0.09500001 -0.2452098
-0.28521279 -0.08200323 0.06689566 0.2143204 -0.2583326 0.1563896 -0.07830581 -0.25892183
0.024773132 -0.27282712 -0.19711563 -0.27248797 0.14246793 -0.10958969 -0.062457163 0.07193996
-0.08139573 0.118688405 0.05673769 -0.115478314 -0.29432145 -0.21318422 -0.18164188 -0.04891807
0.2400341 0.17390773 0.019638766 0.03445219 0.31564724 0.05963924 0.24566258 -0.109661475
-0.23786415 0.13399366 -0.18363662 -0.12906986 0.081769414 0.3276685 -0.2188699 0.31383514
-0.25303325 0.13656293 -0.0592977 -0.20966308 0.25716817 -0.043995176 0.046122555 -0.09310214
0.13356197 -0.2151877 -0.22825345 -0.280515 0.08269527 0.20910172 -0.074956514 -0.009742306
-0.12049833 -0.11108248 -0.03348657 -0.2797508 -0.24538514 -0.049573682 -0.04733044 0.10614315
0.29829416 -0.30509815 0.19141683 0.30186355 -0.037477173 -0.14151348 0.118959114 -0.042730093
