checkpoints/epoch_4.pth (torch, 24320 bytes, 7 tensors)

encoder.0.weight f4 [16, 1, 1, 1]
00000000: 3c0c b03e c099 353d b059 bc3e 00a9 cd3e
00000010: d873 37bf 4e2a c8be 06a1 34bf b001 26bf
00000020: 79b3 bb3d 9725 843e 8038 7ebf 8ce1 a53e
00000030: c2c3 ebbd 8a15 bdbe 7db2 6abd 07d6 da3e
0.34384334 0.04433608 0.36787176 0.40168 -0.7166114 -0.39094776 -0.705582 -0.64846325
0.09165091 0.2580993 -0.9930496 0.3239864 -0.11511947 -0.36930496 -0.057299126 0.42741415

encoder.0.bias f4 [16]
00000000: 108d 5dbf cc69 dfbe 78f1 bbbe d9fb 983e
00000010: b647 253f 4348 c73e 4a08 173f cde6 5e3d
00000020: 7e87 203f 7b42 353f 084c 94be a24c 223f
00000030: fe1e 6b3f 7bba be3e 620e 143f 43e5 4ebd
-0.8654337 -0.43635404 -0.36707664 0.29879645 0.6456255 0.3892232 0.58997023 0.054419328
0.62706745 0.70804566 -0.28964257 0.6339818 0.91844165 0.37251648 0.57834446 -0.05051161

encoder.2.weight f4 [32, 16, 1, 1]
00000000: d04f 73be 98f7 083e 00c6 4c3d f82e 053e
00000010: 0060 a3bc 483b 16bd 6cc0 593e e62a 5a3e
00000020: fc8a e1bd 9847 6bbe 60d8 fe3c 2e5e 1bbe
00000030: 00e2 f2bb a8bf 0dbd 8883 293e d02f 193d
00000040: 6086 a93d 5c88 12be 0ef6 77be 88b7 2f3e
00000050: 8c50 173e b65c 22be 58c5 0ebd d051 60bd
00000060: a9e6 b23d 1e92 dbbd 26ff 143e 0286 103d
00000070: 630e eabb 8b14 f6bd fe16 51be 35a8 4d3c
00000080: a075 f03d 3e72 6e3e 28c3 c2bd 2c60 2dbe
00000090: b892 f4bd 4418 fe3d c075 dc3c aca6 d1bd
000000a0: 48f8 56be c812 f1bd 009e 3cbc 5c3d 82bd
000000b0: dc7b 5d3e 6038 50bd 284f 72bd a090 3bbe
000000c0: f089 e8bd 70da d13c 3ad7 41be 23a0 2f3e
000000d0: 717a 75be d470 f93d d9ec a53d c065 943d
000000e0: 1eab 3d3e c8da 0abc a802 e33d 2412 d33c
000000f0: a79d 2cbe 9c3d b43d 611f 393e ebc8 b93d
00000100: 28f6 7abe 90f6 2bbd 8893 38be 6124 663e
00000110: 01e6 9ebd f690 0b3e be30 38bb 224e 1c3e
00000120: bcb7 833e e791 203e d685 4bbe 8813 1dbe
00000130: 2de8 5ebe 6401 ab3d cf3a 63be b9ab 9a3d
00000140: e8ad 153e 263c 303e 188c aa3d acd1 653e
00000150: 46ff 3abe ec70 e93d bc51 90bd 98e6 1f3e
00000160: 0033 8dbd 0029 9d3c 4267 2dbe 800e 8fbd
00000170: 5a34 153e ccb1 62be 884f b7bd 8803 6cbd
00000180: 10ca 93bc 18c4 0e3d 9813 7cbd c033 763e
00000190: acbc b8bd be25 4d3e 5c68 dd3d d817 cb3d
000001a0: 2261 0fbe 6ac4 70be 8022 a53d 02be 51be
000001b0: 6056 3d3d 42b4 6abe 3a3c 6abe 4c8c 82bd
000001c0: 2c68 093e 3818 0f3e 00ee edba 8376 aebc
000001d0: ecd7 a23c f399 9e3d d3d4 b63c 2920 3ebd
000001e0: ea3b 3c3e 1e53 b4bd 948f 723e b80d 073e
000001f0: 4aa0 33bd 0b1e 2f3e 92a9 00be d5cf 4c3d
00000200: c6e7 643e 8e4c 133e b484 54be e02c abbd
00000210: ceff 123e 2477 673e 0e19 b03d 3996 c7bd
00000220: 7f6e 14be 5599 81be 305a 0a3d dc16 58be
00000230: f5e1 533e 6767 f23d 1fcc 5f3e 58fc 23be
00000240: a8e1 37bd 9ce0 153e 3897 debd 04c6 5b3e
00000250: 8856 febd 521f 453e 280d 4a3e 5f7f 093c
00000260: 151b 45be cd5a 2c3e 60fb 4b3e c356 2c3e
00000270: 1b98 34be 2aeb 6ebd 3ba0 da3d ba98 1fbe
00000280: c806 e13d d052 f13d 2a99 193e e2dc 373e
00000290: 1d19 c03b 2a85 4fbe 9e22 0d3e 78d5 2cbe
000002a0: 2772 46be dc84 143d ec9c 36be be7c 6f3e
000002b0: cd5f 5a3e 8fb3 b3bd 9606 e6bd 5b22 2dbe
000002c0: e845 da3d 586b 26be 0c64 c43d 9ec1 093e
000002d0: 595d 64bd 3d14 13be 849e fa3c aae7 03be
000002e0: 33c0 afbc aeac 41be 40cf 95bd 3a1e dabd
000002f0: c7c1 473e 1471 9dbc 4035 56be 88aa 3ebe
00000300: d046 ad3d 0000 5f37 5872 a43d 7242 463e
00000310: d458 bd3d 340a d3bd 1a75 4d3e 2089 31be
00000320: eabb 99bc 65ba 293e f462 3e3e fce2 13bb
00000330: ed42 c7bd 9631 063d f0d8 823e 3e28 35be
00000340: 3ca3 78be 2aa9 3fbe bcf5 cd3d c997 7b3d
00000350: fcf2 77be a4d5 593d 3af4 81bd 11e4 54be
00000360: 6a2a 35be 2196 733e 60d7 033d 7b54 0f3e
00000370: 2c41 4c3d 0565 5d3c 8d61 d0bc 9573 2cbe
00000380: e2d7 243e 40ea f93b 043a 8d3d ba21 12be
00000390: 5257 e73d 3511 463e a7c4 08bd 2057 833d
000003a0: 0509 4a3d d109 1dbe e26f 073e 0210 67bd
000003b0: d199 ad3d 8783 ba3d 7bb7 22be 1779 91bd
000003c0: 70da 983d 08a3 28bd 5c7a d43d 40e3 4dbd
000003d0: 4c9b 903d fa4c 09be fc61 c9bd f0b7 583e
000003e0: bce5 49be 5822 a73d e6fb 41be 32ea 4fbe
000003f0: ec4e 843d bc3d f9bd e060 183c 1e79 22be
-0.23760915 0.133757 0.049993515 0.13006198 -0.019943237 -0.03667763 0.2126481 0.21305427
-0.11012837 -0.2297653 0.031109035 -0.15172645 -0.007412195 -0.034606606 0.16554081 0.037399113
0.08277583 -0.1430983 -0.24214956 0.17159855 0.1477682 -0.15855679 -0.03485617 -0.054765522
0.08735401 -0.10721229 0.14550456 0.03528405 -0.0071428283 -0.12015637 -0.20418927 0.012552311
0.11741185 0.23285767 -0.09509879 -0.16931218 -0.11942047 0.12406972 0.026911616 -0.10236868
-0.2099315 -0.1177116 -0.0115122795 -0.063593596 0.2162928 -0.050835013 -0.05915752 -0.18316889
-0.113544345 0.025616854 -0.18929759 0.17150931 -0.23972489 0.121797234 0.08101816 0.0724597
0.18522307 -0.008475013 0.11084491 0.025765486 -0.16857015 0.088008136 0.18078376 0.09071525
-0.24507964 -0.041983187 -0.18025029 0.22474815 -0.077587135 0.13629517 -0.0028105224 0.1526418
0.25726116 0.15680657 -0.19875273 -0.15339482 -0.21768256 0.083498746 -0.22190402 0.07552285
0.14617121 0.17210445 0.08327502 0.22443265 -0.18261442 0.11398491 -0.070468396 0.15615308
-0.06894493 0.01918459 -0.16933921 -0.069851875 0.14570752 -0.22138137 -0.08950716 -0.057620555
-0.018040687 0.03485498 -0.061542124 0.24043179 -0.09020361 0.20033929 0.108109206 0.09916657
-0.14001897 -0.23512426 0.08063221 -0.20482638 0.04622495 -0.22920325 -0.22874537 -0.06374416
0.13418645 0.13974082 -0.0018152595 -0.021296745 0.01987835 0.07744207 0.02231828 -0.04641739
0.1838223 -0.08804916 0.23687583 0.13188827 -0.043854035 0.17101304 -0.12564686 0.05000289
0.2235404 0.14384672 -0.20753747 -0.083581686 0.14355394 0.22604042 0.08598529 -0.097454496
-0.14495276 -0.25312296 0.033777416 -0.2110247 0.20691665 0.11836129 0.2185521 -0.1601423
-0.044892937 0.14636463 -0.108686864 0.21462256 -0.12418848 0.19250229 0.19731581 0.008392184
-0.19248612 0.16831513 0.1992011 0.16829972 -0.17636149 -0.05832974 0.10675093 -0.15585604
0.109876215 0.11783373 0.14999834 0.17955354 0.0058623687 -0.20265642 0.13782737 -0.16878307
-0.19379483 0.036259517 -0.17833298 0.23387429 0.21325608 -0.087744825 -0.11231725 -0.16907637
0.10657865 -0.16251886 0.09589395 0.13452765 -0.055753086 -0.14363189 0.030593164 -0.12881342
-0.021453952 -0.18913528 -0.073149204 -0.106502965 0.19507514 -0.019218959 -0.20918751 -0.1861974
0.08460772 1.3291836e-05 0.08029622 0.19361284 0.09245458 -0.103046805 0.20064202 -0.17337465
-0.018766362 0.1657501 0.18592435 -0.0022565713 -0.09729562 0.032762133 0.25556135 -0.17691132
-0.24281019 -0.18716875 0.10056636 0.06142405 -0.24213785 0.05318226 -0.06345411 -0.20790125
-0.17691961 0.23787738 0.03218782 0.1399707 0.04986684 0.013512854 -0.02543714 -0.16840966
0.16097978 0.0076268017 0.06895831 -0.14270678 0.11295952 0.19342501 -0.033390667 0.06413102
0.049325008 -0.15335776 0.13226274 -0.05641175 0.08476604 0.09107118 -0.15890305 -0.07103174
0.07463539 -0.041171104 0.10374901 -0.05026555 0.070608705 -0.1340827 -0.09833142 0.21163917
-0.19716543 0.081608474 -0.18943748 -0.20304182 0.06460366 -0.12169978 0.009300441 -0.15866515

encoder.2.bias f4 [32]
00000000: 847b edbd fc85 1dbb 8089 2cbd 10a3 403e
00000010: 8792 3a3e c05c 49be 31a4 093e fbaa 1c3e
00000020: b7b3 aa3d d576 2fbc 885c e6bd 2a01 773e
00000030: e293 30bd df9c 2d3a 6c34 a23d 0c5d 75be
00000040: 2cf2 d8bd 2ef9 7abe 3ea9 803e b89c b83d
00000050: c70b 413e e42b 193d 624e 273e de3d 27be
00000060: 313c 48be 2b93 ef3d 297d e13d 73ba 433c
00000070: 8039 123e 6643 f83d 01a2 813d f7b6 09be
-0.11595824 -0.002403616 -0.042123318 0.18812203 0.18219958 -0.19664288 0.1344154 0.15299599
0.08335059 -0.010709484 -0.11248118 0.24121538 -0.043109782 0.0006622802 0.07920155 -0.23961276
-0.105930656 -0.24509117 0.25129122 0.09014267 0.18852149 0.037395373 0.16338494 -0.16332194
-0.19554211 0.11697992 0.110102005 0.011946308 0.14279747 0.1212223 0.06329728 -0.13448702

decoder.0.weight f4 [32, 16, 3, 3]
00000000: 384b 93bd 40f4 463c 6830 29bd b046 eb3c
00000010: 3a02 573d 601f 66bc 086f 57bd b8e6 4b3c
00000020: 69e2 803d 3a23 113d 4013 ffbb 68ff 453c
00000030: 20a2 77bc 36bf 273d 3f91 8abd 6c58 d53c
00000040: c6f3 363d 937b 973d 8e36 6cbd 5313 8bbd
00000050: 8035 3dbd 86bc 6d3d e69f d1bc 49ae 813d
00000060: 7701 863d 2bd3 05bd a064 a6bd 602c 4fbb
00000070: 001f 393c 5e50 673d 8774 9cbd 1897 183d
00000080: 4808 51bd f0f6 c2bc 0c97 a2bd 12f2 523d
00000090: 0bf5 18bd 3bb8 40bd 4bf5 62bd f6ba 7f3d
000000a0: b8e7 71bd 4d57 983d 9221 2b3d 5a04 453d
000000b0: 40a8 203c 6e77 29bd 1333 893d 0050 8237
000000c0: 4252 3a3d ec8c 8dbc 288b 10bc 380d 763c
000000d0: 8ce0 893c fcca 903c f85e 683c 662c 143d
000000e0: ee8f 82bd 5075 973c a41e 81bd f8d6 1d3d
000000f0: fa97 123d 22ed 463d d19f 843d 4e4a 683d
00000100: 00ab 833b 7030 9a3c a6a7 233d 005e 2b3b
00000110: da57 a7bd 42f3 463d 664d 603d 3e5c 773d
00000120: 10c0 ee3c 5cfd 9c3c c089 77bc ce7b 123d
00000130: 4247 a5bd afe8 98bd 5c4c ebbc 9b07 51bd
00000140: 8c9f dfbc 71f4 853d 6682 3cbd 635c 08bd
00000150: f2de 663d fa98 543d 7281 413d be74 4ebd
00000160: f068 b7bb a211 aabd e62b 11bd c09f ebba
00000170: a016 aa3c 30bb 68bd b701 a5bd 80c8 433c
00000180: 105e 66bd 40ea f13b c45b a9bd 32f3 263d
00000190: 2220 443d 48dd 1bbc 6aae 96bd bbc8 21bd
000001a0: 70b1 db3b 10cf f0bb cd5c 9b3d 145b 9bbc
000001b0: 241c a5bd 0a93 a4bd 7005 b7bc 26e7 733d
000001c0: 70e1 88bc e835 40bd 209a 003b e2bd 403d
000001d0: 40eb abba 4676 2ebd 74fa 98bc aa2b 90bd
000001e0: 80f1 e13c b864 5fbd 3d97 893d 026c 4d3d
000001f0: f2d0 6c3d 6e07 5c3d e0ed e5bc 0621 99bd
00000200: 81d4 a73d 50c6 d13b ffb7 853d 7afb 5d3d
00000210: eede 81bd 80bb 0b3b e240 173d 0ad6 313d
00000220: e032 413c f020 a7bd 50a9 fd3b 851f 953d
00000230: d0d1 cabb 3968 923d e2e8 3c3d 3ba3 87bd
00000240: 384b 32bd d02b c63b 83ae 94bd 26a4 d8bc
00000250: a327 6bbd 532a 64bd 3260 7b3d d029 e5bb
00000260: b966 8e3d ca0a 4b3d a204 773d f281 423c
00000270: b53b 8cbd d0e3 b7bb f049 71bd c404 69bd
00000280: f263 563d bf51 92ba 4fec 73bd 6b56 5c3c
00000290: fad6 88bd b571 4fbd 06f5 06bc c517 473d
000002a0: a459 6fbd b964 8ebd 2507 673d 3334 13bd
000002b0: da2f 473d 00a5 c9bb 83a3 91bc 530b 403d
000002c0: 5a54 60bb 00c0 613c 9aaa 21bd 9ee4 3bbd
000002d0: 39c3 693c fc24 8c3d 452c 9dba 8e35 173d
000002e0: 97b6 f43b b07c efbc 00c0 8b3d e57a 7d3d
000002f0: 0fa4 62bd 16a5 e3bc 1f73 b9bc 6ca9 873d
00000300: 135b 22bd 573c ab3d 04c2 84bd bbda 263c
00000310: b3dd 81bc c5fc a53c 9600 743d 8a2a 423d
00000320: e874 2c3c 58d2 113d 8a1e 623d b806 72bd
00000330: db25 a83d 08ac 293d f098 f5bc 758a 8f3d
00000340: 6a62 9bbd c44e 86bc 6b55 44bd 0890 673c
00000350: 6030 793b f29c 463d 400c 803b a481 a9bd
00000360: 1a05 393d 7706 9a3d 5d34 983d 0ec3 9a3d
00000370: 3069 b2bc c37a 1f3d 30f6 fabb f9ef 3e3d
00000380: 90bf e13c aa23 2a3d 3371 62bd 2049 22bb
00000390: 40ec e2bc 1c62 88bd 1463 98bc e346 21bd
000003a0: 38f1 8d3b ce91 703d e844 6fbc 0c72 7bbd
000003b0: 84f7 d33c d491 fe3c f5cc 17bd 02a8 233d
000003c0: 104d c43b 39a0 4bbd 60cc ab3c c6a4 863d
000003d0: a0f7 86bd 7981 393d afb0 893d 3452 843d
000003e0: 178b 8dbd 339a e73b 6536 8abd d99d c63c
000003f0: aadb 383d 0e6d 4c3d 0095 9fbc 12e3 8f3c
-0.07192081 0.012143195 -0.04130593 0.02872023 0.052492358 -0.014045566 -0.052596122 0.012445144
0.06293184 0.035433985 -0.007784277 0.012084819 -0.015114337 0.040953837 -0.06765985 0.02604314
0.044666074 0.07396617 -0.057669215 -0.06790795 -0.0461936 0.058041118 -0.02558894 0.063320704
0.06543248 -0.03267209 -0.081246614 -0.0031612143 0.011298895 0.05647313 -0.07639413 0.03725347
-0.05103329 -0.02379939 -0.07938966 0.051500387 -0.037343066 -0.047050696 -0.05540971 0.06243416
-0.059058875 0.07438526 0.041780062 0.048099853 0.009805739 -0.041373663 0.06699195 1.553446e-05
0.045488603 -0.01727911 -0.00882224 0.0150178 0.016830705 0.017674915 0.014182799 0.036175154
-0.06375109 0.018488556 -0.06304672 0.03853509 0.035789467 0.04856599 0.06475795 0.056711487
0.0040181875 0.018821925 0.039954804 0.0026148558 -0.08171053 0.048571832 0.054761313 0.060390703
0.029144317 0.01916378 -0.015108526 0.0357626 -0.08070232 -0.07466256 -0.028722934 -0.051032644
-0.027297758 0.06540764 -0.046022795 -0.03329123 0.05636496 0.051903702 0.04724259 -0.050404303
-0.0055972263 -0.083041444 -0.035442255 -0.0017976686 0.020762742 -0.05681914 -0.08056968 0.011949658
-0.05624205 0.007382661 -0.08269456 0.040759273 0.047882207 -0.009513207 -0.073574856 -0.039498072
0.006704502 -0.0073489025 0.0758606 -0.018964328 -0.08062008 -0.08035858 -0.02234146 0.059546612
-0.01670906 -0.04692641 0.0019623116 0.047056086 -0.0013116375 -0.042593263 -0.018674113 -0.07039578
0.027580976 -0.054539412 0.067182995 0.050151832 0.057816453 0.053718023 -0.02806753 -0.07477002
0.08194829 0.0064018145 0.06529235 0.054194905 -0.063413486 0.0021321476 0.03692711 0.043417014
0.011791915 -0.08160579 0.007741131 0.072814025 -0.0061895624 0.07148785 0.04612053 -0.066229306
-0.043528765 0.0060477033 -0.07259848 -0.02644546 -0.057410847 -0.055704426 0.061371036 -0.00699351
0.069531865 0.049570836 0.060307153 0.011871802 -0.06847326 -0.005611874 -0.058908403 -0.05688931
0.05234141 -0.0011163278 -0.059551533 0.013448338 -0.066816285 -0.05064555 -0.008237129 0.048606653
-0.058435097 -0.06952805 0.056403298 -0.035938453 0.04862962 -0.0061537027 -0.017778164 0.0468858
-0.0034229965 0.0137786865 -0.03946934 -0.045872323 0.014267736 0.06842992 -0.0011991343 0.036916308
0.0074680555 -0.02923426 0.068237305 0.06188478 -0.05533224 -0.02778868 -0.022637902 0.066241115
-0.039637636 0.08361118 -0.06482318 0.010183985 -0.015852785 0.020262131 0.05957087 0.04740385
0.0105259195 0.03560099 0.055204906 -0.05908844 0.08210345 0.041423827 -0.029980153 0.070088305
-0.0758713 -0.01639498 -0.047933023 0.014133461 0.0038023219 0.04848952 0.0039077103 -0.0827668
0.04517088 0.07520764 0.074318625 0.07556735 -0.021778673 0.038935434 -0.0076587424 0.046615575
0.027557164 0.04153792 -0.055283736 -0.0024762824 -0.027700543 -0.06659338 -0.018601932 -0.039374243
0.004331734 0.0587328 -0.014603831 -0.06138806 0.02587486 0.031075396 -0.037060697 0.039955147
0.005990632 -0.049713347 0.020971477 0.06574397 -0.065901995 0.04528949 0.06723153 0.064609915
-0.06911295 0.0070679425 -0.06748656 0.02424519 0.045131363 0.04990869 -0.019480228 0.01756433

decoder.0.bias f4 [16]
00000000: 20e0 f4bc e080 87bc f0b7 e83c 881f ba3d
00000010: 47f1 4dbd b92b 7b3d f32e 58bd 1953 99bd
00000020: acc7 053b 46d3 c0bc 262f 4b3d 0140 b83d
00000030: 7b41 8abd d565 9c3d 7699 09bd 02dc 8cbd
-0.029892027 -0.016540945 0.02840802 0.09088045 -0.050278928 0.061320994 -0.05277915 -0.07486553
0.0020413203 -0.023538243 0.04960551 0.08996583 -0.06750771 0.076366104 -0.033593617 -0.06877901

decoder.2.weight f4 [16, 1, 3, 3]
00000000: fca2 de3d 5059 0d3e f43d 92bd 6814 5cbd
00000010: 4c27 c4bd 9012 b6bd c067 bc3c fb1c 09be
00000020: 3091 d53d 1918 97be 011b 2cbe 492f 103e
00000030: 0060 6b3e 56d1 a93d 930e 98bc 0c6d 843e
00000040: 1f0f e83d 90f5 a93d 710d 61be aa97 923e
00000050: e608 97bc cb56 7d3e 6d7a bd3d 8eb7 383e
00000060: 4f90 50be 0a04 a2be 5839 103e 4c38 e5bd
00000070: a6aa 5c3e da39 96be d210 493e 23c7 07be
00000080: f714 8fbe 5e3d 8fbe c7a7 90be c209 1f3e
00000090: 7adc 7fbd 71a6 47bd 472f 9d3e d169 943e
000000a0: 2c1f 45be 7394 b63d 039b 3dbe 081e ce3c
000000b0: a890 b93d ade9 1abe a7c4 53be 4804 833d
000000c0: 7fd3 9bbe 848d 95bd b10e 4c3d 4395 4b3d
000000d0: 213c 393e ccd8 93be 520e 353e aeda 713e
000000e0: b978 8c3e e059 3e3c 2e55 363e ce02 543e
000000f0: b300 8cbe 60c1 65bd a068 433d daba 3f3e
00000100: 3401 89be 318e a4be 3dbb a63e 658e 45be
00000110: ca9e 36bd 9239 a43e c12f 42be a62d a73e
00000120: 63ad 77bc cf01 91be 1bec a03e e89a a63e
00000130: b3e0 87be 545a 37be b51b 08be c00d 9a3e
00000140: 86b1 bdbd 32fb a7be 6d47 74be 159b e9bd
00000150: 45d5 abbe 1e54 9abe 4928 a4be e296 72be
00000160: d819 a8be 5cf9 f33b 47e6 debd 56c9 a33e
00000170: ffdd 8bbe 0780 35be 385e 68be 3632 41be
00000180: 5fff 63be cec7 04be ed9c b5bd 30d9 57be
00000190: 6976 98be 1cd7 6f3e eb40 bc3d 1dfc 023c
000001a0: ec29 a03e 1596 73bd 3106 7fbe a2d0 81be
000001b0: 130f a73e bd21 dc3c 12c4 083c 5719 563e
000001c0: ed95 59be 7352 883d 2152 253e 8497 bbbd
000001d0: d5f7 57bc e933 8e3e ff12 16be 1eb8 a7be
000001e0: 1829 10be 1827 7bbd cb31 66be 1db8 99be
000001f0: 5c3b 913e e7c8 d5bd 355e 62be 7c02 143d
00000200: 2172 5abe 2ce2 84be c9ae a43d 69ba 93be
00000210: f97b 103e 2287 43be 3996 85be b4a2 18bd
00000220: 0485 063e 2374 abbc 01d7 92be b668 843d
00000230: ca5f ee3d 47c8 fe3d 60e3 42be b4be 8d3e
0.108709306 0.13803601 -0.07140723 -0.0537304 -0.09577808 -0.08890259 0.02299869 -0.13389961
0.10428083 -0.29510573 -0.16807176 0.14080538 0.2298584 0.08291881 -0.018561637 0.25864446
0.11331009 0.082987905 -0.21977784 0.28631335 -0.01843686 0.2474014 0.092518665 0.1803877
-0.2036755 -0.31643707 0.14084375 -0.111923784 0.21549472 -0.29341012 0.19635323 -0.13259558
-0.27945682 -0.27976507 -0.28253004 0.15531066 -0.062466122 -0.048742715 0.30700132 0.28986982
-0.19250172 0.08915033 -0.18516164 0.025160804 0.09060794 -0.15128203 -0.20680486 0.06397301
-0.30434796 -0.073023826 0.0498187 0.049702894 0.18089344 -0.2887634 0.17681244 0.23618576
0.27435854 0.011618108 0.17805931 0.20704195 -0.27344283 -0.05609262 0.0477072 0.18723622
-0.2675873 -0.32139733 0.32564726 -0.192926 -0.044585027 0.32075173 -0.18963529 0.32652014
-0.015117022 -0.28321692 0.31430134 0.3254006 -0.2653862 -0.17905551 -0.1329182 0.30088615
-0.092623755 -0.32808834 -0.23855372 -0.11406533 -0.3356115 -0.301423 -0.32061985 -0.2369037
-0.32832217 0.0074454974 -0.10883766 0.31989545 -0.27317807 -0.1772462 -0.22692192 -0.1886681
-0.22265385 -0.12966844 -0.08867822 -0.21078944 -0.2977784 0.23421901 0.091920696 0.007994679
0.31281984 -0.0594693 -0.24904706 -0.25354487 0.32628688 0.026871556 0.008347528 0.20908104
-0.21248598 0.06656351 0.16144611 -0.09159759 -0.013181646 0.2777398 -0.14655684 -0.32757658
-0.14078176 -0.06131658 -0.22479932 -0.3002328 0.283656 -0.1043871 -0.2210625 0.03613518
-0.21332599 -0.25953805 0.0804115 -0.28853157 0.14109792 -0.19094518 -0.26091173 -0.03726454
0.13136679 -0.020929402 -0.2867966 0.064652845 0.11639364 0.124405436 -0.19032049 0.27684557
