checkpoints/epoch_1.pth (torch, 24320 bytes, 7 tensors)

encoder.0.weight f4 [16, 1, 1, 1]
000000 3c 0c b0 3e c0 99 35 3d b0 59 bc 3e 47 47 cb 3e
       0.34384334 0.04433608 0.36787176 0.39702818
000010 77 99 38 bf 58 c2 c5 be 2e d1 35 bf dd 2b 27 bf
       -0.7210917 -0.38624835 -0.7102231 -0.65301305
000020 c1 43 c5 3d 6b cc 81 3e 80 38 7e bf 34 82 a3 3e
       0.09632064 0.2535127 -0.9930496 0.31935275
000030 b6 9b f4 bd d3 2d be be 8f c8 7b bd a4 2d dd 3e
       -0.11943762 -0.37144336 -0.061470564 0.43198884

encoder.0.bias f4 [16]
000000 10 8d 5d bf cc 69 df be 78 f1 bb be 22 e4 95 3e
       -0.8654337 -0.43635404 -0.36707664 0.29275614
000010 e9 c5 23 3f 20 53 ca 3e 5f 7d 15 3f 4a 67 47 3d
       0.6397386 0.39516544 0.58394426 0.04868249
000020 1d 0a 22 3f 18 b6 33 3f 08 4c 94 be 4c d5 20 3f
       0.6329668 0.7019973 -0.28964257 0.62825465
000030 29 c8 69 3f 56 17 be 3e 18 be 12 3f 75 ea 3b bd
       0.91321045 0.3712718 0.5732131 -0.045877893

encoder.2.weight f4 [32, 16, 1, 1]
000000 d0 4f 73 be 98 f7 08 3e 00 c6 4c 3d f8 2e 05 3e
       -0.23760915 0.133757 0.049993515 0.13006198
000010 00 60 a3 bc 48 3b 16 bd 6c c0 59 3e e6 2a 5a 3e
       -0.019943237 -0.03667763 0.2126481 0.21305427
000020 fc 8a e1 bd 98 47 6b be 60 d8 fe 3c 2e 5e 1b be
       -0.11012837 -0.2297653 0.031109035 -0.15172645
000030 00 e2 f2 bb a8 bf 0d bd 88 83 29 3e d0 2f 19 3d
       -0.007412195 -0.034606606 0.16554081 0.037399113
000040 60 86 a9 3d 5c 88 12 be 0e f6 77 be 4b 08 30 3e
       0.08277583 -0.1430983 -0.24214956 0.17190664
000050 8c 50 17 3e 9d 59 22 be 58 c5 0e bd d0 51 60 bd
       0.1477682 -0.15854497 -0.03485617 -0.054765522
000060 89 93 b3 3d 86 b6 da bd 26 ff 14 3e e2 38 12 3d
       0.087683745 -0.10679345 0.14550456 0.03569878
000070 9b 45 de bb b6 10 f6 bd 3b d8 50 be af 87 50 3c
       -0.0067832 -0.12014906 -0.20394985 0.012727662
000080 a0 75 f0 3d 3e 72 6e 3e 28 c3 c2 bd 2c 60 2d be
       0.11741185 0.23285767 -0.09509879 -0.16931218
000090 b8 92 f4 bd 44 18 fe 3d c0 75 dc 3c ac a6 d1 bd
       -0.11942047 0.12406972 0.026911616 -0.10236868
0000a0 48 f8 56 be c8 12 f1 bd 00 9e 3c bc 5c 3d 82 bd
       -0.2099315 -0.1177116 -0.0115122795 -0.063593596
0000b0 dc 7b 5d 3e 60 38 50 bd 28 4f 72 bd a0 90 3b be
       0.2162928 -0.050835013 -0.05915752 -0.18316889
0000c0 f0 89 e8 bd 70 da d1 3c 3a d7 41 be e9 53 35 3e
       -0.113544345 0.025616854 -0.18929759 0.1770779
0000d0 b9 c8 6f be c1 67 02 3e 6a 50 b1 3d da d6 9f 3d
       -0.23416413 0.12734891 0.08657916 0.078046516
0000e0 7d 5b 43 3e df db 3e bb a8 02 e3 3d a0 52 00 3d
       0.19077869 -0.0029122753 0.11084491 0.031328797
0000f0 4a ec 26 be ca 9c bf 3d cb d0 3e 3e 7a 41 c2 3d
       -0.16301075 0.09356077 0.18634336 0.09485145
000100 28 f6 7a be 90 f6 2b bd 88 93 38 be d5 f3 5f 3e
       -0.24507964 -0.041983187 -0.18025029 0.21870358
000110 03 46 ab bd 03 62 05 3e f9 0c 11 bc 8a 1a 16 3e
       -0.08362963 0.1302567 -0.008853191 0.14658561
000120 1c a0 80 3e e0 61 1a 3e d6 85 4b be 98 43 23 be
       0.25122154 0.15076399 -0.19875273 -0.15943754
000130 02 18 65 be 8d a2 9e 3d ba 6a 69 be d3 58 91 3d
       -0.2237244 0.07745848 -0.22794619 0.0709702
000140 e8 ad 15 3e 26 3c 30 3e 18 8c aa 3d ac d1 65 3e
       0.14617121 0.17210445 0.08327502 0.22443265
000150 46 ff 3a be ec 70 e9 3d bc 51 90 bd 98 e6 1f 3e
       -0.18261442 0.11398491 -0.070468396 0.15615308
000160 00 33 8d bd 00 29 9d 3c 42 67 2d be 80 0e 8f bd
       -0.06894493 0.01918459 -0.16933921 -0.069851875
000170 5a 34 15 3e cc b1 62 be 88 4f b7 bd 88 03 6c bd
       0.14570752 -0.22138137 -0.08950716 -0.057620555
000180 10 ca 93 bc 18 c4 0e 3d 98 13 7c bd c0 33 76 3e
       -0.018040687 0.03485498 -0.061542124 0.24043179
000190 ac bc b8 bd be 25 4d 3e 5c 68 dd 3d d8 17 cb 3d
       -0.09020361 0.20033929 0.108109206 0.09916657
0001a0 22 61 0f be 6a c4 70 be 80 22 a5 3d 02 be 51 be
       -0.14001897 -0.23512426 0.08063221 -0.20482638
0001b0 60 56 3d 3d 42 b4 6a be 3a 3c 6a be 4c 8c 82 bd
       0.04622495 -0.22920325 -0.22874537 -0.06374416
0001c0 2c 68 09 3e 38 18 0f 3e 00 ee ed ba 7f fe 80 bc
       0.13418645 0.13974082 -0.0018152595 -0.015746353
0001d0 f1 42 d0 3c f9 ee a9 3d c3 40 e4 3c 3f 3d 27 bd
       0.025422545 0.082975335 0.027862912 -0.040829893
0001e0 41 e7 41 3e 22 f8 a8 bd 94 8f 72 3e 53 bb 0c 3e
       0.18935873 -0.082504526 0.23687583 0.13743334
0001f0 58 ed 1c bd 22 c9 34 3e 6b f9 f5 bd ea 62 5e 3d
       -0.038312286 0.17654851 -0.12010463 0.05429355
000200 c6 e7 64 3e 8e 4c 13 3e b4 84 54 be 9d df a0 bd
       0.2235404 0.14384672 -0.20753747 -0.07855151
000210 84 23 18 3e be 97 6c 3e a5 60 ba 3d 75 3a bd bd
       0.14857298 0.2310476 0.09100465 -0.092396654
000220 77 4c 0f be 29 0e 7e be 30 5a 0a 3d 2b f2 52 be
       -0.13994013 -0.24810089 0.033777416 -0.20600192
000230 67 05 59 3e 05 aa fc 3d b8 ef 64 3e 69 88 1f be
       0.21193467 0.12337116 0.2235707 -0.1557938
000240 a8 e1 37 bd 9c e0 15 3e 38 97 de bd 93 cb 55 3e
       -0.044892937 0.14636463 -0.108686864 0.20878439
000250 b1 24 05 be e7 27 3f 3e a4 13 44 3e 75 95 25 3b
       -0.13002278 0.18667565 0.19148117 0.0025266085
000260 0d 13 4b be 5b 61 26 3e 60 fb 4b 3e 3d 5d 26 3e
       -0.19831486 0.16248076 0.1992011 0.16246505
000270 2f 91 3a be f0 65 83 bd b8 ad ce 3d 2f 3e 24 be
       -0.18219446 -0.064159274 0.10091728 -0.16039346
000280 c8 06 e1 3d d0 52 f1 3d 2a 99 19 3e f7 ae 31 3e
       0.109876215 0.11783373 0.14999834 0.173519
000290 58 59 31 b9 31 b1 55 be 76 f5 06 3e af 05 33 be
       -0.00016913319 -0.20868374 0.13179573 -0.17482637
0002a0 9a 9e 4c be 6d 9f f7 3c ec 9c 36 be 68 4f 69 3e
       -0.19982377 0.030227387 -0.17833298 0.22784197
0002b0 c4 32 54 3e 6f 0c c0 bd db 60 f2 bd f2 93 31 be
       0.2072249 -0.093773715 -0.1183488 -0.17341593
0002c0 e8 45 da 3d 58 6b 26 be 0c 64 c4 3d 25 9c 04 3e
       0.10657865 -0.16251886 0.09589395 0.1295019
0002d0 02 f1 78 bd cb 39 18 be ad 77 d1 3c ba 05 09 be
       -0.060776718 -0.14865796 0.025569761 -0.13381091
0002e0 c0 ee d8 bc 21 d2 46 be 40 cf 95 bd 2f 69 e4 bd
       -0.026481032 -0.19416095 -0.073149204 -0.11152875
0002f0 6b 9c 42 3e a5 9b c6 bc 8b 5a 5b be 87 76 42 be
       0.19004981 -0.024244139 -0.21421258 -0.18990527
000300 d0 46 ad 3d 00 00 5f 37 58 72 a4 3d 3a 1e 40 3e
       0.08460772 1.3291836e-05 0.08029622 0.1876153
000310 37 12 b1 3d 91 4d df bd ba 51 47 3e 75 b2 37 be
       0.08646052 -0.109034665 0.1946477 -0.1793917
000320 36 cd ca bc 05 97 23 3e f4 62 3e 3e b0 2f 07 bc
       -0.024756055 0.15975578 0.18592435 -0.008251116
000330 05 89 d3 bd 7b 50 db 3c b3 8e 7f 3e dd cb 39 be
       -0.10328869 0.026771775 0.24956779 -0.18144174
000340 3c a3 78 be 2a a9 3f be bc f5 cd 3d b9 b0 69 3d
       -0.24281019 -0.18716875 0.10056636 0.0570533
000350 d0 67 7c be be ff 47 3d 52 dd 8a bd 7b 21 59 be
       -0.24648976 0.04882788 -0.06780495 -0.21204178
000360 a1 a2 39 be c9 1d 6f 3e 60 d7 03 3d de db 0a 3e
       -0.18128444 0.23351206 0.03218782 0.13560435
000370 70 63 3a 3d 51 11 16 3c fc 1b f4 bc 6c b5 30 be
       0.045504987 0.009159402 -0.0297985 -0.17256707
000380 e2 d7 24 3e 40 ea f9 3b 04 3a 8d 3d b1 59 18 be
       0.16097978 0.0076268017 0.06895831 -0.14877965
000390 06 e8 da 3d de d9 3f 3e 44 a3 21 bd 34 d1 6d 3d
       0.10688786 0.18735453 -0.039462343 0.05806084
0003a0 f3 2a 31 3d 95 41 23 be e2 6f 07 3e 26 ef 7f bd
       0.04325385 -0.15942986 0.13226274 -0.06248393
0003b0 86 2a a1 3d ca 14 ae 3d 21 ef 28 be 08 bc 96 bd
       0.07869439 0.08500059 -0.1649747 -0.07360083
0003c0 70 da 98 3d 08 a3 28 bd 5c 7a d4 3d 40 e3 4d bd
       0.07463539 -0.041171104 0.10374901 -0.05026555
0003d0 4c 9b 90 3d fa 4c 09 be fc 61 c9 bd f0 b7 58 3e
       0.070608705 -0.1340827 -0.09833142 0.21163917
0003e0 bc e5 49 be 58 22 a7 3d e6 fb 41 be 32 ea 4f be
       -0.19716543 0.081608474 -0.18943748 -0.20304182
0003f0 ec 4e 84 3d bc 3d f9 bd e0 60 18 3c 1e 79 22 be
       0.06460366 -0.12169978 0.009300441 -0.15866515

encoder.2.bias f4 [32]
000000 84 7b ed bd cb ab e8 3a 80 89 2c bd 68 54 46 3e
       -0.11595824 0.0017751394 -0.042123318 0.19368136
000010 d5 62 34 3e c0 5c 49 be 51 71 03 3e bd 57 22 3e
       0.17615826 -0.19664288 0.12836196 0.15853782
000020 4b f9 b4 3d 4d 81 87 bc 40 b6 f2 bd 18 e3 71 3e
       0.08836611 -0.016541148 -0.11851168 0.23621786
000030 06 1f 49 bd 38 8d 72 bb 21 c5 95 3d 0c 5d 75 be
       -0.049101852 -0.0037010442 0.0731299 -0.23961276
000040 2c f2 d8 bd 2e f9 7a be 07 28 7b 3e a5 39 ac 3d
       -0.105930656 -0.24509117 0.24526988 0.08409432
000050 6d 61 43 3e a1 9f 30 3d c5 53 21 3e 7c 6b 2d be
       0.19080134 0.043120984 0.15754612 -0.16935533
000060 85 a3 4a be 09 2a fa 3d a8 71 e3 3d 12 97 c0 3b
       -0.1978894 0.12215049 0.111056626 0.005877384
000070 cf 02 17 3e dc fa 01 3e 98 78 6b 3d 47 90 05 be
       0.14747165 0.12693352 0.057488054 -0.13043319

decoder.0.weight f4 [32, 16, 3, 3]
000000 38 4b 93 bd 40 f4 46 3c 68 30 29 bd b0 46 eb 3c
       -0.07192081 0.012143195 -0.04130593 0.02872023
000010 3a 02 57 3d 60 1f 66 bc 08 6f 57 bd b8 e6 4b 3c
       0.052492358 -0.014045566 -0.052596122 0.012445144
000020 69 e2 80 3d 3a 23 11 3d 40 13 ff bb 68 ff 45 3c
       0.06293184 0.035433985 -0.007784277 0.012084819
000030 20 a2 77 bc 36 bf 27 3d 3f 91 8a bd 6c 58 d5 3c
       -0.015114337 0.040953837 -0.06765985 0.02604314
000040 c6 f3 36 3d 93 7b 97 3d 8e 36 6c bd 53 13 8b bd
       0.044666074 0.07396617 -0.057669215 -0.06790795
000050 80 35 3d bd 86 bc 6d 3d e6 9f d1 bc 49 ae 81 3d
       -0.0461936 0.058041118 -0.02558894 0.063320704
000060 77 01 86 3d 2b d3 05 bd a0 64 a6 bd 60 2c 4f bb
       0.06543248 -0.03267209 -0.081246614 -0.0031612143
000070 00 1f 39 3c 5e 50 67 3d 87 74 9c bd 18 97 18 3d
       0.011298895 0.05647313 -0.07639413 0.03725347
000080 48 08 51 bd f0 f6 c2 bc 0c 97 a2 bd 12 f2 52 3d
       -0.05103329 -0.02379939 -0.07938966 0.051500387
000090 0b f5 18 bd 3b b8 40 bd 4b f5 62 bd f6 ba 7f 3d
       -0.037343066 -0.047050696 -0.05540971 0.06243416
0000a0 b8 e7 71 bd 4d 57 98 3d 92 21 2b 3d 5a 04 45 3d
       -0.059058875 0.07438526 0.041780062 0.048099853
0000b0 40 a8 20 3c 6e 77 29 bd 13 33 89 3d 00 50 82 37
       0.009805739 -0.041373663 0.06699195 1.553446e-05
0000c0 42 52 3a 3d ec 8c 8d bc 28 8b 10 bc 38 0d 76 3c
       0.045488603 -0.01727911 -0.00882224 0.0150178
0000d0 8c e0 89 3c fc ca 90 3c f8 5e 68 3c 66 2c 14 3d
       0.016830705 0.017674915 0.014182799 0.036175154
0000e0 ee 8f 82 bd 50 75 97 3c a4 1e 81 bd f8 d6 1d 3d
       -0.06375109 0.018488556 -0.06304672 0.03853509
0000f0 fa 97 12 3d 22 ed 46 3d d1 9f 84 3d 4e 4a 68 3d
       0.035789467 0.04856599 0.06475795 0.056711487
000100 00 ab 83 3b 70 30 9a 3c a6 a7 23 3d 00 5e 2b 3b
       0.0040181875 0.018821925 0.039954804 0.0026148558
000110 da 57 a7 bd 42 f3 46 3d 66 4d 60 3d 3e 5c 77 3d
       -0.08171053 0.048571832 0.054761313 0.060390703
000120 10 c0 ee 3c 5c fd 9c 3c c0 89 77 bc ce 7b 12 3d
       0.029144317 0.01916378 -0.015108526 0.0357626
000130 42 47 a5 bd af e8 98 bd 5c 4c eb bc 9b 07 51 bd
       -0.08070232 -0.07466256 -0.028722934 -0.051032644
000140 8c 9f df bc 71 f4 85 3d 66 82 3c bd 63 5c 08 bd
       -0.027297758 0.06540764 -0.046022795 -0.03329123
000150 f2 de 66 3d fa 98 54 3d 72 81 41 3d be 74 4e bd
       0.05636496 0.051903702 0.04724259 -0.050404303
000160 f0 68 b7 bb a2 11 aa bd e6 2b 11 bd c0 9f eb ba
       -0.0055972263 -0.083041444 -0.035442255 -0.0017976686
000170 a0 16 aa 3c 30 bb 68 bd b7 01 a5 bd 80 c8 43 3c
       0.020762742 -0.05681914 -0.08056968 0.011949658
000180 10 5e 66 bd 40 ea f1 3b c4 5b a9 bd 32 f3 26 3d
       -0.05624205 0.007382661 -0.08269456 0.040759273
000190 22 20 44 3d 48 dd 1b bc 6a ae 96 bd bb c8 21 bd
       0.047882207 -0.009513207 -0.073574856 -0.039498072
0001a0 70 b1 db 3b 10 cf f0 bb cd 5c 9b 3d 14 5b 9b bc
       0.006704502 -0.0073489025 0.0758606 -0.018964328
0001b0 24 1c a5 bd 0a 93 a4 bd 70 05 b7 bc 26 e7 73 3d
       -0.08062008 -0.08035858 -0.02234146 0.059546612
0001c0 70 e1 88 bc e8 35 40 bd 20 9a 00 3b e2 bd 40 3d
       -0.01670906 -0.04692641 0.0019623116 0.047056086
0001d0 40 eb ab ba 46 76 2e bd 74 fa 98 bc aa 2b 90 bd
       -0.0013116375 -0.042593263 -0.018674113 -0.07039578
0001e0 80 f1 e1 3c b8 64 5f bd 3d 97 89 3d 02 6c 4d 3d
       0.027580976 -0.054539412 0.067182995 0.050151832
0001f0 f2 d0 6c 3d 6e 07 5c 3d e0 ed e5 bc 06 21 99 bd
       0.057816453 0.053718023 -0.02806753 -0.07477002
000200 81 d4 a7 3d 50 c6 d1 3b ff b7 85 3d 7a fb 5d 3d
       0.08194829 0.0064018145 0.06529235 0.054194905
000210 ee de 81 bd 80 bb 0b 3b e2 40 17 3d 0a d6 31 3d
       -0.063413486 0.0021321476 0.03692711 0.043417014
000220 e0 32 41 3c f0 20 a7 bd 50 a9 fd 3b 85 1f 95 3d
       0.011791915 -0.08160579 0.007741131 0.072814025
000230 d0 d1 ca bb 39 68 92 3d e2 e8 3c 3d 3b a3 87 bd
       -0.0061895624 0.07148785 0.04612053 -0.066229306
000240 38 4b 32 bd d0 2b c6 3b 83 ae 94 bd 26 a4 d8 bc
       -0.043528765 0.0060477033 -0.07259848 -0.02644546
000250 a3 27 6b bd 53 2a 64 bd 32 60 7b 3d d0 29 e5 bb
       -0.057410847 -0.055704426 0.061371036 -0.00699351
000260 b9 66 8e 3d ca 0a 4b 3d a2 04 77 3d 10 34 63 3c
       0.069531865 0.049570836 0.060307153 0.013867393
000270 32 3b 84 bd d0 e3 b7 bb 75 1e 61 bd bb f9 5b bd
       -0.06456603 -0.005611874 -0.054960687 -0.05370496
000280 f2 63 56 3d ee 8f 17 3b 63 ed 73 bd 44 d5 61 3c
       0.05234141 0.002312656 -0.05955256 0.013783757
000290 11 d0 85 bd bb 37 41 bd a7 d9 99 bb c5 51 55 3d
       -0.06533826 -0.04717229 -0.0046951356 0.052079935
0002a0 61 e1 60 bd df b4 8d bd b1 d5 75 3d 33 34 13 bd
       -0.054902438 -0.06919264 0.060018245 -0.035938453
0002b0 92 65 3e 3d 00 a5 c9 bb b7 52 b1 bc 8e e2 2f 3d
       0.046483584 -0.0061537027 -0.021645887 0.04294067
0002c0 59 75 f1 bb 00 c0 61 3c f3 48 31 bd 9e e4 3b bd
       -0.0073687253 0.0137786865 -0.04328246 -0.045872323
0002d0 a5 c0 69 3c e7 b6 8e 3d fb bc 1d 3a 8e 35 17 3d
       0.014267121 0.069684796 0.0006017235 0.036916308
0002e0 27 bb 24 3c b0 7c ef bc 1e 34 93 3d 4b 45 86 3d
       0.010054386 -0.02923426 0.07187675 0.06556185
0002f0 ff 58 53 bd a6 a3 e3 bc e3 de c4 bc 5c 94 83 3d
       -0.051598545 -0.027787995 -0.024032062 0.06424782
000300 f9 b4 31 bd d7 81 a3 3d f6 a3 8c bd 63 a1 0f 3c
       -0.04338548 0.07983749 -0.068672106 0.008766505
000310 08 2e a1 bc 0b f0 90 3c 96 00 74 3d 8a 2a 42 3d
       -0.01967527 0.017692586 0.05957087 0.04740385
000320 e8 74 2c 3c 58 d2 11 3d 8a 1e 62 3d b8 06 72 bd
       0.0105259195 0.03560099 0.055204906 -0.05908844
000330 db 25 a8 3d 08 ac 29 3d f0 98 f5 bc 75 8a 8f 3d
       0.08210345 0.041423827 -0.029980153 0.070088305
000340 6a 62 9b bd c4 4e 86 bc 6b 55 44 bd 08 90 67 3c
       -0.0758713 -0.01639498 -0.047933023 0.014133461
000350 60 30 79 3b f2 9c 46 3d 40 0c 80 3b a4 81 a9 bd
       0.0038023219 0.04848952 0.0039077103 -0.0827668
000360 1a 05 39 3d 9d 76 97 3d 5d 34 98 3d ea e8 9b 3d
       0.04517088 0.073956706 0.074318625 0.07612784
000370 7b 7a bf bc aa 25 22 3d 30 f6 fa bb 50 8f 45 3d
       -0.023373833 0.0395867 -0.0076587424 0.048232377
000380 90 bf e1 3c aa 23 2a 3d 6a 5b 6d bd 20 49 22 bb
       0.027557164 0.04153792 -0.057948507 -0.0024762824
000390 40 ec e2 bc 6d 66 88 bd 14 63 98 bc e3 46 21 bd
       -0.027700543 -0.06660161 -0.018601932 -0.039374243
0003a0 02 ae c0 39 ce 91 70 3d e8 44 6f bc 42 fe 81 bd
       0.0003675074 0.0587328 -0.014603831 -0.06347324
0003b0 84 f7 d3 3c 13 03 de 3c 58 3b 28 bd 1a 24 13 3d
       0.02587486 0.027101075 -0.04107222 0.0359231
0003c0 10 4d c4 3b 1b 30 5b bd 60 cc ab 3c ec a4 86 3d
       0.005990632 -0.053512674 0.020971477 0.06574425
0003d0 d8 a4 89 bd 9d 93 32 3d 41 e3 83 3d 1e 85 7c 3d
       -0.067208946 0.043597806 0.064398296 0.061650388
0003e0 0b 26 94 bd ae 97 6d 3b 08 99 91 bd bd 0c a9 3c
       -0.072338186 0.0036253738 -0.071092665 0.020635957
0003f0 aa db 38 3d 0e 6d 4c 3d 00 95 9f bc 79 e6 8f 3c
       0.045131363 0.04990869 -0.019480228 0.017565953

decoder.0.bias f4 [16]
000000 20 e0 f4 bc 45 f4 33 bc 83 38 0a 3d 69 be ad 3d
       -0.029892027 -0.010983531 0.0337453 0.084835835
000010 60 36 39 bd 55 a7 62 3d f3 2e 58 bd 26 d5 8f bd
       -0.04521787 0.05533536 -0.05277915 -0.07023077
000020 e1 4e 69 3b 7c ef f1 bc 9d a1 32 3d 84 e3 ab 3d
       0.0035599994 -0.02953314 0.043611158 0.083930045
000030 25 10 7f bd 2b 25 90 3d 36 69 12 bd 14 0a 88 bd
       -0.062271256 0.07038339 -0.03574487 -0.06642547

decoder.2.weight f4 [16, 1, 3, 3]
000000 fc a2 de 3d 50 59 0d 3e f4 3d 92 bd 68 14 5c bd
       0.108709306 0.13803601 -0.07140723 -0.0537304
000010 4c 27 c4 bd 90 12 b6 bd c0 67 bc 3c fb 1c 09 be
       -0.09577808 -0.08890259 0.02299869 -0.13389961
000020 30 91 d5 3d 42 b2 94 be 87 4e 27 be 72 f8 14 3e
       0.10428083 -0.2904225 -0.1633855 0.145479
000030 88 31 70 3e f9 7a b3 3d ad 06 63 bc 1d d2 86 3e
       0.23456395 0.087636895 -0.013856572 0.2633218
000040 3c b0 f1 3d 6d 7c b3 3d 3f 8a 5c be ff df 94 3e
       0.11801192 0.08763967 -0.21537112 0.29077145
000050 3b 5a 65 bc de f3 80 3e 41 a3 c6 3d 4b 48 3d 3e
       -0.013998563 0.25186056 0.09699107 0.18484609
000060 b1 fe 4b be 2e b9 9f be a2 c5 14 3e da d1 d8 bd
       -0.19921376 -0.31195968 0.14528516 -0.10586901
000070 7e e1 62 3e 5e 1f 93 be 2e 47 4f 3e 1f 90 01 be
       0.22156331 -0.2873487 0.20241997 -0.12652634
000080 18 fa 8b be 3c 24 8c be 3f 8c 8d be 1d 3e 25 3e
       -0.27339244 -0.27371395 -0.27646062 0.16136976
000090 fa c7 68 bd c9 5d 30 bd 91 13 a0 3e 29 4c 97 3e
       -0.056831338 -0.04305819 0.31264928 0.29550293
0000a0 63 47 3f be 9f 2f c2 3d 2e d2 37 be d6 f2 fc 3c
       -0.18679576 0.09481739 -0.17951271 0.030877512
0000b0 42 11 c5 3d da ae 14 be 32 8a 4d be b4 79 8f 3d
       0.09622432 -0.14519826 -0.20072249 0.07005635
0000c0 3a b6 98 be b3 1a 89 bd 30 f8 64 3d 8f 80 64 3d
       -0.29826528 -0.066945456 0.055900753 0.055786666
0000d0 48 76 3f 3e 6f bb 90 be 52 0e 35 3e ae da 71 3e
       0.18697464 -0.28268 0.17681244 0.23618576
0000e0 b9 78 8c 3e e0 59 3e 3c 2e 55 36 3e ce 02 54 3e
       0.27435854 0.011618108 0.17805931 0.20704195
0000f0 b3 00 8c be 60 c1 65 bd a0 68 43 3d e3 a7 43 3e
       -0.27344283 -0.05609262 0.0477072 0.19107012
000100 2a 07 87 be a6 96 a2 be ec b4 a8 3e 92 9a 41 be
       -0.26372653 -0.3175556 0.32950532 -0.1890662
000110 45 de 26 bd b4 2e a6 3e 96 3a 3e be f2 24 a9 3e
       -0.040739316 0.32457507 -0.18577036 0.33036
000120 c5 9a 19 bc 1d 0a 8e be 1f db a3 3e 8e 90 a9 3e
       -0.009375279 -0.2774209 0.32003114 0.331181
000130 16 ea 84 be bb 72 31 be 00 3b 02 be 48 03 9d 3e
       -0.25959843 -0.17328922 -0.12717819 0.30666566
000140 c8 ea b1 bd 16 de a4 be 4c 0e 6e be 91 26 dd bd
       -0.08687359 -0.32200688 -0.23247641 -0.107983716
000150 3b b8 a8 be 61 37 97 be 2e 0b a1 be 51 5c 6c be
       -0.32953057 -0.29534438 -0.31453842 -0.23082091
000160 e8 fc a4 be 62 9a 5d 3c 7d 72 d2 bd 97 e5 a6 3e
       -0.32224202 0.013525577 -0.10275743 0.32597038
000170 2d c1 88 be 5e 47 2f be 94 26 62 be e8 f8 3a be
       -0.2670988 -0.17117068 -0.22085029 -0.18259013
000180 ca c5 5d be a3 1d fd bd 29 2a a9 bd 58 9e 51 be
       -0.21657482 -0.123591684 -0.082599945 -0.2047056
000190 59 59 95 be fa 11 76 3e 8c b6 c8 3d a9 90 66 3c
       -0.2916973 0.24030295 0.09800443 0.014072576
0001a0 23 47 a3 3e 72 ac 5a bd d8 cc 78 be 4b 66 7d be
       0.3189021 -0.053387113 -0.24296892 -0.24746053
0001b0 79 6c a9 3e 53 16 01 3d a3 a3 53 3c c0 ce 5a 3e
       0.3309057 0.03151543 0.012917432 0.21367931
0001c0 af d7 54 be a5 c7 91 3d ed 0a 2a 3e df 22 b2 bd
       -0.20785402 0.07118157 0.1660573 -0.086980574
0001d0 62 da 0c bc 14 4f 91 3e ba da 0f be e8 9c a4 be
       -0.008596988 0.28380644 -0.14048281 -0.3215096
0001e0 ce f1 09 be 8d 44 62 bd db f9 5f be 6e 9c 96 be
       -0.13471147 -0.055241156 -0.21872656 -0.2941622
0001f0 e3 57 94 3e 70 5b c9 bd b3 56 62 be 08 47 14 3d
       0.28973302 -0.098318934 -0.22103386 0.036200553
000200 e6 65 5a be c7 d9 84 be 2c d4 a4 3d 0f b1 93 be
       -0.21327934 -0.259474 0.08048281 -0.28846022
000210 2a 8d 10 3e 18 75 43 be 33 8e 85 be ea 8f 15 bd
       0.1411635 -0.19087636 -0.26085052 -0.0365142
000220 96 70 07 3e f5 d3 a4 bc a5 5b 92 be eb 67 86 3d
       0.13226542 -0.0201206 -0.28585544 0.065627895
000230 89 5f f0 3d fc 5d 00 3e f4 df 41 be 2b 3d 8e 3e
       0.11736972 0.12535852 -0.18933088 0.27781042
