checkpoints/epoch_8.pth (torch, 24320 bytes, 7 tensors)

encoder.0.weight f4 [16, 1, 1, 1]
-0.72116816 0.006669879 0.6325639 0.22648422 -0.87134886 0.8996443 -0.82249165 0.7790205
0.28059602 0.5488949 -0.8637774 0.62195563 -0.6047492 -0.570673 -0.32872164 -0.6065438
00000000: 7a9e 38bf 008f da3b b5ef 213f 7beb 673e
00000010: b810 5fbf 174f 663f d08e 52bf e36d 473f
00000020: 48aa 8f3e 6084 0c3f 8420 5dbf 7c38 1f3f
00000030: d8d0 1abf a017 12bf 344e a8be 7446 1bbf

encoder.0.bias f4 [16]
-0.7249266 -0.70742166 -0.4297285 0.99483705 -0.73790634 0.045395702 -0.27415347 -0.28292313
0.6581566 -0.07928815 0.5388727 0.8641411 -0.3648888 -0.39771044 -0.31396592 0.49068272
00000000: ca94 39bf 9619 35bf 6005 dcbe a4ad 7e3f
00000010: 6ee7 3cbf d8f0 393d d85d 8cbe 4ddb 90be
00000020: f37c 283f d361 a2bd 90f3 093f 5a38 5d3f
00000030: b4d2 babe b4a0 cbbe 24c0 a0be c43a fb3e

encoder.2.weight f4 [32, 16, 1, 1]
0.068062425 -0.17291433 0.057792723 -0.20577013 0.01962927 0.13737598 0.10905653 -0.11100277
-0.10534653 0.11459258 0.061252177 -0.17762008 0.026655644 0.15618092 -0.19202116 0.044554293
0.14166203 0.23120332 0.069037974 -0.16455224 0.2049165 -0.13024256 -0.1094825 0.11742157
-0.15250504 0.073910624 -0.16808352 -0.15970582 -0.08070305 0.028308213 -0.035516202 -0.14316675
-0.042739034 -0.24546227 -0.08868009 0.001355797 -0.19564044 0.17850351 0.06798923 -0.105941325
-0.21795511 0.22010282 -0.14415836 -0.053788662 -0.14481184 0.11683494 -0.027861893 0.06721115
0.22043237 -0.056322813 -0.032155573 0.006175846 -0.17384407 -0.02884999 0.053735137 0.23553017
0.23792389 0.06943926 -0.09025478 -0.23279628 -0.18910798 -0.17474237 0.095074564 0.07796726
0.22699773 -0.24128425 0.13937491 -0.09394166 -0.1691527 -0.15734246 -0.04664889 -0.08326578
-0.06371978 0.13683075 0.235966 -0.14405778 0.24315208 -0.19710946 0.07364583 -0.14223921
0.047119766 0.018585533 0.13261503 -0.11778295 -0.20918146 -0.15575153 0.11793092 -0.21836883
-0.026429474 0.07111767 0.20946726 0.15955904 0.0011065304 -0.19938901 -0.2254945 -0.2427355
0.0057935417 0.09872392 0.0875969 0.03210794 0.2181409 -0.022421202 0.08924812 0.021416612
0.13426346 -0.018940868 -0.17730856 -0.06423034 0.12558314 -0.15534732 -0.12801066 -0.12729171
0.09072772 -0.01554054 -0.2222754 -0.07319209 -0.046188086 -0.1576555 0.15909201 -0.18384096
-0.22099355 0.10114336 0.20134997 -0.12396747 -0.1868571 -0.066527456 0.17427999 0.18626648
0.18291992 0.02317664 0.19538346 -0.043684155 0.1680224 -0.18412042 0.09004092 -0.24223775
-0.2172437 0.11530024 -0.21284193 -0.157446 -0.037191898 0.10506135 0.12742993 -0.15773574
-0.01956153 -0.1471042 0.045914322 -0.057156444 -0.21794891 0.01487869 0.07879943 0.22719583
-0.23761237 0.16003096 0.046304435 -0.1987086 -0.10033992 -0.036715478 0.015685141 0.06157899
0.08845654 0.012567997 0.14211437 -0.02404572 0.19897553 0.1656218 -0.22718987 0.24580394
0.038531058 0.2296977 0.04083473 0.12099467 0.077383846 -0.24610174 -0.19326049 -0.030493138
-0.088727385 -0.061206132 -0.023690483 0.023630898 0.14449194 -0.09570374 -0.19000566 0.22140437
-0.22483033 0.23117894 -0.12211244 0.15957482 0.13278544 0.13729379 0.15229616 -0.119564265
-0.10142416 -0.016774118 0.2485648 0.0013728685 -0.19367996 -0.18849465 -0.21083641 0.1626416
-0.089789554 0.23348805 0.06901378 0.108140744 0.06161931 -0.016878247 0.16643769 0.053819086
0.2262946 -0.14330411 0.15487382 -0.13279724 0.07971582 -0.01813361 0.14352116 -0.015470237
-0.027079701 0.017946184 0.20622307 -0.07386032 -0.033100516 0.012914717 -0.09743968 -0.17124894
0.23827171 0.14703944 0.061551925 -0.09210553 0.07836741 0.04625997 -0.23301914 -0.19070314
0.2237649 0.10825808 -0.21412493 0.21432707 0.12132549 -0.12659502 0.100177854 -0.006639173
-0.08848351 -0.06428206 0.06900698 -0.08737108 0.12719274 -0.008529514 -0.0033060312 0.11465973
0.12784666 0.14848247 0.055743247 -0.20326614 0.13770604 -0.039374918 0.06700143 0.06370661
00000000: 5064 8b3d 7410 31be 10b8 6c3d 68b5 52be
00000010: 90cd a03c 4aac 0c3e 0859 df3d 6c55 e3bd
00000020: ecbf d7bd 84af ea3d 90e3 7a3d 0ae2 35be
00000030: f05c da3c e4ed 1f3e 32a1 44be 907e 363d
00000040: da0f 113e 90c0 6c3e c863 8d3d 6280 28be
00000050: a2d5 513e 4e5e 05be 5c38 e0bd b87a f03d
00000060: 482a 1cbe 745e 973d 161e 2cbe ec89 23be
00000070: a447 a5bd a0e6 e73c 7079 11bd 4e9a 12be
00000080: 200f 2fbd 765a 7bbe e89d b5bd 00b5 b13a
00000090: f855 48be a0c9 363e f03d 8b3d c4f7 d8bd
000000a0: a02f 5fbe a262 613e 409e 13be 8051 5cbd
000000b0: 8e49 14be 2847 ef3d a03e e4bc 00a6 893d
000000c0: 06b9 613e c0b2 66bd 90b5 03bd c05e ca3b
000000d0: 2e04 32be d056 ecbc 6019 5c3d d22e 713e
000000e0: 52a2 733e 2c36 8e3d 80d7 b8bd 2662 6ebe
000000f0: 86a5 41be aaef 32be 74b6 c23d 4cad 9f3d
00000100: 1872 683e 3813 77be 4cb8 0e3e 7c64 c0bd
00000110: 5e36 2dbe 621e 21be e812 3fbd 4087 aabd
00000120: 847f 82bd 5c1d 0c3e 12a1 713e e283 13be
00000130: dcfc 783e 10d7 49be a0d3 963d 28a7 11be
00000140: a800 413d b040 983c 3ccc 073e 3038 f1bd
00000150: aa33 56be 547d 1fbe c485 f13d 149c 5fbe
00000160: a082 d8bc 24a6 913d 967e 563e 7263 233e
00000170: 0009 913a a22c 4cbe 08e8 66be a88f 78be
00000180: c0d7 bd3b c42f ca3d 0166 b33d 9e83 033d
00000190: 5460 5f3e abac b7bc b8c7 b63d e471 af3c
000001a0: 5c7c 093e e129 9bbc 6090 35be 328b 83bd
000001b0: de98 003e 5e13 1fbe 3a15 03be c258 02be
000001c0: 74cf b93d c09d 7ebc 2a9c 63be bce5 95bd
000001d0: b82f 3dbd 7270 21be 04e9 223e ce40 3cbe
000001e0: 224c 62be 4024 cf3d b02e 4e3e a8e2 fdbd
000001f0: 7857 3fbe 8c3f 88bd 7476 323e a4bc 3e3e
00000200: 5c4f 3b3e f0dc bd3c 9a12 483e 28ee 32bd
00000210: 100e 2c3e 108a 3cbe 6067 b83d 2c0d 78be
00000220: 2275 5ebe 8822 ec3d 3cf3 59be 8639 21be
00000230: 8856 18bd 682a d73d fe7c 023e 7a85 21be
00000240: 803f a0bc 7ca2 16be a810 3c3d e01c 6abd
00000250: 002e 5fbe c0c5 733c 9861 a13d 06a6 683e
00000260: a850 73be 28df 233e b8a9 3d3d 447a 4bbe
00000270: 047f cdbd f862 16bd 207e 803c 403a 7c3d
00000280: b428 b53d 00ea 4d3c 6e86 113e 88fb c4bc
00000290: 3ec0 4b3e c398 293e 76a4 68be 07b4 7b3e
000002a0: bed2 1d3d e035 6b3e 5142 273d 0ecc f73d
000002b0: 6c7b 9e3d 1802 7cbe 14e6 45be bfcc f9bc
000002c0: b4b6 b5bd 48b3 7abd 8b12 c2bc 9695 c13c
000002d0: b2f5 133e 5300 c4bd d890 42be d4b7 623e
000002e0: ec39 66be 2cba 6c3e 1616 fabd 9567 233e
000002f0: e8f8 073e be96 0c3e 86f3 1b3e 1cde f4bd
00000300: 78b7 cfbd e069 89bc c587 7e3e d3f1 b33a
00000310: 0a54 46be be04 41be 80e5 57be 858b 263e
00000320: 96e3 b7bd 7e17 6f3e 1957 8d3d e578 dd3d
00000330: 8864 7c3d 4044 8abc a46e 2a3e 6771 5c3d
00000340: c6b9 673e 50be 12be 3e97 1e3e 00fc 07be
00000350: 0c42 a33d f08c 94bc 36f7 123e e076 7dbc
00000360: 40d6 ddbc e003 933c 242c 533e 1444 97bd
00000370: 6894 07bd 4098 533c 748e c7bd e25b 2fbe
00000380: 80fd 733e 8291 163e df1d 7c3d d3a1 bcbd
00000390: 187f a03d 187b 3d3d 929c 6ebe af47 43be
000003a0: a022 653e 6ab6 dd3d 9143 5bbe 8e78 5b3e
000003b0: 8079 f83d 20a2 01be 0c2a cd3d 6b8d d9bb
000003c0: d836 b5bd 50a6 83bd 8853 8d3d 9cef b2bd
000003d0: d03e 023e 60bf 0bbc 00aa 58bb b8d2 ea3d
000003e0: 3cea 023e ca0b 183e 0853 643d 0025 50be
000003f0: d002 0d3e 9847 21bd 0c38 893d 9c78 823d

encoder.2.bias f4 [32]
0.13590269 -0.23808485 -0.08362195 -0.043650478 0.043302424 -0.128842 0.19386262 0.06373641
-0.11105695 -0.14023662 0.018617233 0.2483211 0.07483342 -0.086575866 0.031526525 -0.06986186
0.2207351 0.14969468 0.0965769 0.01870612 -0.15032172 0.08506523 -0.11986518 0.15863144
0.12950072 0.110319704 0.15983927 -0.054841936 0.03533025 0.18246846 -0.08703703 -0.18561298
00000000: 132a 0b3e 84cc 73be fc41 abbd d8ca 32bd
00000010: e25d 313d 28ef 03be ec83 463e 3c88 823d
00000020: d471 e3bd 309a 0fbe 2b83 983c e347 7e3e
00000030: 4442 993d b04e b1bd f521 013d bc13 8fbd
00000040: 6208 623e 9049 193e 1cca c53d 943d 993c
00000050: f0ed 19be ae36 ae3d e07b f5bd 4870 223e
00000060: d69b 043e 4cef e13d e8ac 233e f0a1 60bd
00000070: 74b6 103d 03d9 3a3e 7840 b2bd 5411 3ebe

decoder.0.weight f4 [32, 16, 3, 3]
-0.013754524 -0.001216083 0.02338932 -0.02724278 0.0069946945 0.060748376 0.04248803 -0.057939794
-0.0842475 -0.054654263 0.08209786 0.033340055 0.011019628 0.036562834 -0.009359111 -0.062514246
-0.047266 -0.03229268 0.051169716 -0.009894703 0.047649655 -0.06542609 -0.009544951 0.03713492
-0.059941385 0.038629223 -0.00036046957 -0.07438748 0.028431505 -0.0008120313 0.0097697005 -0.037901454
0.0022117372 0.022875793 -0.03307273 -0.030095499 0.046855442 0.0815698 -0.08231231 0.033646293
0.009188019 -0.04231305 0.06368334 -0.03592041 -0.07985625 -0.073146865 0.042852763 0.017407915
0.07352517 0.0804679 0.04702081 0.029600203 -0.04870474 -0.046702106 0.07316498 -0.033255424
-0.041175585 0.010926306 -0.009562547 -0.0417141 -0.040185697 -0.037190776 -0.029772392 -0.06472008
0.036820833 0.050191436 0.040526137 0.05377174 0.045008563 0.08537987 -0.059470605 -0.032891612
0.031229317 -0.056414705 0.058283016 -0.015683388 0.017043691 0.005644272 0.061402474 -0.05705613
-0.014340954 -0.081682794 -0.035821375 0.064792134 -0.06953928 -0.01467106 -0.008309883 0.059629798
0.008551095 0.051379476 -0.06875396 0.050521515 0.014273757 0.05381645 0.065886855 0.026697122
0.0629802 -0.022457557 -0.016563801 -0.047148596 -0.009445913 0.03182485 0.06764511 -0.031590175
0.07753425 0.04908731 -0.040290147 0.073891975 0.043967463 -0.070632845 0.035102237 0.01554944
0.071555994 0.051902793 -0.0029095768 0.039630186 -0.053651344 -0.0028419718 -0.079847634 0.058739718
-0.060541302 0.0032417998 0.03623453 -0.041505285 -0.01836466 -0.0031575973 -0.041369736 -0.021628354
-0.07409509 0.029380977 -0.035757314 -0.0616766 -0.042698584 0.065605775 -0.02410495 0.014899544
-0.06090817 -0.00107296 0.096963845 0.037182555 0.09468104 0.0380858 -0.06512367 -0.027241897
-0.045413118 -0.008574598 0.06465662 0.061438 -0.047278196 0.07339897 -0.07984133 0.08205069
0.06858624 -0.031579375 -0.05070902 0.067916326 0.042626 -0.0022080243 -0.014700942 -0.05060069
-0.016750075 0.058825783 -0.043892603 0.027415663 0.049881615 -0.046901286 -0.055082135 0.022284329
-0.023167145 -0.06901487 0.076803066 0.08154435 0.08274371 -0.0031525418 -0.04453227 0.07901042
-0.015274666 0.08003918 -0.06509997 -0.0014905259 0.082882054 0.06695665 0.043388672 -0.062216245
-0.07988133 -0.07521947 0.06269934 -0.0038789734 0.0031082109 -0.06436675 0.0400664 0.07750297
-0.031603675 -0.051728636 0.007824443 -0.000228405 -0.0643747 -0.018961363 0.07846197 -0.07684445
0.051507704 0.0074419454 -0.02001626 -0.014538936 0.043936037 0.060506456 0.008735128 -0.03054738
0.017380327 0.04729662 -0.0006303787 0.008196175 0.06358371 0.015524335 -0.0122953355 0.052848555
0.04556606 -0.058614306 -0.061900966 -0.046520196 -0.07821284 -0.01848913 -0.02872178 0.0077858493
-0.07056295 0.03942872 0.028124206 -0.028377812 -0.063012175 0.046481557 -0.041003726 -0.058980376
0.04013177 0.080900855 -0.059386443 -0.07029177 0.080108516 0.040352114 -0.019822925 0.007139258
0.0276981 -0.05845692 -0.069826886 -0.019938506 -0.049672842 0.031530023 0.054724865 0.038176633
-0.027982205 0.008040369 0.050665848 -0.07383054 0.03162133 -0.018252172 0.005614482 -0.040523212
00000000: a85a 61bc f964 9fba f69a bf3c 402c dfbc
00000010: c033 e53b 4ad3 783d ee07 2e3d 4752 6dbd
00000020: f489 acbd 26dd 5fbd ec22 a83d 958f 083d
00000030: ab8b 343c e9c2 153d f556 19bc 7807 80bd
00000040: fe99 41bd 5445 04bd 5697 513d 641d 22bc
00000050: 492c 433d 1dfe 85bd 6d62 1cbc c91a 183d
00000060: 1985 75bd ad39 1e3d 68fd bcb9 7758 98bd
00000070: 30e9 e83c 80de 54ba 1811 203c 8e3e 1bbd
00000080: cbf2 103b 0466 bb3c 4577 07bd d68a f6bc
00000090: 7eeb 3f3d 110e a73d 5b93 a8bd b2d0 093d
000000a0: 5889 163c 7350 2dbd 696c 823d 4821 13bd
000000b0: ac8b a3bd 06ce 95bd 6186 2f3d 0b9b 8e3c
000000c0: 5d94 963d 5bcc a43d e598 403d 207c f23c
000000d0: 9f7e 47bd b54a 3fbd 85d7 953d d736 08bd
000000e0: bba7 28bd 4004 333c 3bac 1cbc 67dc 2abd
000000f0: c299 24bd 5b55 18bd 3be5 f3bc f68b 84bd
00000100: 71d1 163d 8995 4d3d bcfe 253d c23f 5c3d
00000110: e65a 383d a4db ae3d 7397 73bd 5bb9 06bd
00000120: a0d4 ff3c 1b13 67bd 2cba 6e3d 737a 80bc
00000130: 369f 8b3c 96f3 b83b 2981 7b3d b0b3 69bd
00000140: 52f6 6abc 4f49 a7bd 6fb9 12bd bdb1 843d
00000150: 9c6a 8ebd e35e 70bc 2d26 08bc 603e 743d
00000160: e419 0c3c 4973 523d e0ce 8cbd a6ef 4e3d
00000170: 7adc 693c a36e 5c3d b0ef 863d ecb3 da3c
00000180: c3fb 803d e9f8 b7bc cfb0 87bc e31e 41bd
00000190: 08c3 1abc c65a 023d 8589 8a3d b364 01bd
000001a0: 47ca 9e3d c60f 493d 4807 25bd ad54 973d
000001b0: 3a17 343d f4a7 90bd 5dc7 0f3d 14c3 7e3c
000001c0: f38b 923d 0698 543d 99ae 3ebb 4353 223d
000001d0: 83c1 5bbd 6040 3abb 2887 a3bd 0f99 703d
000001e0: 28fa 77bd 6074 543b a96a 143d 7201 2abd
000001f0: 7c71 96bc b1ef 4ebb 5073 29bd f22d b1bc
00000200: 2bbf 97bd 60b0 f03c 4376 12bd 9aa0 7cbd
00000210: b6e4 2ebd 525c 863d be77 c5bc 381d 743c
00000220: d87a 79bd 90a2 8cba fb94 c63d bc4c 183d
00000230: 22e8 c13d dbff 1b3d 8f5f 85bd 662a dfbc
00000240: 1b03 3abd 787c 0cbc b16a 843d 6aa6 7b3d
00000250: c8a6 41bd 3352 963d da83 a3bd 310a a83d
00000260: f176 8c3d 6059 01bd 43b4 4fbd b717 8b3d
00000270: 9a98 2e3d 80b4 10bb 38dc 70bc ab42 4fbd
00000280: 7437 89bc 4ef3 703d bbc8 33bd d096 e03c
00000290: aa50 4c3d 901b 40bd ce9d 61bd a08d b63c
000002a0: 06c9 bdbc ab57 8dbd ed4a 9d3d b900 a73d
000002b0: 8975 a93d e09a 4ebb 7867 36bd 37d0 a13d
000002c0: 9842 7abc 95eb a33d 2253 85bd c05d c3ba
000002d0: 11be a93d 9120 893d 52b8 313d 76d6 7ebd
000002e0: d398 a3bd aa0c 9abd 8368 803d 6036 7ebb
000002f0: 20b3 4b3b b7d2 83bd aa1c 243d e1b9 9e3d
00000300: db72 01bd 68e1 53bd 1832 003c 0080 6fb9
00000310: e2d6 83bd dc54 9bbc abb0 a03d 9f60 9dbd
00000320: bef9 523d 90db f33b 24f9 a3bc b834 6ebc
00000330: 46f6 333d 9ed5 773d c81d 0f3c 803e fabc
00000340: 3061 8e3c 1aba 413d 0040 25ba 4049 063c
00000350: 2d38 823d c859 7e3c 6072 49bc ba77 583d
00000360: 7aa3 3a3d 8e15 70bd de8b 7dbd f68b 3ebd
00000370: 0e2e a0bd 8476 97bc f049 ebbc 7020 ff3b
00000380: 4f83 90bd 0280 213d bc64 e63c 9678 e8bc
00000390: 870c 81bd 7263 3e3d 86f3 27bd 6895 71bd
000003a0: 3661 243d 59af a53d 333f 73bd 22f5 8fbd
000003b0: ef0f a43d 4248 253d b063 a2bc 70f0 e93b
000003c0: 20e7 e23c 8670 6fbd 6601 8fbd 1456 a3bc
000003d0: c075 4bbd a025 013d 2e27 603d 1a5f 1c3d
000003e0: f03a e5bc c0bb 033c fe86 4f3d 7734 97bd
000003f0: 5e85 013d 9485 95bc b0f9 b73b abfb 25bd

decoder.0.bias f4 [16]
-0.049178466 0.03989311 0.057072207 -0.010207946 -0.025588052 -0.012476221 -0.007386597 0.056703523
0.067152366 0.04468485 0.07392917 -0.091739535 0.019363599 -0.04126861 -0.021790586 0.0104476875
00000000: 5c6f 49bd f566 233d 8cc4 693d 3b3f 27bc
00000010: 099e d1bc 1069 4cbc 440b f2bb f441 683d
00000020: 2e87 893d 7607 373d 2d68 973d f0e1 bbbd
00000030: 69a0 9e3c 4609 29bd 2c82 b2bc c72c 2b3c

decoder.2.weight f4 [16, 1, 3, 3]
0.2516099 -0.15300298 0.28836656 -0.091285296 0.25140214 -0.16629207 0.04273451 -0.27186865
0.24009897 0.099475734 0.10055934 0.07604908 0.086888075 0.065847166 -0.06611019 0.24587166
-0.31494075 -0.005651502 0.0076179514 0.15448636 -0.3188679 -0.3166268 -0.14649898 0.308851
0.01887181 -0.22032753 -0.18507607 -0.30537897 -0.0768349 0.14264417 -0.23442557 -0.036215786
0.288694 0.30656788 0.12983467 0.2516746 0.02662554 -0.12596108 -0.13391998 -0.3161552
0.32010785 -0.2817103 -0.097179614 0.12500171 -0.1826841 0.21652575 -0.32484275 0.0073415535
-0.19667768 -0.29780078 0.14278486 -0.007346434 -0.24665046 -0.24710132 -0.29471514 -0.031759713
-0.27595994 -0.04138994 0.12463861 -0.16362235 0.102352574 -0.33019635 0.10603823 -0.30885813
0.1564369 -0.20135492 -0.3457654 -0.27979013 0.07664887 0.14156826 -0.13598417 0.18636987
-0.0892966 0.102296606 -0.23600183 -0.054934178 0.09100594 0.10826104 -0.32205012 0.036949262
0.0537025 -0.27766323 -0.02827823 -0.2802265 0.28663686 0.033969313 -0.06430467 0.10645532
-0.33465374 0.16611767 0.2865061 0.24355794 0.0012738559 0.042282574 -0.03496519 -0.23179413
-0.28844664 -0.13334408 -0.12964967 0.16861896 0.009419322 0.10193731 0.10227978 0.02940926
-0.23967431 -0.10278526 0.3236792 0.16649061 -0.027439676 0.24393393 -0.20975477 -0.25145507
0.046835 -0.065823175 0.20253164 -0.09543374 0.17328084 -0.31347838 0.016030142 -0.31132048
0.0047379537 -0.021042062 -0.05631547 0.26576164 -0.15629911 -0.17283727 -0.27992943 -0.13185619
0.08092841 -0.27381125 -0.016252195 -0.075597435 0.13295434 0.09662933 -0.22224009 -0.18627863
-0.1184215 -0.15954208 0.1079452 0.066427246 -0.13377418 -0.32443506 0.23771198 -0.25544587
00000000: 03d3 803e d0ac 1cbe c8a4 933e c9f3 babd
00000010: c8b7 803e 7848 2abe 620a 2f3d 5e32 8bbe
00000020: 81dc 753e efb9 cb3d 0ef2 cd3d 9fbf 9b3d
00000030: 60f2 b13d e1da 863d c764 87bd c8c5 7b3e
00000040: ea3f a1be 3c30 b9bb 02a0 f93b ac31 1e3e
00000050: a742 a3be e81c a2be d403 16be b821 9e3e
00000060: 0e99 9a3c 8a9d 61be 9584 3dbe a25a 9cbe
00000070: 9e5b 9dbd 5011 123e 420d 70be 0157 14bd
00000080: b3cf 933e 77f6 9c3e 61f3 043e 7edb 803e
00000090: ce1d da3c f1fb 00be 5222 09be 18df a1be
000000a0: 2de5 a33e 553c 90be 1b06 c7bd 7300 003e
000000b0: 8a11 3bbe edb8 5d3e ca51 a6be 6a91 f03b
000000c0: e065 49be 5879 98be 3236 123e 5bba f0bb
000000d0: f091 7cbe 2108 7dbe e7e4 96be 7916 02bd
000000e0: 9f4a 8dbe 7f88 29bd 8742 ff3d 9e8c 27be
000000f0: 3a9e d13d 7f0f a9be 922a d93d a722 9ebe
00000100: ff30 203e fc2f 4ebe 2a08 b1be a740 8fbe
00000110: 15fa 9c3d 45f7 103e 6f3f 0bbe bed7 3e3e
00000120: 23e1 b6bd e280 d13d 77aa 71be a902 61bd
00000130: 5361 ba3d f7b7 dd3d c1e3 a4be 1c58 173d
00000140: 27f7 5b3d e029 8ebe bfa7 e7bc d979 8fbe
00000150: 11c2 923e 6823 0b3d 2bb2 83bd 3f05 da3d
00000160: bc57 abbe c01a 2a3e edb0 923e 4167 793e
00000170: 83f7 a63a 7e30 2d3d a937 0fbd 715b 6dbe
00000180: 47af 93be 5a8b 08be e2c2 04be 73aa 2c3e
00000190: 8053 1a3c 82c4 d03d 1078 d13d b0eb f03c
000001a0: 2f6d 75be 1481 d2bd 48b9 a53e 847c 2a3e
000001b0: 2cc9 e0bc d1c9 793e f4c9 56be b8be 80be
000001c0: 0fd6 3f3d 4dce 86bd 7464 4f3e c472 c3bd
000001d0: 8870 313e 3d80 a0be a551 833c 6665 9fbe
000001e0: d640 9b3b 6760 acbc 0dab 66bd e911 883e
000001f0: e00c 20be 41fc 30be e952 8fbe 4f05 07be
00000200: cbbd a53d fd30 8cbe 5323 85bc d4d2 9abd
00000210: 2f25 083e 99e5 c53d e892 63be d3bf 3ebe
00000220: f986 f2bd 005f 23be 5f12 dd3d 020b 883d
00000230: 19fc 08be 5a1c a6be c56a 733e cdc9 82be
