checkpoints/epoch_5.pth (torch, 24320 bytes, 7 tensors)

encoder.0.weight f4 [16, 1, 1, 1]
000000 3c 0c b0 3e c0 99 35 3d b0 59 bc 3e bc 6e ce 3e
       0.34384334 0.04433608 0.36787176 0.4031886
000010 b4 10 37 bf ab f3 c8 be 91 3d 34 bf 83 a8 25 bf
       -0.7150986 -0.39248404 -0.7040644 -0.64710253
000020 96 8d b8 3d 07 ea 84 3e 80 38 7e bf 45 aa a6 3e
       0.090113804 0.259598 -0.9930496 0.3255178
000030 54 c6 e8 bd 67 5b bc be e0 41 65 bd aa 26 da 3e
       -0.11365953 -0.36788484 -0.055971026 0.42607623

encoder.0.bias f4 [16]
000000 10 8d 5d bf cc 69 df be 78 f1 bb be 49 07 9a 3e
       -0.8654337 -0.43635404 -0.36707664 0.30083683
000010 ce cd 25 3f 74 43 c6 3e de 8d 17 3f 22 94 65 3d
       0.6476716 0.38723338 0.5920085 0.056049474
000020 2b 03 20 3f 17 ca 35 3f 08 4c 94 be 00 cf 22 3f
       0.62504834 0.7101149 -0.28964257 0.63597107
000030 22 9e 6b 3f cb 9b bf 3e 2f 89 14 3f e1 8a 54 bd
       0.92038167 0.37423548 0.58021826 -0.051890258

encoder.2.weight f4 [32, 16, 1, 1]
000000 d0 4f 73 be 98 f7 08 3e 00 c6 4c 3d f8 2e 05 3e
       -0.23760915 0.133757 0.049993515 0.13006198
000010 00 60 a3 bc 48 3b 16 bd 6c c0 59 3e e6 2a 5a 3e
       -0.019943237 -0.03667763 0.2126481 0.21305427
000020 fc 8a e1 bd 98 47 6b be 60 d8 fe 3c 2e 5e 1b be
       -0.11012837 -0.2297653 0.031109035 -0.15172645
000030 00 e2 f2 bb a8 bf 0d bd 88 83 29 3e d0 2f 19 3d
       -0.007412195 -0.034606606 0.16554081 0.037399113
000040 60 86 a9 3d 5c 88 12 be 0e f6 77 be 26 aa 2f 3e
       0.08277583 -0.1430983 -0.24214956 0.1715475
000050 8c 50 17 3e 33 5d 22 be 58 c5 0e bd d0 51 60 bd
       0.1477682 -0.15855865 -0.03485617 -0.054765522
000060 08 ca b2 3d c0 b6 db bd 26 ff 14 3e 7c 3d 10 3d
       0.08729941 -0.10728216 0.14550456 0.035214886
000070 ae 03 ec bb 26 15 f6 bd 59 21 51 be b6 2f 4d 3c
       -0.007202587 -0.120157525 -0.20422877 0.012523582
000080 a0 75 f0 3d 3e 72 6e 3e 28 c3 c2 bd 2c 60 2d be
       0.11741185 0.23285767 -0.09509879 -0.16931218
000090 b8 92 f4 bd 44 18 fe 3d c0 75 dc 3c ac a6 d1 bd
       -0.11942047 0.12406972 0.026911616 -0.10236868
0000a0 48 f8 56 be c8 12 f1 bd 00 9e 3c bc 5c 3d 82 bd
       -0.2099315 -0.1177116 -0.0115122795 -0.063593596
0000b0 dc 7b 5d 3e 60 38 50 bd 28 4f 72 bd a0 90 3b be
       0.2162928 -0.050835013 -0.05915752 -0.18316889
0000c0 f0 89 e8 bd 70 da d1 3c 3a d7 41 be fe ab 2d 3e
       -0.113544345 0.025616854 -0.18929759 0.16960141
0000d0 9c 6d 77 be 06 8d f5 3d 70 06 a2 3d 0a 79 90 3d
       -0.24162906 0.11989789 0.07911384 0.07054336
0000e0 b4 b8 3b 3e fa 10 2a bc a8 02 e3 3d 94 76 c3 3c
       0.18332177 -0.010380024 0.11084491 0.023860253
0000f0 bb 90 2e be 60 58 b0 3d 31 2c 37 3e 74 90 b7 3d
       -0.17047398 0.08610606 0.17887951 0.08963099
000100 28 f6 7a be 90 f6 2b bd 88 93 38 be 99 35 68 3e
       -0.24507964 -0.041983187 -0.18025029 0.22676696
000110 e0 c4 9a bd 2e a0 0d 3e cc 23 50 ba 9f 63 1e 3e
       -0.07557082 0.13830635 -0.00079399045 0.1546769
000120 86 bf 84 3e 78 a2 22 3e d6 85 4b be ef 02 1b be
       0.2592737 0.1588229 -0.19875273 -0.15137838
000130 cd d7 5c be c7 21 af 3d 47 2a 61 be 38 66 9d 3d
       -0.21566696 0.085513644 -0.21988784 0.07685512
000140 e8 ad 15 3e 26 3c 30 3e 18 8c aa 3d ac d1 65 3e
       0.14617121 0.17210445 0.08327502 0.22443265
000150 46 ff 3a be ec 70 e9 3d bc 51 90 bd 98 e6 1f 3e
       -0.18261442 0.11398491 -0.070468396 0.15615308
000160 00 33 8d bd 00 29 9d 3c 42 67 2d be 80 0e 8f bd
       -0.06894493 0.01918459 -0.16933921 -0.069851875
000170 5a 34 15 3e cc b1 62 be 88 4f b7 bd 88 03 6c bd
       0.14570752 -0.22138137 -0.08950716 -0.057620555
000180 10 ca 93 bc 18 c4 0e 3d 98 13 7c bd c0 33 76 3e
       -0.018040687 0.03485498 -0.061542124 0.24043179
000190 ac bc b8 bd be 25 4d 3e 5c 68 dd 3d d8 17 cb 3d
       -0.09020361 0.20033929 0.108109206 0.09916657
0001a0 22 61 0f be 6a c4 70 be 80 22 a5 3d 02 be 51 be
       -0.14001897 -0.23512426 0.08063221 -0.20482638
0001b0 60 56 3d 3d 42 b4 6a be 3a 3c 6a be 4c 8c 82 bd
       0.04622495 -0.22920325 -0.22874537 -0.06374416
0001c0 2c 68 09 3e 38 18 0f 3e 00 ee ed ba 50 dd b8 bc
       0.13418645 0.13974082 -0.0018152595 -0.022566468
0001d0 f6 73 98 3c 6c 02 9c 3d 9b 70 ac 3c 35 5e 43 bd
       0.018609982 0.076176494 0.021049788 -0.047697265
0001e0 f7 ef 3a 3e 1a ec b6 bd 94 8f 72 3e 33 c1 05 3e
       0.18255602 -0.089317515 0.23687583 0.13061981
0001f0 88 d1 38 bd 37 d2 2d 3e ea f5 01 be 3f ad 4a 3d
       -0.0451217 0.16974722 -0.12691465 0.049481627
000200 c6 e7 64 3e 8e 4c 13 3e b4 84 54 be e8 fc ad bd
       0.2235404 0.14384672 -0.20753747 -0.08495504
000210 a6 99 11 3e 78 13 66 3e 91 4c ad 3d 87 75 ca bd
       0.14218768 0.22468364 0.084618695 -0.09885698
000220 15 d3 15 be 96 4c 82 be 30 5a 0a 3d 79 7d 59 be
       -0.14631303 -0.25449055 0.033777416 -0.2123927
000230 0a 7c 52 3e 9f 9d ef 3d fa 65 5e 3e fb 2a 25 be
       0.2055513 0.11699986 0.21718588 -0.16129677
000240 a8 e1 37 bd 9c e0 15 3e 38 97 de bd 7f a1 5d 3e
       -0.044892937 0.14636463 -0.108686864 0.21643637
000250 de a1 fa bd 5a f7 46 3e 97 e7 4b 3e d9 bc 27 3c
       -0.12237905 0.19430295 0.19912563 0.010237896
000260 73 42 43 be 24 35 2e 3e 60 fb 4b 3e 29 31 2e 3e
       -0.19068317 0.17012459 0.1992011 0.1701094
000270 1d be 32 be 10 85 67 bd bb 54 de 3d 7b 31 1e be
       -0.17455335 -0.056523383 0.10856005 -0.15448563
000280 c8 06 e1 3d d0 52 f1 3d 2a 99 19 3e ab f7 39 3e
       0.109876215 0.11783373 0.14999834 0.18160884
000290 01 b1 01 3c bb 6b 4d be ed 3c 0f 3e d1 b8 2a be
       0.007915736 -0.20060627 0.13988085 -0.16672064
0002a0 71 58 44 be 3b ee 1c 3d ec 9c 36 be 1d 97 71 3e
       -0.19174363 0.03831313 -0.17833298 0.23592801
0002b0 00 7a 5c 3e 94 7f af bd 01 d2 e1 bd 6f e3 2b be
       0.21530914 -0.085692555 -0.11026383 -0.16785978
0002c0 e8 45 da 3d 58 6b 26 be 0c 64 c4 3d 7e c6 0b 3e
       0.10657865 -0.16251886 0.09589395 0.13649938
0002d0 22 4a 5c bd 5a 0f 11 be 6f 62 05 3d 16 e4 01 be
       -0.053781636 -0.14166012 0.032564577 -0.12684664
0002e0 ba 98 9f bc cc a7 3f be 40 cf 95 bd 74 14 d6 bd
       -0.019482005 -0.18716353 -0.073149204 -0.1045312
0002f0 a6 c6 49 3e 14 4a 8d bc 64 30 54 be f6 74 3d be
       0.19704685 -0.017247237 -0.20721585 -0.18501648
000300 d0 46 ad 3d 00 00 5f 37 58 72 a4 3d a3 48 48 3e
       0.08460772 1.3291836e-05 0.08029622 0.19558959
000310 61 63 c1 3d 3d 03 cf bd 74 7a 4f 3e 0d 7d 2f be
       0.09442783 -0.101080395 0.20261556 -0.17137547
000320 27 9c 89 bc b2 bf 2b 3e f4 62 3e 3e 94 67 94 b9
       -0.016798092 0.16772345 0.18592435 -0.00028305931
000330 df 38 c3 bd 64 44 0e 3d 8d db 83 3e 21 d1 33 be
       -0.09532332 0.03473319 0.2575344 -0.17560245
000340 3c a3 78 be 2a a9 3f be bc f5 cd 3d 77 59 81 3d
       -0.24281019 -0.18716875 0.10056636 0.06315892
000350 a3 2c 76 be 69 ef 60 3d 25 cf 7c bd dc 1f 53 be
       -0.24040465 0.05491582 -0.061720986 -0.20617622
000360 c3 63 33 be c5 5c 75 3e 60 d7 03 3d 25 1b 11 3e
       -0.17518525 0.2396117 0.03218782 0.14170511
000370 62 5b 53 3d 2a cb 79 3c 2e 2d c2 bc f0 35 2b be
       0.05160082 0.015246192 -0.023703184 -0.16719794
000380 e2 d7 24 3e 40 ea f9 3b 04 3a 8d 3d 32 02 10 be
       0.16097978 0.0076268017 0.06895831 -0.14063337
000390 00 96 eb 3d 52 30 48 3e 46 47 00 bd 82 95 87 3d
       0.115032196 0.19549683 -0.03131797 0.06620313
0003a0 ec 85 52 3d 6a ea 1a be e2 6f 07 3e 5d 92 5e bd
       0.05139725 -0.15128484 0.13226274 -0.0543388
0003b0 84 d8 b1 3d 1a c2 be 3d 1c 98 20 be a7 16 8f bd
       0.08683875 0.09314366 -0.15683025 -0.069867425
0003c0 70 da 98 3d 08 a3 28 bd 5c 7a d4 3d 40 e3 4d bd
       0.07463539 -0.041171104 0.10374901 -0.05026555
0003d0 4c 9b 90 3d fa 4c 09 be fc 61 c9 bd f0 b7 58 3e
       0.070608705 -0.1340827 -0.09833142 0.21163917
0003e0 bc e5 49 be 58 22 a7 3d e6 fb 41 be 32 ea 4f be
       -0.19716543 0.081608474 -0.18943748 -0.20304182
0003f0 ec 4e 84 3d bc 3d f9 bd e0 60 18 3c 1e 79 22 be
       0.06460366 -0.12169978 0.009300441 -0.15866515

encoder.2.bias f4 [32]
000000 84 7b ed bd 2c 3b 52 bb 80 89 2c bd 5a b0 3e 3e
       -0.11595824 -0.0032078726 -0.042123318 0.1862196
000010 b0 a2 3c 3e c0 5c 49 be a6 be 0b 3e ac 5d 1b 3e
       0.18421435 -0.19664288 0.13646945 0.15172452
000020 a0 e9 a7 3d 92 de 11 bc 78 28 e2 bd 92 05 79 3e
       0.08198857 -0.008903163 -0.11042875 0.24318531
000030 42 81 28 bd 88 0d 1d 3b 0e 73 a6 3d 0c 5d 75 be
       -0.041138895 0.0023964364 0.08127414 -0.23961276
000040 2c f2 d8 bd 2e f9 7a be 6a b3 81 3e b3 c3 bc 3d
       -0.105930656 -0.24509117 0.25332195 0.09217014
000050 c8 05 42 3e 40 f5 11 3d a0 56 29 3e 1a 20 25 be
       0.18947518 0.03563428 0.16536951 -0.16125527
000060 26 42 47 be 82 aa ec 3d e5 86 e4 3d 77 a1 65 3c
       -0.19458827 0.11555959 0.111585416 0.014015547
000070 76 40 11 3e 84 ff f4 3d 87 aa 85 3d 8f 7f 0a be
       0.14184746 0.11962798 0.06526666 -0.13525222

decoder.0.weight f4 [32, 16, 3, 3]
000000 38 4b 93 bd 40 f4 46 3c 68 30 29 bd b0 46 eb 3c
       -0.07192081 0.012143195 -0.04130593 0.02872023
000010 3a 02 57 3d 60 1f 66 bc 08 6f 57 bd b8 e6 4b 3c
       0.052492358 -0.014045566 -0.052596122 0.012445144
000020 69 e2 80 3d 3a 23 11 3d 40 13 ff bb 68 ff 45 3c
       0.06293184 0.035433985 -0.007784277 0.012084819
000030 20 a2 77 bc 36 bf 27 3d 3f 91 8a bd 6c 58 d5 3c
       -0.015114337 0.040953837 -0.06765985 0.02604314
000040 c6 f3 36 3d 93 7b 97 3d 8e 36 6c bd 53 13 8b bd
       0.044666074 0.07396617 -0.057669215 -0.06790795
000050 80 35 3d bd 86 bc 6d 3d e6 9f d1 bc 49 ae 81 3d
       -0.0461936 0.058041118 -0.02558894 0.063320704
000060 77 01 86 3d 2b d3 05 bd a0 64 a6 bd 60 2c 4f bb
       0.06543248 -0.03267209 -0.081246614 -0.0031612143
000070 00 1f 39 3c 5e 50 67 3d 87 74 9c bd 18 97 18 3d
       0.011298895 0.05647313 -0.07639413 0.03725347
000080 48 08 51 bd f0 f6 c2 bc 0c 97 a2 bd 12 f2 52 3d
       -0.05103329 -0.02379939 -0.07938966 0.051500387
000090 0b f5 18 bd 3b b8 40 bd 4b f5 62 bd f6 ba 7f 3d
       -0.037343066 -0.047050696 -0.05540971 0.06243416
0000a0 b8 e7 71 bd 4d 57 98 3d 92 21 2b 3d 5a 04 45 3d
       -0.059058875 0.07438526 0.041780062 0.048099853
0000b0 40 a8 20 3c 6e 77 29 bd 13 33 89 3d 00 50 82 37
       0.009805739 -0.041373663 0.06699195 1.553446e-05
0000c0 42 52 3a 3d ec 8c 8d bc 28 8b 10 bc 38 0d 76 3c
       0.045488603 -0.01727911 -0.00882224 0.0150178
0000d0 8c e0 89 3c fc ca 90 3c f8 5e 68 3c 66 2c 14 3d
       0.016830705 0.017674915 0.014182799 0.036175154
0000e0 ee 8f 82 bd 50 75 97 3c a4 1e 81 bd f8 d6 1d 3d
       -0.06375109 0.018488556 -0.06304672 0.03853509
0000f0 fa 97 12 3d 22 ed 46 3d d1 9f 84 3d 4e 4a 68 3d
       0.035789467 0.04856599 0.06475795 0.056711487
000100 00 ab 83 3b 70 30 9a 3c a6 a7 23 3d 00 5e 2b 3b
       0.0040181875 0.018821925 0.039954804 0.0026148558
000110 da 57 a7 bd 42 f3 46 3d 66 4d 60 3d 3e 5c 77 3d
       -0.08171053 0.048571832 0.054761313 0.060390703
000120 10 c0 ee 3c 5c fd 9c 3c c0 89 77 bc ce 7b 12 3d
       0.029144317 0.01916378 -0.015108526 0.0357626
000130 42 47 a5 bd af e8 98 bd 5c 4c eb bc 9b 07 51 bd
       -0.08070232 -0.07466256 -0.028722934 -0.051032644
000140 8c 9f df bc 71 f4 85 3d 66 82 3c bd 63 5c 08 bd
       -0.027297758 0.06540764 -0.046022795 -0.03329123
000150 f2 de 66 3d fa 98 54 3d 72 81 41 3d be 74 4e bd
       0.05636496 0.051903702 0.04724259 -0.050404303
000160 f0 68 b7 bb a2 11 aa bd e6 2b 11 bd c0 9f eb ba
       -0.0055972263 -0.083041444 -0.035442255 -0.0017976686
000170 a0 16 aa 3c 30 bb 68 bd b7 01 a5 bd 80 c8 43 3c
       0.020762742 -0.05681914 -0.08056968 0.011949658
000180 10 5e 66 bd 40 ea f1 3b c4 5b a9 bd 32 f3 26 3d
       -0.05624205 0.007382661 -0.08269456 0.040759273
000190 22 20 44 3d 48 dd 1b bc 6a ae 96 bd bb c8 21 bd
       0.047882207 -0.009513207 -0.073574856 -0.039498072
0001a0 70 b1 db 3b 10 cf f0 bb cd 5c 9b 3d 14 5b 9b bc
       0.006704502 -0.0073489025 0.0758606 -0.018964328
0001b0 24 1c a5 bd 0a 93 a4 bd 70 05 b7 bc 26 e7 73 3d
       -0.08062008 -0.08035858 -0.02234146 0.059546612
0001c0 70 e1 88 bc e8 35 40 bd 20 9a 00 3b e2 bd 40 3d
       -0.01670906 -0.04692641 0.0019623116 0.047056086
0001d0 40 eb ab ba 46 76 2e bd 74 fa 98 bc aa 2b 90 bd
       -0.0013116375 -0.042593263 -0.018674113 -0.07039578
0001e0 80 f1 e1 3c b8 64 5f bd 3d 97 89 3d 02 6c 4d 3d
       0.027580976 -0.054539412 0.067182995 0.050151832
0001f0 f2 d0 6c 3d 6e 07 5c 3d e0 ed e5 bc 06 21 99 bd
       0.057816453 0.053718023 -0.02806753 -0.07477002
000200 81 d4 a7 3d 50 c6 d1 3b ff b7 85 3d 7a fb 5d 3d
       0.08194829 0.0064018145 0.06529235 0.054194905
000210 ee de 81 bd 80 bb 0b 3b e2 40 17 3d 0a d6 31 3d
       -0.063413486 0.0021321476 0.03692711 0.043417014
000220 e0 32 41 3c f0 20 a7 bd 50 a9 fd 3b 85 1f 95 3d
       0.011791915 -0.08160579 0.007741131 0.072814025
000230 d0 d1 ca bb 39 68 92 3d e2 e8 3c 3d 3b a3 87 bd
       -0.0061895624 0.07148785 0.04612053 -0.066229306
000240 38 4b 32 bd d0 2b c6 3b 83 ae 94 bd 26 a4 d8 bc
       -0.043528765 0.0060477033 -0.07259848 -0.02644546
000250 a3 27 6b bd 53 2a 64 bd 32 60 7b 3d d0 29 e5 bb
       -0.057410847 -0.055704426 0.061371036 -0.00699351
000260 b9 66 8e 3d ca 0a 4b 3d a2 04 77 3d 90 e2 3c 3c
       0.069531865 0.049570836 0.060307153 0.011528626
000270 83 c0 8d bd d0 e3 b7 bb 33 5d 74 bd 95 6c 6b bd
       -0.06921484 -0.005611874 -0.059659194 -0.0574766
000280 f2 63 56 3d 1c c4 e5 ba 29 ec 73 bd a5 92 5b 3c
       0.05234141 -0.0017529759 -0.05955139 0.013401662
000290 29 55 89 bd 2c 0a 52 bd 74 a0 11 bc 4d 7f 44 3d
       -0.06705696 -0.051279232 -0.008888353 0.047972966
0002a0 0f 04 72 bd 32 7d 8e bd 7b 49 64 3d 33 34 13 bd
       -0.0590859 -0.06957473 0.05573414 -0.035938453
0002b0 56 b9 48 3d 00 a5 c9 bb c1 a8 8b bc fe 1b 43 3d
       0.049004875 -0.0061537027 -0.017048242 0.047634117
0002c0 d1 4a 2f bb 00 c0 61 3c 2d b7 1e bd 9e e4 3b bd
       -0.0026747475 0.0137786865 -0.03874891 -0.045872323
0002d0 94 c3 69 3c e0 be 8b 3d ec ef c4 ba 8e 35 17 3d
       0.014267821 0.06823516 -0.0015025116 0.036916308
0002e0 65 c8 e5 3b b0 7c ef bc a1 5c 8a 3d b7 ac 7a 3d
       0.0070124143 -0.02923426 0.06755949 0.06119987
0002f0 7d 80 65 bd 4b a5 e3 bc 53 98 b7 bc a9 61 88 3d
       -0.05603074 -0.027788779 -0.022411501 0.06659252
000300 ff 7d 1f bd bb ad ac 3d 9c 46 83 bd 0b 07 2c 3c
       -0.03893852 0.08431574 -0.06409952 0.010499726
000310 ed eb 77 bc 13 0a aa 3c 96 00 74 3d 8a 2a 42 3d
       -0.015131933 0.020756757 0.05957087 0.04740385
000320 e8 74 2c 3c 58 d2 11 3d 8a 1e 62 3d b8 06 72 bd
       0.0105259195 0.03560099 0.055204906 -0.05908844
000330 db 25 a8 3d 08 ac 29 3d f0 98 f5 bc 75 8a 8f 3d
       0.08210345 0.041423827 -0.029980153 0.070088305
000340 6a 62 9b bd c4 4e 86 bc 6b 55 44 bd 08 90 67 3c
       -0.0758713 -0.01639498 -0.047933023 0.014133461
000350 60 30 79 3b f2 9c 46 3d 40 0c 80 3b a4 81 a9 bd
       0.0038023219 0.04848952 0.0039077103 -0.0827668
000360 1a 05 39 3d 94 6f 9a 3d 5d 34 98 3d cf 9a 9a 3d
       0.04517088 0.07540813 0.074318625 0.07549059
000370 54 45 b0 bc 40 1d 1f 3d 30 f6 fa bb 99 e2 3d 3d
       -0.021517433 0.038846254 -0.0076587424 0.04635868
000380 90 bf e1 3c aa 23 2a 3d 89 6d 60 bd 20 49 22 bb
       0.027557164 0.04153792 -0.05479196 -0.0024762824
000390 40 ec e2 bc 84 61 88 bd 14 63 98 bc e3 46 21 bd
       -0.027700543 -0.06659225 -0.018601932 -0.039374243
0003a0 ae d0 a6 3b ce 91 70 3d e8 44 6f bc 27 f6 79 bd
       0.0050907945 0.0587328 -0.014603831 -0.061025765
0003b0 84 f7 d3 3c 4e 63 02 3d 98 a9 14 bd 81 d0 26 3d
       0.02587486 0.031832986 -0.03629455 0.04072619
0003c0 10 4d c4 3b 01 ad 48 bd 60 cc ab 3c c1 a4 86 3d
       0.005990632 -0.048993114 0.020971477 0.06574393
0003d0 1a 89 86 bd fe a9 3a 3d 53 b1 8a 3d 6f 5f 85 3d
       -0.06569119 0.045572273 0.06772103 0.06512343
0003e0 b9 5e 8c bd 07 4e fc 3b 56 d8 88 bd 72 14 cc 3c
       -0.068540044 0.0076997313 -0.06681888 0.024912093
0003f0 aa db 38 3d 0e 6d 4c 3d 00 95 9f bc 9f e2 8f 3c
       0.045131363 0.04990869 -0.019480228 0.017564116

decoder.0.bias f4 [16]
000000 20 e0 f4 bc bc 04 92 bc ce 02 df 3c 9e 50 be 3d
       -0.029892027 -0.017824523 0.027223017 0.0929272
000010 09 c4 53 bd 2e a9 81 3d f3 2e 58 bd 75 31 9b bd
       -0.051700626 0.063310966 -0.05277915 -0.075777926
000020 28 a7 59 3b e9 10 b0 bc 5f 55 53 3d 4e 76 bc 3d
       0.0033211205 -0.021492438 0.051595088 0.09202252
000030 f6 84 8c bd c4 78 a0 3d c7 16 05 bd 6a d8 8d bd
       -0.06861298 0.07835534 -0.032492425 -0.06926043

decoder.2.weight f4 [16, 1, 3, 3]
000000 fc a2 de 3d 50 59 0d 3e f4 3d 92 bd 68 14 5c bd
       0.108709306 0.13803601 -0.07140723 -0.0537304
000010 4c 27 c4 bd 90 12 b6 bd c0 67 bc 3c fb 1c 09 be
       -0.09577808 -0.08890259 0.02299869 -0.13389961
000020 30 91 d5 3d 71 97 97 be e9 19 2d be 9d 31 0f 3e
       0.10428083 -0.29607728 -0.16904415 0.1398377
000030 d9 60 6a 3e 1e d1 a7 3d 42 07 a0 bc 0c ee 83 3e
       0.22888507 0.08194183 -0.01953471 0.25767553
000040 f8 0f e6 3d e5 fd a7 3d ce f4 61 be 40 22 92 3e
       0.112335145 0.082027234 -0.22066042 0.28541756
000050 eb 53 9e bc fa 6a 7c 3e ce a0 bb 3d a8 cb 37 3e
       -0.019327125 0.24650183 0.091615304 0.17948782
000060 30 7c 51 be 82 7a a2 be af 4e 0f 3e eb 6c e9 bd
       -0.2045753 -0.3173409 0.13994859 -0.113977276
000070 35 8d 5a 3e bf 47 97 be 8f f3 46 3e b5 e4 09 be
       0.21342929 -0.29546925 0.19428848 -0.13466151
000080 64 23 90 be 09 4a 90 be 9d b6 91 be 65 ee 1c 3e
       -0.28152 -0.28181484 -0.28459635 0.15325315
000090 7c 64 83 bd 86 b2 4e bd 94 51 9c 3e e4 8c 93 3e
       -0.0641565 -0.050463222 0.3053099 0.2881843
0000a0 21 e7 46 be 18 11 b3 3d b5 59 3f be 93 ca bf 3c
       -0.19424106 0.08743495 -0.18686564 0.023412025
0000b0 b2 27 b6 3d 03 0a 1d be 23 e5 55 be ed 86 7d 3d
       0.0889429 -0.1533585 -0.2088819 0.061896253
0000c0 b5 e3 9c be 57 ce 99 bd f7 8c 43 3d eb 13 43 3d
       -0.30642477 -0.07510059 0.047741856 0.047626417
0000d0 ba 1b 37 3e d4 e8 94 be 52 0e 35 3e ae da 71 3e
       0.1788167 -0.29083884 0.17681244 0.23618576
0000e0 b9 78 8c 3e e0 59 3e 3c 2e 55 36 3e ce 02 54 3e
       0.27435854 0.011618108 0.17805931 0.20704195
0000f0 b3 00 8c be 60 c1 65 bd a0 68 43 3d 21 fb 3e 3e
       -0.27344283 -0.05609262 0.0477072 0.18650486
000100 ca 61 89 be 47 ee a4 be bc 5a a6 3e 82 4f 46 be
       -0.2683242 -0.3221304 0.324911 -0.19366267
000110 44 a0 39 bd f5 d9 a3 3e 26 f1 42 be 9d cd a6 3e
       -0.045318857 0.32002226 -0.19037303 0.32578745
000120 5f 16 8b bc 69 fc 91 be c0 fa 9f 3e 73 a3 a5 3e
       -0.01697844 -0.28512886 0.31245995 0.32351264
000130 78 da 88 be 90 46 39 be 8b 03 0a be 60 15 99 3e
       -0.26729178 -0.18093324 -0.13477914 0.2989912
000140 83 85 c1 bd 61 0b a9 be d9 67 76 be d2 db ed bd
       -0.094492935 -0.33016494 -0.24063052 -0.11614193
000150 92 e5 ac be 5c 64 9b be 89 38 a5 be d2 b6 74 be
       -0.33768898 -0.30350006 -0.32269695 -0.23897865
000160 21 2a a9 be 31 e7 af 3b 78 26 e3 bd 40 b9 a2 3e
       -0.33039954 0.0053681363 -0.11091322 0.3178196
000170 fe ed 8c be 30 a0 37 be 69 7e 6a be 6a 52 43 be
       -0.27525324 -0.179322 -0.22899784 -0.19074407
000180 3e 1f 66 be 29 e8 06 be 3f dd b9 bd d1 f9 59 be
       -0.22472855 -0.131745 -0.090754025 -0.21286704
000190 aa 86 99 be 80 b6 6d 3e 8e ff b7 3d d4 ed c1 3b
       -0.29985553 0.2321415 0.0898429 0.005918244
0001a0 9f 19 9f 3e 42 18 7c bd 40 93 80 be e5 e0 82 be
       0.31074235 -0.06154657 -0.25112343 -0.25562206
0001b0 cd 94 a6 3e a8 6f d4 3c 56 56 f3 3b dd 25 55 3e
       0.325354 0.025932148 0.0074260635 0.20815225
0001c0 52 8b 5a be b0 69 86 3d 1f 5e 24 3e 78 80 bd bd
       -0.21342209 0.06563127 0.1605153 -0.09253019
0001d0 3b 1f 67 bc d7 26 8d 3e 9a 2f 18 be 49 c5 a8 be
       -0.014106567 0.27568695 -0.14861909 -0.32963017
0001e0 d4 44 12 be 61 cd 81 bd ea 4d 68 be 93 c5 9a be
       -0.14284068 -0.06338001 -0.22685972 -0.30228862
0001f0 c9 2c 90 3e c7 fd d9 bd 59 e5 62 be 1e cf 11 3d
       0.28159168 -0.10644107 -0.22157802 0.035597913
000200 47 f9 5a be 96 28 85 be 92 91 a3 3d 57 01 94 be
       -0.21384154 -0.26007527 0.0798675 -0.28907272
000210 f4 ef 0f 3e 40 16 44 be a7 da 85 be 55 23 19 bd
       0.14056379 -0.19149113 -0.2614338 -0.03738721
000220 fa 59 06 3e 21 9a ac bc 22 ed 92 be 83 0b 84 3d
       0.13120261 -0.021069588 -0.28696543 0.06447508
000230 97 02 ee 3d 87 6e fe 3d 31 12 43 be 59 a8 8d 3e
       0.11621588 0.12423425 -0.19049908 0.27667502
