checkpoints/epoch_18.pth (torch, 24780 bytes, 7 tensors)

encoder.0.weight f4 [16, 1, 1, 1]
-0.4991461 0.9957296 -0.964519 -0.8902944 -0.72558546 0.363635 0.076847576 0.9245676
-0.6648247 0.44730163 0.038825106 0.5659288 -0.93992466 -0.039423585 -0.66355765 -0.424371
00000000: 1490 ffbe 23e8 7e3f b8ea 76bf 55ea 63bf
00000010: f8bf 39bf 5e2e ba3e 4362 9d3d 76b0 6c3f
00000020: f431 2abf b804 e53e 1307 1f3d b6e0 103f
00000030: e79e 70bf a07a 21bd eade 29bf 2847 d9be

encoder.0.bias f4 [16]
-0.67483246 0.7982513 0.4447699 0.1430472 -0.14565992 0.84665686 0.4855173 -0.64219517
-0.74796546 0.6019429 0.60918516 0.72043884 0.47845256 -0.034612417 -0.33647633 -0.41498053
00000000: d2c1 2cbf 325a 4c3f e1b8 e33e f77a 123e
00000010: e027 15be 81be 583f b995 f83e e766 24bf
00000020: aa7a 3fbf ee18 1a3f 8ff3 1b3f ae6e 383f
00000030: bcf7 f43e c0c5 0dbd a046 acbe 5478 d4be

encoder.2.weight f4 [32, 16, 1, 1]
0.089577615 -0.109581046 -0.018802311 0.046636917 -0.011747837 0.22466029 -0.20138831 -0.09899949
-0.020548463 -0.116883904 0.021222064 0.1802035 0.046657197 0.07750249 -0.05309987 0.009245396
-0.18904081 0.23187718 -0.24970874 -0.17831028 -0.11027503 -0.24979088 -0.22049496 -0.21072492
0.036599755 -0.04874587 -0.19211218 0.10054177 0.06468651 0.09756634 -0.065054744 0.1434645
0.1601946 -0.09118092 -0.017231613 -0.19411162 0.09524548 0.014641076 -0.1655244 -0.1476242
-0.12935764 0.008902341 -0.16602823 0.066155106 -0.24581206 -0.014391124 -0.21692026 -0.17941001
0.08110088 0.03582569 -0.16219237 -0.15906343 0.052980423 0.111763336 0.2395162 -0.1421486
0.030219078 0.19041915 0.2225982 0.03384774 0.06930076 -0.1123434 0.24187937 0.060190707
-0.002445072 0.17822896 0.030499887 0.028009664 -0.07060355 -0.17387402 0.25666735 -0.21770751
-0.24590036 0.21790439 -0.15574436 -0.089167625 0.22086674 0.008120835 0.08560738 0.16892427
-0.01221472 -0.09252939 -0.24874416 -0.11386064 -0.020011246 0.03827268 -0.23784244 0.168302
-0.011927336 -0.21364218 -0.24040413 0.14102527 0.10641602 0.18871957 0.15568292 0.08908588
0.06606278 0.10623783 0.23460275 0.07474227 -0.23133904 0.14774185 -0.14550531 0.12923874
-0.11577374 0.06376545 0.23771262 0.117690444 0.038212724 0.118572414 0.24019358 -0.10695207
-0.017760783 -0.15190351 -0.024333477 0.24409226 -0.1415981 -0.066604644 -0.18631062 0.15321574
-0.13986856 0.021517426 -0.18354297 -0.026358783 -0.090347946 -0.21651664 0.09306827 0.17270765
-0.1738405 -0.16202572 -0.14123645 -0.17441367 0.021382242 0.20531848 0.060101803 0.061758284
-0.22136801 0.13576195 -0.113187544 0.19518372 0.053149812 0.20888448 0.09693879 -0.1080783
0.21084377 -0.06428815 0.16010416 -0.04044225 0.20805418 0.27935404 0.19996168 -0.16411941
-0.1831927 0.27670327 -0.04466461 0.0025268178 0.035314426 -0.23760241 -0.13825563 -0.20861259
0.22310662 -0.02893594 0.21609828 -0.035399884 0.14199218 0.08292234 -0.105131865 -0.20192379
0.08205348 0.07042083 0.1481928 -0.23702708 0.011906773 0.09342027 0.19786227 0.24516839
-0.17052805 -0.045265913 0.12774374 -0.16016294 0.023378551 0.23743317 -0.09087545 -0.18300873
0.1920566 0.036969233 0.22395359 -0.0659985 0.10020212 -0.105749756 0.02546236 -0.18847871
0.14195365 0.19374019 0.13014871 0.21201524 0.021585673 0.015617532 0.18205428 0.067778766
0.17102847 -0.14016633 -0.08442832 0.25590557 0.21899608 0.21091706 -0.24146983 0.07711792
-0.20293018 -0.09144242 -0.090692036 0.012519964 -0.15926626 0.14583732 -0.1446804 -0.21302639
0.09647703 0.28921145 0.28400278 0.23167126 0.098247714 -0.08504614 -0.15846664 -0.21105772
0.015915185 0.09650907 0.061265618 -0.2110784 0.0063978434 0.092322946 -0.2399745 -0.0753012
-0.16676536 -0.19792956 -0.21873733 0.15777475 0.23521432 -0.07816541 -0.17810002 -0.122118086
-0.0017074347 0.16230477 0.13129142 0.23993954 0.02984029 -0.105716884 0.01289589 0.22557257
0.10064936 -0.060224064 0.09009233 0.26719996 -0.14757213 -0.0020329058 -0.20440936 -0.15677604
00000000: 7874 b73d 076c e0bd 4e07 9abc 5a06 3f3d
00000010: 007a 40bc 590d 663e bd38 4ebe 3fc0 cabd
00000020: 4055 a8bc d460 efbd e5d9 ad3c 4487 383e
00000030: 9e1b 3f3d a0b9 9e3d 407f 59bd 007a 173c
00000040: ea93 41be 3671 6d3e a6b3 7fbe f896 36be
00000050: e0d7 e1bd 2ec9 7fbe 6ec9 61be 46c8 57be
00000060: a0e9 153d c0a9 47bd 0eb9 44be d8e8 cd3d
00000070: 5c7a 843d dcd0 c73d 6c3b 85bd 5ce8 123e
00000080: 0e0a 243e 10bd babd 5029 8dbc 32c5 46be
00000090: 1010 c33d 20e1 6f3c 3a7f 29be cc2a 17be
000000a0: 5476 04be 20db 113c 4e03 2abe 547c 873d
000000b0: 28b6 7bbe c0c8 6bbc 5820 5ebe 42b7 37be
000000c0: 3818 a63d f5bd 123d c215 26be 86e1 22be
000000d0: 0002 593d 2de4 e43d bc43 753e 678f 11be
000000e0: 008e f73c 3dfd 423e c8f0 633e eea3 0a3d
000000f0: 8fed 8d3d 4c14 e6bd 3aaf 773e 888a 763d
00000100: 803d 20bb a781 363e e6da f93c 8674 e53c
00000110: 9898 90bd 080c 32be e769 833e b8ee 5ebe
00000120: 4ecd 7bbe 5422 5f3e 737b 1fbe 849d b6bd
00000130: e42a 623e 400d 053c ec52 af3d 7cfa 2c3e
00000140: 4020 48bc 0c80 bdbd cab6 7ebe c42f e9bd
00000150: a0ee a3bc d0c3 1c3d f88c 73be 5c57 2c3e
00000160: e06a 43bc 04c5 5abe 802c 76be ee68 103e
00000170: a4f0 d93d b43f 413e 586b 1f3e a872 b63d
00000180: ec4b 873d 3893 d93d b43b 703e 7a12 993d
00000190: 24e4 6cbe a449 173e 58ff 14be 2957 043e
000001a0: c81a edbd 7697 823d f06a 733e b007 f13d
000001b0: f284 1c3d 18d6 f23d 4ef5 753e b009 dbbd
000001c0: 107f 91bc 988c 1bbe 0057 c7bc 52f3 793e
000001d0: 18ff 10be 0468 88bd 36c8 3ebe 96e4 1c3e
000001e0: b439 0fbe 5045 b03c b0f2 3bbe 60ee d7bc
000001f0: 5808 b9bd 8ab6 5dbe 949a be3d 46da 303e
00000200: 3e03 32be 12ea 25be 4aa0 10be 7f99 32be
00000210: d029 af3c 023f 523e 4f2d 763d 41f6 7c3d
00000220: 4cae 62be 2e05 0b3e dfce e7bd 3ede 473e
00000230: 9eb3 593d d0e5 553e d887 c63d 2858 ddbd
00000240: 6ee7 573e 81a9 83bd 58f2 233e c6a6 25bd
00000250: 280c 553e 7e07 8f3e c1c2 4c3e eb0e 28be
00000260: de96 3bbe 0dac 8d3e 3df2 36bd f898 253b
00000270: dca5 103d 0c4e 73be e292 0dbe 8a9e 55be
00000280: 1076 643e 100b edbc de48 5d3e 78ff 10bd
00000290: 6666 113e 30d3 a93d 604f d7bd 1cc5 4ebe
000002a0: a80b a83d cc38 903d dabf 173e 3ab7 72be
000002b0: a014 433c 2053 bf3d 689c 4a3e 6c0d 7b3e
000002c0: e89e 2ebe c068 39bd 41cf 023e c101 24be
000002d0: 6084 bf3c ae21 733e e81c babd a466 3bbe
000002e0: 7caa 443e 0d6d 173d 1754 653e 392a 87bd
000002f0: c536 cd3d 5493 d8bd 7096 d03c 9000 41be
00000300: 4c5c 113e d463 463e b445 053e 861a 593e
00000310: 70d4 b03c ade0 7f3c 706c 3a3e 98cf 8a3d
00000320: 1622 2f3e c387 0fbe c1e8 acbd 0e06 833e
00000330: 8240 603e a4fa 573e de43 77be 00f0 9d3d
00000340: eecc 4fbe 2a46 bbbd bfbc b9bd 8920 4d3c
00000350: b216 23be 6156 153e 1927 14be 9723 5abe
00000360: c095 c53d 8613 943e d068 913e 3b3b 6d3e
00000370: 1936 c93d ac2c aebd 1445 22be 841f 58be
00000380: 9060 823c 8ca6 c53d a8f1 7a3d f024 58be
00000390: 00a5 d13b d013 bd3d e0bb 75be 8437 9abd
000003a0: 8ac4 2abe 0cae 4abe aefc 5fbe b48f 213e
000003b0: 06dc 703e 3015 a0bd da5f 36be 0c19 fabd
000003c0: 00cc dfba 3933 263e 4271 063e b6b2 753e
000003d0: a073 f43c 1882 d8bd 4849 533c 7ffc 663e
000003e0: 4021 ce3d 82ad 76bd 5482 b83d 6fce 883e
000003f0: 261d 17be 803a 05bb b050 51be e689 20be

encoder.2.bias f4 [32]
0.271856 -0.0056290925 0.08521118 -0.10243767 0.052477866 0.1001479 -0.12771419 0.26803395
0.07801581 -0.12781477 -0.058111846 0.23845983 0.25990143 0.23012362 -0.16702831 0.13393319
0.12586224 -0.02082342 -0.06283024 -0.14845225 0.023870714 -0.04459218 0.124744326 -0.18357822
0.256683 0.042540513 -0.22612959 0.18062091 -0.08190128 -0.22454152 -0.23164058 -0.06262515
00000000: b630 8b3e 4074 b8bb 3383 ae3d d7ca d1bd
00000010: 08f3 563d 581a cd3d 82c7 02be bf3b 893e
00000020: c1c6 9f3d e0e1 02be b006 6ebd d02e 743e
00000030: cd11 853e 87a5 6b3e 7809 2bbe c825 093e
00000040: 08e2 003e e095 aabc 24ad 80bd de03 18be
00000050: 848c c33c 4aa6 36bd f479 ff3d eefb 3bbe
00000060: f46b 833e f63e 2e3d 848e 67be b0f4 383e
00000070: dcbb a7bd 36ee 65be 3033 6dbe 9d41 80bd

decoder.0.weight f4 [32, 16, 3, 3]
-0.016933888 0.0030986685 -0.043254755 0.003303627 -0.088073894 -0.054264646 -0.06894842 0.0062722964
-0.061481636 -0.013606542 -0.014281096 -0.03916953 0.077469364 0.11474924 0.05598289 0.05840988
0.07967562 0.1000608 -0.039036315 -0.07490337 -0.0061833635 -0.06460049 -0.02574446 0.075613625
-0.046487074 0.022651352 -0.020228127 -0.0425154 -0.032827795 0.057008043 -0.03782185 -0.08208348
0.02483777 0.0107388785 -0.014321029 0.00087457325 0.023461156 -0.05359721 -0.06696221 0.069939025
-0.049791228 -0.016891383 -0.021827005 -0.023174774 -0.076852106 -0.008601243 0.020263879 0.057144936
0.04871475 -0.048583835 -0.07688176 -0.053756442 0.0023159771 0.05769104 -0.08847007 -0.08369748
0.027411891 -0.04825385 0.03142304 0.044936582 0.04637175 -0.05515713 -0.012389628 0.030683674
-0.042881936 0.047430463 0.07285561 0.06873362 0.08616456 -0.078673355 0.06953009 0.005955249
-0.059288256 0.031626243 -0.005528234 0.040348224 -0.013120912 0.010762923 0.02737891 0.08528254
0.005057819 0.06057306 -0.01927556 -0.032012917 -0.008668314 0.03528267 -0.041473027 0.08431601
0.03387517 0.10809751 -0.021413676 0.025626928 0.018998887 0.007372466 0.08920708 0.08949996
0.03443459 -0.05955171 0.07049265 0.049085822 0.060893714 0.04138183 0.023185637 -0.03583488
-0.0009874778 -0.048961565 -0.04008944 0.029216062 -0.023521928 -0.07972752 0.0076117516 0.022913635
0.006389983 -0.065003514 0.06900648 0.05639226 -0.027167726 0.04147626 0.11845627 0.1042857
0.10318626 -0.07028124 0.032104127 0.009056356 0.07380089 0.0497903 0.092279665 0.082070634
-0.018071769 -0.044218417 -0.03720974 -0.021834506 0.083613314 0.012910819 0.01691009 -0.05658403
-0.030137382 -0.015969088 0.031636544 0.07388086 0.06623873 -0.08291705 -0.0070199855 -0.06281538
0.08007934 0.038988568 0.01610718 0.053288184 0.013832368 0.054850914 0.0361389 -0.021683209
0.07848171 0.023481704 -0.019552656 -0.0019631162 -0.010394752 0.018292636 0.07438526 0.07712317
0.049303062 0.02627647 -0.060658377 -0.028518885 -0.07101691 0.045785703 0.033024706 -0.055789948
-0.031426907 -0.027255606 0.07581761 0.0479443 0.037915133 0.06574566 -0.07776113 -0.052115202
-0.03662338 -0.005393684 0.036689483 0.050451912 0.07389454 -0.032143615 0.04079681 -0.029027425
-0.07929903 0.047640614 -0.07862727 -0.0807498 -0.07977023 -0.07794304 -0.0025836825 0.0057069957
0.047921963 0.061228476 0.04817281 0.08041043 0.063595094 -0.0563534 0.055989124 0.0070769116
-0.07129566 0.0061553717 0.038179748 -0.020567209 0.047631986 -0.008421265 -0.050471764 0.07935237
0.057139046 -0.06247452 0.0072516277 0.017938606 -0.02842924 0.06458122 0.060852252 0.055558465
0.040045135 0.081633456 -0.020957232 0.008358829 0.024440654 0.01528164 -0.020750098 0.020272136
-0.040537767 -0.04989054 -0.05605357 -0.007952683 0.06125524 -0.08192038 0.04756277 -0.054589342
-0.067025855 0.078039564 -0.039473712 -0.049232513 0.04937438 -0.070874415 -0.031454086 0.06239403
0.036883414 0.07878912 0.07290014 0.00115823 -0.027685277 -0.07148116 0.029627465 0.053060316
-0.053886674 -0.013828628 -0.059237234 -0.042602293 -0.051593505 -0.07804799 -0.057920687 0.03166399
00000000: f0b8 8abc 0813 4b3b e62b 31bd aa81 583b
00000010: 1660 b4bd 9b44 5ebd d434 8dbd d687 cd3b
00000020: 2bd4 7bbd f9ed 5ebc 42fb 69bc 3b70 20bd
00000030: 42a8 9e3d a601 eb3d 514e 653d 333f 6f3d
00000040: f92c a33d adec cc3d 8be4 1fbd f066 99bd
00000050: d09d cabb 434d 84bd 0ce6 d2bc 51db 9a3d
00000060: 3b69 3ebd 548f b93c 75b5 a5bc a124 2ebd
00000070: 7076 06bd 4481 693d 16eb 1abd 621b a8bd
00000080: 9478 cb3c 1ff2 2f3c c0a2 6abc 9e43 653a
00000090: 9c31 c03c c088 5bbd 7c23 89bd 313c 8f3d
000000a0: e3f1 4bbd cc5f 8abc 8cce b2bc 06d9 bdbc
000000b0: a364 9dbd 3aec 0cbc 6f00 a63c cf10 6a3d
000000c0: 1e89 473d d8ff 46bd 2f74 9dbd b72f 5cbd
000000d0: a6c7 173b 714d 6c3d cc2f b5bd 9669 abbd
000000e0: e78e e03c d4a5 45bd 72b5 003d 6c0f 383d
000000f0: 4ef0 3d3d 71ec 61bd defd 4abc 545c fb3c
00000100: f8a4 2fbd 7246 423d 5235 953d 36c4 8c3d
00000110: 0b77 b03d 7f1f a1bd cb65 8e3d 4024 c33b
00000120: 3ed8 72bd 858a 013d 3026 b5bb 2e44 253d
00000130: 18f9 56bc f956 303c bc49 e03c 9da8 ae3d
00000140: 10bc a53b 751b 783d c7e7 9dbc fa1f 03bd
00000150: 8b05 0ebc 9084 103d 9fdf 29bd dfad ac3d
00000160: b1c0 0a3d 3a62 dd3d bc6b afbc 90ef d13c
00000170: 8ea3 9b3c ba94 f13b 34b2 b63d c14b b73d
00000180: 490b 0d3d 7eec 73bd 735e 903d 370e 493d
00000190: b06b 793d fe7f 293d ceef bd3c 98c7 12bd
000001a0: 426e 81ba ec8b 48bd d334 24bd 8656 ef3c
000001b0: 0fb1 c0bc 2f48 a3bd 006c f93b 60b5 bb3c
000001c0: 1063 d13b 9020 85bd 4553 8d3d 92fb 663d
000001d0: da8e debc 03e3 293d 3399 f23d be93 d53d
000001e0: 5153 d33d 9cef 8fbd 9e7f 033d 1c61 143c
000001f0: ec24 973d eaf0 4b3d 1ffd bc3d a614 a83d
00000200: 3f0b 94bc 5f1e 35bd 3e69 18bd 47de b2bc
00000210: 753d ab3d e687 533c 0787 8a3c a8c4 67bd
00000220: ace2 f6bc 9bd1 82bc 5295 013d d94e 973d
00000230: 2ca8 873d 6ad0 a9bd e807 e6bb 5aa5 80bd
00000240: a300 a43d 7ab2 1f3d 34f3 833c b644 5a3d
00000250: 28a1 623c 5aab 603d 6206 143d fca0 b1bc
00000260: 05bb a03d b45c c03c e42c a0bc a0a7 00bb
00000270: c04e 2abc 70da 953c 4d57 983d c1f2 9d3d
00000280: 02f2 493d c041 d73c eb74 78bd 70a0 e9bc
00000290: 5071 91bd ca89 3b3d ea44 073d 0084 64bd
000002a0: 80b9 00bd 2647 dfbc 4346 9b3d 3e61 443d
000002b0: e64c 1b3d a9a5 863d 3a41 9fbd c076 55bd
000002c0: 6602 16bd 80bd b0bb b647 163d aaa6 4e3d
000002d0: 0556 973d 06a9 03bd 8e1a 273d ecca edbc
000002e0: 8867 a2bd ce22 433d 5607 a1bd 2760 a5bd
000002f0: 935e a3bd 9aa0 9fbd 0053 29bb c001 bb3b
00000300: d249 443d b6ca 7a3d da50 453d 39ae a43d
00000310: 253e 823d d3d2 66bd da54 653d 70e5 e73b
00000320: 7603 92bd 00b3 c93b 5e62 1c3d 907c a8bc
00000330: c219 433d 58f9 09bc 7bbb 4ebd 7f83 a23d
00000340: a20a 6a3d 48e5 7fbd 109f ed3b fcf3 923c
00000350: 70e4 e8bc 2943 843d 3640 793d 4691 633d
00000360: 5e06 243d 712f a73d 80ae abbc 78f3 083c
00000370: c437 c83c d85f 7a3c 1cfc a9bc c011 a63c
00000380: ee0a 26bd 065a 4cbd 6e98 65bd f84b 02bc
00000390: c6e6 7a3d dfc5 a7bd 2ed1 423d 1399 5fbd
000003a0: da44 89bd 35d3 9f3d 30af 21bd 08a8 49bd
000003b0: ca3c 4a3d 9b26 91bd 00d6 00bd e290 7f3d
000003c0: 1013 173d 315c a13d ab4c 953d c0cf 973a
000003d0: 3ccc e2bc b764 92bd 4cb5 f23c c655 593d
000003e0: 46b8 5cbd 7891 62bc bea2 72bd be7f 2ebd
000003f0: b653 53bd a0d7 9fbd 3e3e 6dbd 1ab2 013d

decoder.0.bias f4 [16]
0.06494241 0.057909008 -0.063256 -0.06338434 -0.052622765 -0.0011522024 0.049485493 0.0031120172
-0.030891249 0.085499585 -0.009027029 0.029954344 -0.034450885 0.04421348 0.06079705 -0.016008731
00000000: 8700 853d ff31 6d3d 5d8c 81bd a6cf 81bd
00000010: f88a 57bd 7f05 97ba 4db1 4a3d fcf2 4b3b
00000020: a50f fdbc 681a af3d 1be6 13bc d062 f53c
00000030: 5f1c 0dbd 3219 353d 5406 793d be24 83bc

decoder.2.weight f4 [16, 1, 3, 3]
0.2208115 0.037550632 -0.071385846 -0.25066024 0.30292892 0.3145027 0.011120178 0.27288347
-0.074178256 0.20251809 -0.28058505 -0.11326316 -0.300389 -0.021091262 -0.083657615 -0.10641927
-0.1418604 0.010190609 0.2370385 0.29644057 -0.005933443 0.0461685 0.037794594 -0.34683898
-0.19461575 0.02024497 0.14928736 -0.11482387 -0.13399282 0.23151483 0.1277366 -0.069565535
0.31566936 0.08998956 0.3025136 -0.20904052 -0.20288937 -0.3307422 0.21001384 0.12328151
-0.21446025 0.017300576 0.02315846 -0.140519 -0.04132542 0.086012505 -0.30764568 0.0005745153
-0.14352255 0.19964021 0.08529575 0.30076107 -0.0826007 -0.09847043 0.0057097916 0.096072406
-0.21126986 0.18428081 -0.044008274 0.22673681 -0.2977131 0.109623455 0.036230244 -0.35592315
0.07340561 -0.094850376 0.0656583 -0.047638655 0.121010296 -0.33676463 -0.1099696 -0.25900525
-0.29940367 -0.097348675 0.0521266 0.1990875 -0.27360308 0.14114688 -0.09300315 -0.2740542
0.01070966 -0.28723457 -0.21241263 -0.28670475 0.127195 -0.12492296 -0.07768909 0.057017103
-0.096821085 0.10364259 0.041581284 -0.13102092 -0.30938908 -0.22877285 -0.19722608 -0.06447136
0.22511207 0.15834267 0.0045455857 0.033563945 0.31474993 0.05874413 0.24467677 -0.11064868
-0.23885171 0.1330262 -0.1846153 -0.13003047 0.081769995 0.32766896 -0.21886958 0.31383514
-0.25303343 0.13656259 -0.05929825 -0.20966375 0.25716758 -0.057848267 0.03112037 -0.10690062
0.11857899 -0.23018718 -0.24315287 -0.29488415 0.06760759 0.19466862 -0.0889253 -0.024734795
-0.1344228 -0.12604478 -0.048485506 -0.2946727 -0.25962552 -0.06459616 -0.061613895 0.10524428
0.29739124 -0.30600107 0.19051571 0.30095837 -0.038384866 -0.14241353 0.11805205 -0.04363435
00000000: 691c 623e b1ce 193d be32 92bd 8a56 80be
00000010: 8019 9b3e 7f06 a13e 6831 363c 62b7 8b3e
00000020: c5ea 97bd e760 4f3e d8a8 8fbe 84f6 e7bd
00000030: 96cc 99be 95c7 acbc af54 abbd 59f2 d9bd
00000040: da43 11be 83f6 263c 38ba 723e 0fc7 973e
00000050: 546d c2bb 2e1b 3d3d 81ce 1a3d e194 b1be
00000060: 5a49 47be c8d8 a53c c9de 183e c728 ebbd
00000070: 6a35 09be 3912 6d3e 62cd 023e 6078 8ebd
00000080: 6a9f a13e 724c b83d 10e3 9a3e b80e 56be
00000090: 3bc2 4fbe 0b57 a9be de0d 573e 047b fc3d
000000a0: 789b 5bbe f0b9 8d3c d0b6 bd3c 36e4 0fbe
000000b0: d844 29bd 5327 b03d bc83 9dbe 129b 163a
000000c0: 93f7 12be 7c6e 4c3e 8aaf ae3d 5bfd 993e
000000d0: 8e2a a9bd ddaa c9bd 3419 bb3b 9cc1 c43d
000000e0: 2057 58be 1cb4 3c3e 0542 34bd b22d 683e
000000f0: da6d 98be 4382 e03d 2a66 143d 8f3b b6be
00000100: ae55 963d ea40 c2bd dc77 863d c020 43bd
00000110: 3fd4 f73d 6a6c acbe be37 e1bd 569c 84be
00000120: 704b 99be be5e c7bd b482 553d 98dd 4b3e
00000130: b415 8cbe cf88 103e 6f78 bebd d550 8cbe
00000140: 9277 2f3c 6910 93be b282 59be f7ca 92be
00000150: 683f 023e 9cd7 ffbd 751b 9fbd c48a 693d
00000160: 224a c6bd 9142 d43d 2351 2a3d 592a 06be
00000170: 3f68 9ebe 6e43 6abe a2f5 49be 8f09 84bd
00000180: c783 663e 9524 223e 23f3 943b 597a 093d
00000190: e726 a13e af9d 703d 8c8c 7a3e c69b e2bd
000001a0: 8b95 74be 0538 083e cb0b 3dbe b526 05be
000001b0: 0777 a73d 3ac4 a73e 591f 60be 00af a03e
000001c0: 998d 81be 10d7 0b3e b9e2 72bd 18b2 56be
000001d0: 78ab 833e 4ef2 6cbd 25f0 fe3c b6ee dabd
000001e0: 8bd9 f23d 30b6 6bbe 11fd 78be 0efb 96be
000001f0: d975 8a3d 3657 473e 781e b6bd a0a0 cabc
00000200: 21a6 09be e211 01be bd98 46bd 57df 96be
00000210: a3ed 84be fe4a 84bd da5e 7cbd 508a d73d
00000220: aa43 983e 2cac 9cbe 8d16 433e 3717 9a3e
00000230: 7339 1dbd dad4 11be 46c5 f13d efb9 32bd
