checkpoints/epoch_2.pth (torch, 24320 bytes, 7 tensors)

encoder.0.weight f4 [16, 1, 1, 1]
0.34384334 0.04433608 0.36787176 0.39862585 -0.7195461 -0.38785025 -0.7086359 -0.65147454
0.09470336 0.25510854 -0.9930496 0.32095137 -0.117904015 -0.3716557 -0.059975225 0.43027794
00000000: 3c0c b03e c099 353d b059 bc3e b018 cc3e
00000010: 2c34 38bf 4f94 c6be 2a69 35bf 09c7 26bf
00000020: d6f3 c13d 969d 823e 8038 7ebf bd53 a43e
00000030: a977 f1bd a849 bebe 95a8 75bd 644d dc3e

encoder.0.bias f4 [16]
-0.8654337 -0.43635404 -0.36707664 0.2947663 0.6416842 0.39316693 0.58595055 0.050661996
0.63096756 0.7040052 -0.28964257 0.6302458 0.91482556 0.37036896 0.5748067 -0.0475783
00000000: 108d 5dbf cc69 dfbe 78f1 bbbe 9ceb 963e
00000010: 6a45 243f 2d4d c93e db00 163f f482 4f3d
00000020: 1787 213f af39 343f 084c 94be ca57 213f
00000030: 0232 6a3f 00a1 bd3e 8826 133f 77e1 42bd

encoder.2.weight f4 [32, 16, 1, 1]
-0.23760915 0.133757 0.049993515 0.13006198 -0.019943237 -0.03667763 0.2126481 0.21305427
-0.11012837 -0.2297653 0.031109035 -0.15172645 -0.007412195 -0.034606606 0.16554081 0.037399113
0.08277583 -0.1430983 -0.24214956 0.1717816 0.1477682 -0.15855002 -0.03485617 -0.054765522
0.08754959 -0.10696308 0.14550456 0.035530794 -0.0069290763 -0.12015217 -0.20404719 0.012655976
0.11741185 0.23285767 -0.09509879 -0.16931218 -0.11942047 0.12406972 0.026911616 -0.10236868
-0.2099315 -0.1177116 -0.0115122795 -0.063593596 0.2162928 -0.050835013 -0.05915752 -0.18316889
-0.113544345 0.025616854 -0.18929759 0.1751713 -0.23606908 0.12544616 0.08467414 0.076134436
0.1888751 -0.004817557 0.11084491 0.029423388 -0.1649151 0.091658026 0.18443906 0.093288794
-0.24507964 -0.041983187 -0.18025029 0.22071253 -0.0816209 0.1322651 -0.0068444456 0.14859496
0.25323007 0.15277277 -0.19875273 -0.15742874 -0.22171573 0.07946689 -0.22593753 0.07266622
0.14617121 0.17210445 0.08327502 0.22443265 -0.18261442 0.11398491 -0.070468396 0.15615308
-0.06894493 0.01918459 -0.16933921 -0.069851875 0.14570752 -0.22138137 -0.08950716 -0.057620555
-0.018040687 0.03485498 -0.061542124 0.24043179 -0.09020361 0.20033929 0.108109206 0.09916657
-0.14001897 -0.23512426 0.08063221 -0.20482638 0.04622495 -0.22920325 -0.22874537 -0.06374416
0.13418645 0.13974082 -0.0018152595 -0.017700149 0.023469824 0.08102445 0.025910126 -0.042789835
0.1874073 -0.08445734 0.23687583 0.13548045 -0.040264424 0.17459765 -0.12205673 0.052685026
0.2235404 0.14384672 -0.20753747 -0.08048277 0.14664306 0.22911967 0.089074664 -0.09433379
-0.14186876 -0.25003102 0.033777416 -0.20793216 0.2100053 0.12144326 0.22164138 -0.1574112
-0.044892937 0.14636463 -0.108686864 0.21079029 -0.12801713 0.1886808 0.19348685 0.0045338958
-0.19630955 0.16448642 0.1992011 0.16447075 -0.18018892 -0.062154118 0.10292282 -0.15875459
0.109876215 0.11783373 0.14999834 0.17552851 0.0018401869 -0.20667459 0.13380505 -0.17281735
-0.19781451 0.032236777 -0.17833298 0.22985137 0.20923422 -0.09176457 -0.11633949 -0.17171712
0.10657865 -0.16251886 0.09589395 0.13095029 -0.059329733 -0.14721064 0.027016679 -0.13237217
-0.025033046 -0.19271302 -0.073149204 -0.110080734 0.19149747 -0.022796843 -0.21276493 -0.18861319
0.08460772 1.3291836e-05 0.08029622 0.18962228 0.088467225 -0.10702845 0.19665442 -0.17738341
-0.022749696 0.1617625 0.18592435 -0.0062443656 -0.10128213 0.028777981 0.25157434 -0.17973387
-0.24281019 -0.18716875 0.10056636 0.05863327 -0.24491921 0.050399162 -0.06623498 -0.21061084
-0.17970742 0.23508959 0.03218782 0.13718235 0.047080826 0.0107304165 -0.028223021 -0.17098089
0.16097978 0.0076268017 0.06895831 -0.1467728 0.10889451 0.18936071 -0.03745567 0.06006926
0.04526014 -0.15742323 0.13226274 -0.060477275 0.08070089 0.087006755 -0.16296822 -0.07310116
0.07463539 -0.041171104 0.10374901 -0.05026555 0.070608705 -0.1340827 -0.09833142 0.21163917
-0.19716543 0.081608474 -0.18943748 -0.20304182 0.06460366 -0.12169978 0.009300441 -0.15866515
00000000: d04f 73be 98f7 083e 00c6 4c3d f82e 053e
00000010: 0060 a3bc 483b 16bd 6cc0 593e e62a 5a3e
00000020: fc8a e1bd 9847 6bbe 60d8 fe3c 2e5e 1bbe
00000030: 00e2 f2bb a8bf 0dbd 8883 293e d02f 193d
00000040: 6086 a93d 5c88 12be 0ef6 77be 84e7 2f3e
00000050: 8c50 173e f05a 22be 58c5 0ebd d051 60bd
00000060: 334d b33d 760f dbbd 26ff 143e bd88 113d
00000070: 4e0d e3bb 5712 f6bd bff1 50be 035b 4f3c
00000080: a075 f03d 3e72 6e3e 28c3 c2bd 2c60 2dbe
00000090: b892 f4bd 4418 fe3d c075 dc3c aca6 d1bd
000000a0: 48f8 56be c812 f1bd 009e 3cbc 5c3d 82bd
000000b0: dc7b 5d3e 6038 50bd 284f 72bd a090 3bbe
000000c0: f089 e8bd 70da d13c 3ad7 41be 1b60 333e
000000d0: 18bc 71be f574 003e a369 ad3d 5fec 9b3d
000000e0: 7968 413e 99dc 9dbb a802 e33d 5109 f13c
000000f0: 81df 28be 34b7 bb3d 98dd 3c3e 320e bf3d
00000100: 28f6 7abe 90f6 2bbd 8893 38be 7702 623e
00000110: dc28 a7bd 8170 073e 5f47 e0bb 4729 183e
00000120: 5fa7 813e 7770 1c3e d685 4bbe 0035 21be
00000130: 7309 63be 89bf a23d 2b5c 67be 07d2 943d
00000140: e8ad 153e 263c 303e 188c aa3d acd1 653e
00000150: 46ff 3abe ec70 e93d bc51 90bd 98e6 1f3e
00000160: 0033 8dbd 0029 9d3c 4267 2dbe 800e 8fbd
00000170: 5a34 153e ccb1 62be 884f b7bd 8803 6cbd
00000180: 10ca 93bc 18c4 0e3d 9813 7cbd c033 763e
00000190: acbc b8bd be25 4d3e 5c68 dd3d d817 cb3d
000001a0: 2261 0fbe 6ac4 70be 8022 a53d 02be 51be
000001b0: 6056 3d3d 42b4 6abe 3a3c 6abe 4c8c 82bd
000001c0: 2c68 093e 3818 0f3e 00ee edba e7ff 90bc
000001d0: ca43 c03c 26f0 a53d 7941 d43c 6544 2fbd
000001e0: b3e7 3f3e f8f7 acbd 948f 723e 63bb 0a3e
000001f0: 4fec 24bd bac9 323e e1f8 f9bd 41cc 573d
00000200: c6e7 643e 8e4c 133e b484 54be 27d4 a4bd
00000210: 9929 163e 599e 6a3e c76c b63d 1332 c1bd
00000220: 0b46 11be 1104 80be 305a 0a3d 2bec 54be
00000230: a10b 573e 3eb7 f83d f5f5 623e 6730 21be
00000240: a8e1 37bd 9ce0 153e 3897 debd 69d9 573e
00000250: ec16 03be 8a35 413e 6b21 463e 1391 943b
00000260: 5f05 49be 216f 283e 60fb 4b3e 056b 283e
00000270: 7283 38be 5195 7ebd 33c9 d23d 9090 22be
00000280: c806 e13d d052 f13d 2a99 193e bfbd 333e
00000290: 6d32 f13a 81a2 53be 3104 093e 08f7 30be
000002a0: e38f 4abe b60a 043d ec9c 36be 285e 6b3e
000002b0: 7f41 563e 10ef bbbd 6643 eebd 9dd6 2fbe
000002c0: e845 da3d 586b 26be 0c64 c43d d517 063e
000002d0: bc03 73bd 63be 16be 1552 dd3c 928c 07be
000002e0: 1a12 cdbc 9056 45be 40cf 95bd 0272 e1bd
000002f0: ea17 443e 72c0 babc 0ddf 59be d123 41be
00000300: d046 ad3d 0000 5f37 5872 a43d 582c 423e
00000310: 4e2e b53d bb31 dbbd c75f 493e ffa3 35be
00000320: 925d babc 12a5 253e f462 3e3e 899d ccbb
00000330: 016d cfbd cdbf eb3c 5ace 803e 280c 38be
00000340: 3ca3 78be 2aa9 3fbe bcf5 cd3d 7129 703d
00000350: 1acc 7abe 5a6f 4e3d 35a6 87bd 5eaa 57be
00000360: 3905 38be 53bb 703e 60d7 033d 8879 0c3e
00000370: d3d7 403d a1ce 2f3c f733 e7bc 9d15 2fbe
00000380: e2d7 243e 40ea f93b 043a 8d3d 9c4b 16be
00000390: 1604 df3d c6e7 413e 1e6b 19bd 2f0b 763d
000003a0: b262 393d 8e33 21be e26f 073e 05b7 77bd
000003b0: 8246 a53d 9930 b23d 24e1 26be 10b6 95bd
000003c0: 70da 983d 08a3 28bd 5c7a d43d 40e3 4dbd
000003d0: 4c9b 903d fa4c 09be fc61 c9bd f0b7 583e
000003e0: bce5 49be 5822 a73d e6fb 41be 32ea 4fbe
000003f0: ec4e 843d bc3d f9bd e060 183c 1e79 22be

encoder.2.bias f4 [32]
-0.11595824 -3.776513e-05 -0.042123318 0.1917765 0.1781669 -0.19664288 0.13036428 0.15658563
0.086437136 -0.014535655 -0.11650236 0.23764648 -0.0470953 -0.002124546 0.07513638 -0.23961276
-0.105930656 -0.24509117 0.24727403 0.08610175 0.18914744 0.041152503 0.15948978 -0.16735472
-0.19725111 0.12028087 0.10970396 0.007885263 0.14560382 0.12496075 0.059447717 -0.1322368
00000000: 847b edbd 0066 1eb8 8089 2cbd 0f61 443e
00000010: 6271 363e c05c 49be 377e 053e fc57 203e
00000020: f405 b13d f526 6ebc ca98 eebd 9959 733e
00000030: 00e7 40bd f83b 0bbb 1ae1 993d 0c5d 75be
00000040: 2cf2 d8bd 2ef9 7abe 6735 7d3e 1d56 b03d
00000050: deaf 413e 878f 283d 4a51 233e 095f 2bbe
00000060: 32fc 49be d155 f63d 78ac e03d 3131 013c
00000070: 2b19 153e 6ceb ff3d 737f 733d 1569 07be

decoder.0.weight f4 [32, 16, 3, 3]
-0.07192081 0.012143195 -0.04130593 0.02872023 0.052492358 -0.014045566 -0.052596122 0.012445144
0.06293184 0.035433985 -0.007784277 0.012084819 -0.015114337 0.040953837 -0.06765985 0.02604314
0.044666074 0.07396617 -0.057669215 -0.06790795 -0.0461936 0.058041118 -0.02558894 0.063320704
0.06543248 -0.03267209 -0.081246614 -0.0031612143 0.011298895 0.05647313 -0.07639413 0.03725347
-0.05103329 -0.02379939 -0.07938966 0.051500387 -0.037343066 -0.047050696 -0.05540971 0.06243416
-0.059058875 0.07438526 0.041780062 0.048099853 0.009805739 -0.041373663 0.06699195 1.553446e-05
0.045488603 -0.01727911 -0.00882224 0.0150178 0.016830705 0.017674915 0.014182799 0.036175154
-0.06375109 0.018488556 -0.06304672 0.03853509 0.035789467 0.04856599 0.06475795 0.056711487
0.0040181875 0.018821925 0.039954804 0.0026148558 -0.08171053 0.048571832 0.054761313 0.060390703
0.029144317 0.01916378 -0.015108526 0.0357626 -0.08070232 -0.07466256 -0.028722934 -0.051032644
-0.027297758 0.06540764 -0.046022795 -0.03329123 0.05636496 0.051903702 0.04724259 -0.050404303
-0.0055972263 -0.083041444 -0.035442255 -0.0017976686 0.020762742 -0.05681914 -0.08056968 0.011949658
-0.05624205 0.007382661 -0.08269456 0.040759273 0.047882207 -0.009513207 -0.073574856 -0.039498072
0.006704502 -0.0073489025 0.0758606 -0.018964328 -0.08062008 -0.08035858 -0.02234146 0.059546612
-0.01670906 -0.04692641 0.0019623116 0.047056086 -0.0013116375 -0.042593263 -0.018674113 -0.07039578
0.027580976 -0.054539412 0.067182995 0.050151832 0.057816453 0.053718023 -0.02806753 -0.07477002
0.08194829 0.0064018145 0.06529235 0.054194905 -0.063413486 0.0021321476 0.03692711 0.043417014
0.011791915 -0.08160579 0.007741131 0.072814025 -0.0061895624 0.07148785 0.04612053 -0.066229306
-0.043528765 0.0060477033 -0.07259848 -0.02644546 -0.057410847 -0.055704426 0.061371036 -0.00699351
0.069531865 0.049570836 0.060307153 0.012981069 -0.06626647 -0.005611874 -0.05667539 -0.055125047
0.05234141 0.00079428114 -0.05955205 0.01361344 -0.06601277 -0.04870817 -0.006250811 0.05054405
-0.056462143 -0.06936295 0.05842816 -0.035938453 0.047427848 -0.0061537027 -0.019959595 0.04465372
-0.00565596 0.0137786865 -0.041616194 -0.045872323 0.014267427 0.06907744 -0.00020651345 0.036916308
0.008869482 -0.02923426 0.070276186 0.06394387 -0.05323416 -0.027788319 -0.023399035 0.06511757
-0.041744053 0.08148726 -0.066997305 0.009174179 -0.018005354 0.01871532 0.05957087 0.04740385
0.0105259195 0.03560099 0.055204906 -0.05908844 0.08210345 0.041423827 -0.029980153 0.070088305
-0.0758713 -0.01639498 -0.047933023 0.014133461 0.0038023219 0.04848952 0.0039077103 -0.0827668
0.04517088 0.07452777 0.074318625 0.075834915 -0.022652991 0.039245263 -0.0076587424 0.04745264
0.027557164 0.04153792 -0.056803375 -0.0024762824 -0.027700543 -0.066597484 -0.018601932 -0.039374243
0.0020891938 0.0587328 -0.014603831 -0.062553145 0.02587486 0.02882641 -0.039334066 0.037667844
0.005990632 -0.051852476 0.020971477 0.06574411 -0.0666145 0.044355966 0.06568571 0.06298483
-0.07090207 0.0051515433 -0.06950374 0.022226281 0.045131363 0.04990869 -0.019480228 0.017565109
00000000: 384b 93bd 40f4 463c 6830 29bd b046 eb3c
00000010: 3a02 573d 601f 66bc 086f 57bd b8e6 4b3c
00000020: 69e2 803d 3a23 113d 4013 ffbb 68ff 453c
00000030: 20a2 77bc 36bf 273d 3f91 8abd 6c58 d53c
00000040: c6f3 363d 937b 973d 8e36 6cbd 5313 8bbd
00000050: 8035 3dbd 86bc 6d3d e69f d1bc 49ae 813d
00000060: 7701 863d 2bd3 05bd a064 a6bd 602c 4fbb
00000070: 001f 393c 5e50 673d 8774 9cbd 1897 183d
00000080: 4808 51bd f0f6 c2bc 0c97 a2bd 12f2 523d
00000090: 0bf5 18bd 3bb8 40bd 4bf5 62bd f6ba 7f3d
000000a0: b8e7 71bd 4d57 983d 9221 2b3d 5a04 453d
000000b0: 40a8 203c 6e77 29bd 1333 893d 0050 8237
000000c0: 4252 3a3d ec8c 8dbc 288b 10bc 380d 763c
000000d0: 8ce0 893c fcca 903c f85e 683c 662c 143d
000000e0: ee8f 82bd 5075 973c a41e 81bd f8d6 1d3d
000000f0: fa97 123d 22ed 463d d19f 843d 4e4a 683d
00000100: 00ab 833b 7030 9a3c a6a7 233d 005e 2b3b
00000110: da57 a7bd 42f3 463d 664d 603d 3e5c 773d
00000120: 10c0 ee3c 5cfd 9c3c c089 77bc ce7b 123d
00000130: 4247 a5bd afe8 98bd 5c4c ebbc 9b07 51bd
00000140: 8c9f dfbc 71f4 853d 6682 3cbd 635c 08bd
00000150: f2de 663d fa98 543d 7281 413d be74 4ebd
00000160: f068 b7bb a211 aabd e62b 11bd c09f ebba
00000170: a016 aa3c 30bb 68bd b701 a5bd 80c8 433c
00000180: 105e 66bd 40ea f13b c45b a9bd 32f3 263d
00000190: 2220 443d 48dd 1bbc 6aae 96bd bbc8 21bd
000001a0: 70b1 db3b 10cf f0bb cd5c 9b3d 145b 9bbc
000001b0: 241c a5bd 0a93 a4bd 7005 b7bc 26e7 733d
000001c0: 70e1 88bc e835 40bd 209a 003b e2bd 403d
000001d0: 40eb abba 4676 2ebd 74fa 98bc aa2b 90bd
000001e0: 80f1 e13c b864 5fbd 3d97 893d 026c 4d3d
000001f0: f2d0 6c3d 6e07 5c3d e0ed e5bc 0621 99bd
00000200: 81d4 a73d 50c6 d13b ffb7 853d 7afb 5d3d
00000210: eede 81bd 80bb 0b3b e240 173d 0ad6 313d
00000220: e032 413c f020 a7bd 50a9 fd3b 851f 953d
00000230: d0d1 cabb 3968 923d e2e8 3c3d 3ba3 87bd
00000240: 384b 32bd d02b c63b 83ae 94bd 26a4 d8bc
00000250: a327 6bbd 532a 64bd 3260 7b3d d029 e5bb
00000260: b966 8e3d ca0a 4b3d a204 773d 8dae 543c
00000270: b7b6 87bd d0e3 b7bb 7424 68bd cdca 61bd
00000280: f263 563d 4e37 503a daec 73bd e80a 5f3c
00000290: b431 87bd 3882 47bd 9ad3 ccbb 4707 4f3d
000002a0: d944 67bd 2a0e 8ebd 5e52 6f3d 3334 13bd
000002b0: b443 423d 00a5 c9bb 4e82 a3bc d2e6 363d
000002c0: a255 b9bb 00c0 613c be75 2abd 9ee4 3bbd
000002d0: edc1 693c 7978 8d3d 888b 58b9 8e35 173d
000002e0: 4e51 113c b07c efbc f6ec 8f3d 01f5 823d
000002f0: 100c 5abd 54a4 e3bc 55af bfbc 5c5c 853d
00000300: d0fb 2abd cbe2 a63d e235 89bd 4c4f 163c
00000310: f77f 93bc df50 993c 9600 743d 8a2a 423d
00000320: e874 2c3c 58d2 113d 8a1e 623d b806 72bd
00000330: db25 a83d 08ac 293d f098 f5bc 758a 8f3d
00000340: 6a62 9bbd c44e 86bc 6b55 44bd 0890 673c
00000350: 6030 793b f29c 463d 400c 803b a481 a9bd
00000360: 1a05 393d 04a2 983d 5d34 983d 564f 9b3d
00000370: c492 b9bc a4bf 203d 30f6 fabb b35d 423d
00000380: 90bf e13c aa23 2a3d a8aa 68bd 2049 22bb
00000390: 40ec e2bc 4364 88bd 1463 98bc e346 21bd
000003a0: dbea 083b ce91 703d e844 6fbc dd1b 80bd
000003b0: 84f7 d33c 5d25 ec3c c21c 21bd 9949 1a3d
000003c0: 104d c43b 4363 54bd 60cc ab3c d9a4 863d
000003d0: 2f6d 88bd 9aae 353d 3b86 863d 31fe 803d
000003e0: 1b35 91bd 47ce a83b fa57 8ebd e413 b63c
000003f0: aadb 383d 0e6d 4c3d 0095 9fbc b4e4 8f3c

decoder.0.bias f4 [16]
-0.029892027 -0.012964917 0.031755757 0.08683469 -0.04709186 0.05733043 -0.05277915 -0.07218248
0.001972987 -0.027535042 0.045611136 0.08593095 -0.06425785 0.07237934 -0.035497427 -0.06744454
00000000: 20e0 f4bc ce6a 54bc 5312 023d 63d6 b13d
00000010: 65e3 40bd 50d3 6a3d f32e 58bd 68d4 93bd
00000020: 3b4d 013b 2b91 e1bc bed2 3a3d 91fc af3d
00000030: 9f99 83bd 9f3b 943d c065 11bd 5d20 8abd

decoder.2.weight f4 [16, 1, 3, 3]
0.108709306 0.13803601 -0.07140723 -0.0537304 -0.09577808 -0.08890259 0.02299869 -0.13389961
0.10428083 -0.2922984 -0.16526222 0.14360388 0.23268275 0.08575295 -0.015737854 0.2614534
0.116136156 0.08577666 -0.21720305 0.288925 -0.015841197 0.25001606 0.09514268 0.18300192
-0.2010586 -0.31381023 0.1434469 -0.10787519 0.2195556 -0.28935608 0.20041229 -0.12853418
-0.27539957 -0.27571866 -0.27846858 0.1593622 -0.058776516 -0.045018513 0.3106976 0.29355106
-0.18875438 0.092867 -0.18145826 0.028916564 0.094276704 -0.14720772 -0.20273137 0.06804709
-0.3002743 -0.06895266 0.053891875 0.05377708 0.1849653 -0.28468922 0.17681244 0.23618576
0.27435854 0.011618108 0.17805931 0.20704195 -0.27344283 -0.05609262 0.0477072 0.18938696
-0.26542035 -0.31924155 0.32781237 -0.19075964 -0.042427056 0.322897 -0.18746583 0.3286748
-0.011329831 -0.2793829 0.31807566 0.32921886 -0.2615603 -0.17524953 -0.12913047 0.30470553
-0.08882524 -0.3240154 -0.23448345 -0.10999229 -0.33153892 -0.29735202 -0.31654656 -0.23283038
-0.32425007 0.011518057 -0.10476585 0.32396337 -0.2691062 -0.17317703 -0.2228549 -0.18459713
-0.2185826 -0.12559843 -0.08460747 -0.20671503 -0.29370672 0.23829347 0.09599475 0.012063967
0.31689242 -0.055396713 -0.24497667 -0.2494705 0.32903013 0.029634032 0.011057245 0.21181229
-0.2097332 0.06930492 0.16418332 -0.08885513 -0.010461769 0.2817975 -0.14249259 -0.32351848
-0.13672087 -0.05725105 -0.22073597 -0.29617152 0.2877231 -0.100328155 -0.22103432 0.036199942
-0.2132798 -0.25947464 0.08048215 -0.2884609 0.14116286 -0.19087705 -0.26085117 -0.03687254
0.13185455 -0.020497069 -0.28628838 0.0651822 0.11692367 0.124920845 -0.18978491 0.2773648
00000000: fca2 de3d 5059 0d3e f43d 92bd 6814 5cbd
00000010: 4c27 c4bd 9012 b6bd c067 bc3c fb1c 09be
00000020: 3091 d53d 23a8 95be 803a 29be e50c 133e
00000030: 6344 6e3e 3e9f af3d acec 80bc 38dd 853e
00000040: cbd8 ed3d acab af3d 7a6a 5ebe faed 933e
00000050: 66c5 81bc 1b02 803e 2ada c23d db64 3b3e
00000060: 4ee2 4dbe bcab a0be bfe3 123e abed dcbd
00000070: 2fd3 603e 7b26 94be e138 4d3e 779e 03be
00000080: 2c01 8dbe ff2a 8dbe 6f93 8ebe d82f 233e
00000090: a5bf 70bd 5565 38bd c113 9f3e 534c 963e
000000a0: d448 41be 0e31 be3d 32d0 39be 6ee2 ec3c
000000b0: 2514 c13d 9fbd 16be d098 4fbe 465c 8b3d
000000c0: 8ebd 99be 0d37 8dbd babd 5c3d 5b45 5c3d
000000d0: 8b67 3d3e c9c2 91be 520e 353e aeda 713e
000000e0: b978 8c3e e059 3e3c 2e55 363e ce02 543e
000000f0: b300 8cbe 60c1 65bd a068 433d a8ee 413e
00000100: 2de5 87be a173 a3be 06d7 a73e 7f56 43be
00000110: fec7 2dbd c152 a53e 0bf7 3fbe 1048 a83e
00000120: c1a0 39bc 470b 8fbe d0da a23e 608f a83e
00000130: 3beb 85be 9d74 33be c73a 04be 5d02 9c3e
00000140: 02ea b5bd 59e5 a5be 6e1c 70be a343 e1bd
00000150: 78bf a9be 863e 98be 6412 a2be 166b 6ebe
00000160: 1b04 a6be 3cb6 3c3c 7a8f d6bd 87de a53e
00000170: 4ac8 89be 5255 31be 1334 64be 0807 3dbe
00000180: 1ed4 5fbe e09c 00be ae46 adbd 1bad 53be
00000190: ba60 96be 3403 743e e598 c43d f2a7 453c
000001a0: b93f a23e aae7 62bd 2adb 7abe 3275 7fbe
000001b0: a376 a83e 12c3 f23c 7229 353c 52e5 583e
000001c0: 4dc4 56be bdef 8d3d ac1f 283e aef9 b5bd
000001d0: d767 2bbc c347 903e 94e9 11be 37a4 a5be
000001e0: 8e00 0cbe 1480 6abd 9c08 62be cba3 97be
000001f0: 7150 933e d978 cdbd d256 62be 6446 143d
00000200: 0566 5abe dcd9 84be d3d3 a43d 26b1 93be
00000210: ff8c 103e 4675 43be 498e 85be a907 17bd
00000220: e104 073e 78e9 a7bc 6494 92be 3f7e 853d
00000230: ad75 ef3d 80d6 ff3d fa56 42be c202 8e3e
