checkpoints/epoch_10.pth (torch, 24780 bytes, 7 tensors)

encoder.0.weight f4 [16, 1, 1, 1]
0	0x3eb00c3c	0.34384334
1	0x3d3599c0	0.04433608
2	0x3ebc59b0	0.36787176
3	0x3ed24a46	0.4107229
4	0xbf351115	-0.7072919
5	0xbecc4451	-0.3989587
6	0xbf32406e	-0.6962956
7	0xbf23f344	-0.6404307
8	0x3da912e5	0.08255557
9	0x3e88d099	0.26721647
10	0xbf7e3880	-0.9930496
11	0x3eaab008	0.33337426
12	0xbdd8c0cd	-0.10583649
13	0xbeb84a4f	-0.35994193
14	0xbd45137f	-0.048114296
15	0x3ed6fe39	0.41990831

encoder.0.bias f4 [16]
0	0xbf5d8d10	-0.8654337
1	0xbedf69cc	-0.43635404
2	0xbebbf178	-0.36707664
3	0x3e9f835f	0.31154916
4	0x3f28950c	0.6585243
5	0x3ec19649	0.3780997
6	0x3f1a5129	0.6028009
7	0x3d83a2cc	0.064275354
8	0x3f1d493d	0.6143988
9	0x3f389515	0.7210248
10	0xbe944c08	-0.28964257
11	0x3f25926b	0.6467654
12	0x3f6e5d68	0.93111277
13	0x3ec4f410	0.38467455
14	0x3f174450	0.5908861
15	0xbd6e17dc	-0.058128223

encoder.2.weight f4 [32, 16, 1, 1]
0	0xbe734fd0	-0.23760915
1	0x3e08f798	0.133757
2	0x3d4cc600	0.049993515
3	0x3e052ef8	0.13006198
4	0xbca36000	-0.019943237
5	0xbd163b48	-0.03667763
6	0x3e59c06c	0.2126481
7	0x3e5a2ae6	0.21305427
8	0xbde18afc	-0.11012837
9	0xbe6b4798	-0.2297653
10	0x3cfed860	0.031109035
11	0xbe1b5e2e	-0.15172645
12	0xbbf2e200	-0.007412195
13	0xbd0dbfa8	-0.034606606
14	0x3e298388	0.16554081
15	0x3d192fd0	0.037399113
16	0x3da98660	0.08277583
17	0xbe12885c	-0.1430983
18	0xbe77f60e	-0.24214956
19	0x3e2f8b7c	0.17143053
20	0x3e17508c	0.1477682
21	0xbe225e4e	-0.15856287
22	0xbd0ec558	-0.03485617
23	0xbd6051d0	-0.054765522
24	0x3db28866	0.08717422
25	0xbddc0b05	-0.10744289
26	0x3e14ff26	0.14550456
27	0x3d0f96ab	0.035055798
28	0xbbf08258	-0.007339757
29	0xbdf61684	-0.12016013
30	0xbe513902	-0.20431903
31	0x3c4c1cf7	0.012458078
32	0x3df075a0	0.11741185
33	0x3e6e723e	0.23285767
34	0xbdc2c328	-0.09509879
35	0xbe2d602c	-0.16931218
36	0xbdf492b8	-0.11942047
37	0x3dfe1844	0.12406972
38	0x3cdc75c0	0.026911616
39	0xbdd1a6ac	-0.10236868
40	0xbe56f848	-0.2099315
41	0xbdf112c8	-0.1177116
42	0xbc3c9e00	-0.0115122795
43	0xbd823d5c	-0.063593596
44	0x3e5d7bdc	0.2162928
45	0xbd503860	-0.050835013
46	0xbd724f28	-0.05915752
47	0xbe3b90a0	-0.18316889
48	0xbde889f0	-0.113544345
49	0x3cd1da70	0.025616854
50	0xbe41d73a	-0.18929759
51	0x3e27e44b	0.1639568
52	0xbe7d33ba	-0.24726763
53	0x3dea01ae	0.114261016
54	0x3d967a38	0.0734753
55	0x3d84f478	0.06491941
56	0x3e35f214	0.17768127
57	0xbc834093	-0.016022002
58	0x3de302a8	0.11084491
59	0x3c953dfa	0.01821803
60	0xbe34571b	-0.17611353
61	0x3da4d0a7	0.0804761
62	0x3e3165fb	0.17324059
63	0x3db29800	0.08720398
64	0xbe7af628	-0.24507964
65	0xbd2bf690	-0.041983187
66	0xbe389388	-0.18025029
67	0x3e72a655	0.23696263
68	0xbd85f3d8	-0.0654065
69	0x3e17f4b5	0.14839442
70	0x3c19926e	0.00937329
71	0x3e290d44	0.16508967
72	0x3e89ebf3	0.26937827
73	0x3e2d0a29	0.16898407
74	0xbe4b85d6	-0.19875273
75	0xbe109ac1	-0.14121534
76	0xbe52722c	-0.20551366
77	0x3dc3f384	0.09567931
78	0xbe56c203	-0.20972447
79	0x3da947fd	0.08265684
80	0x3e15ade8	0.14617121
81	0x3e303c26	0.17210445
82	0x3daa8c18	0.08327502
83	0x3e65d1ac	0.22443265
84	0xbe3aff46	-0.18261442
85	0x3de970ec	0.11398491
86	0xbd9051bc	-0.070468396
87	0x3e1fe698	0.15615308
88	0xbd8d3300	-0.06894493
89	0x3c9d2900	0.01918459
90	0xbe2d6742	-0.16933921
91	0xbd8f0e80	-0.069851875
92	0x3e15345a	0.14570752
93	0xbe62b1cc	-0.22138137
94	0xbdb74f88	-0.08950716
95	0xbd6c0388	-0.057620555
96	0xbc93ca10	-0.018040687
97	0x3d0ec418	0.03485498
98	0xbd7c1398	-0.061542124
99	0x3e7633c0	0.24043179
100	0xbdb8bcac	-0.09020361
101	0x3e4d25be	0.20033929
102	0x3ddd685c	0.108109206
103	0x3dcb17d8	0.09916657
104	0xbe0f6122	-0.14001897
105	0xbe70c46a	-0.23512426
106	0x3da52280	0.08063221
107	0xbe51be02	-0.20482638
108	0x3d3d5660	0.04622495
109	0xbe6ab442	-0.22920325
110	0xbe6a3c3a	-0.22874537
111	0xbd828c4c	-0.06374416
112	0x3e09682c	0.13418645
113	0x3e0f1838	0.13974082
114	0xbaedee00	-0.0018152595
115	0xbcc2ea72	-0.023793433
116	0x3c8e0a65	0.01733894
117	0x3d993675	0.0748109
118	0x3ca20ee1	0.019782485
119	0xbd470e41	-0.048597578
120	0x3e398f6d	0.18121119
121	0xbdb987d1	-0.09059108
122	0x3e728f94	0.23687583
123	0x3e047402	0.12934878
124	0xbd3e13d6	-0.046405636
125	0x3e2c8613	0.1684802
126	0xbe03430a	-0.12818542
127	0x3d5132aa	0.051073708
128	0x3e64e7c6	0.2235404
129	0x3e134c8e	0.14384672
130	0xbe5484b4	-0.20753747
131	0xbdae04d3	-0.08497014
132	0x3e1189b2	0.14212683
133	0x3e65e356	0.22450003
134	0x3dad2f48	0.08456284
135	0xbdc9a743	-0.09846356
136	0xbe15fd50	-0.14647412
137	0xbe8255c2	-0.25456053
138	0x3d0a5a30	0.033777416
139	0xbe598f0e	-0.21245977
140	0x3e5266bc	0.20547003
141	0x3def8087	0.116944365
142	0x3e5e5508	0.21712124
143	0xbe285048	-0.16436875
144	0xbd37e1a8	-0.044892937
145	0x3e15e09c	0.14636463
146	0xbdde9738	-0.108686864
147	0x3e683e5f	0.22680043
148	0xbde57343	-0.11203625
149	0x3e518121	0.20459415
150	0x3e567f6b	0.20947044
151	0x3ca9eace	0.020741846
152	0xbe38b584	-0.18037993
153	0x3e38cc05	0.18046577
154	0x3e4bfb60	0.1992011
155	0x3e38c859	0.18045177
156	0xbe2828cc	-0.16421813
157	0xbd3d2ea6	-0.046187066
158	0x3df3829b	0.118901454
159	0xbe177599	-0.14790954
160	0x3de106c8	0.109876215
161	0x3df152d0	0.11783373
162	0x3e19992a	0.14999834
163	0x3e44c617	0.1921619
164	0x3c971daa	0.018446762
165	0xbe42b13e	-0.19012925
166	0x3e1a061a	0.1504139
167	0xbe1fc5f7	-0.15602861
168	0xbe399ae1	-0.18125488
169	0x3d480e98	0.048842043
170	0xbe369cec	-0.17833298
171	0x3e7c5f93	0.24645834
172	0x3e6740ac	0.22583264
173	0xbd99ed23	-0.07515933
174	0xbdcc40ea	-0.09973319
175	0xbe268e86	-0.16265306
176	0x3dda45e8	0.10657865
177	0xbe266b58	-0.16251886
178	0x3dc4640c	0.09589395
179	0x3e16c28f	0.14722656
180	0xbd3061a5	-0.04306187
181	0xbe0619ab	-0.13095729
182	0x3d314b7b	0.043284874
183	0xbdedc20d	-0.11609278
184	0xbc0fc61b	-0.008775259
185	0xbe34adb5	-0.17644389
186	0xbd95cf40	-0.073149204
187	0xbdc01fff	-0.09381103
188	0x3e54c052	0.2077649
189	0xbbd5c4e4	-0.0065237153
190	0xbe493616	-0.19649538
191	0xbe374698	-0.17898023
192	0x3dad46d0	0.08460772
193	0x375f0000	1.3291836e-05
194	0x3da47258	0.08029622
195	0x3e52c1c2	0.20581725
196	0x3dd643b2	0.104621306
197	0xbdba4d81	-0.09096814
198	0x3e59eb71	0.2128122
199	0xbe24c783	-0.16091733
200	0xbbda7c55	-0.0066676536
201	0x3e362f1e	0.17791411
202	0x3e3e62f4	0.18592435
203	0x3c225bdd	0.009909597
204	0xbdae5eab	-0.0851415
205	0x3d3802d1	0.04492456
206	0x3e891377	0.26772663
207	0xbe2e0cf5	-0.1699713
208	0xbe78a33c	-0.24281019
209	0xbe3fa92a	-0.18716875
210	0x3dcdf5bc	0.10056636
211	0x3d96b423	0.07358577
212	0xbe6b80f8	-0.22998416
213	0x3d85ca38	0.06532711
214	0xbd522045	-0.051300306
215	0xbe48721b	-0.19574778
216	0xbe28b9ab	-0.16477077
217	0x3e800465	0.25003353
218	0x3d03d760	0.03218782
219	0x3e1bc74a	0.15212741
220	0x3d7e0a18	0.062021345
221	0x3cd247af	0.025668947
222	0xbc5999de	-0.013281314
223	0xbe2542c7	-0.16138755
224	0x3e24d7e2	0.16097978
225	0x3bf9ea40	0.0076268017
226	0x3d8d3a04	0.06895831
227	0xbe04d995	-0.12973626
228	0x3e00f140	0.1259203
229	0x3e535111	0.20636393
230	0xbca75b1d	-0.020429188
231	0x3d9df97a	0.077135995
232	0x3d7f0e1d	0.06226932
233	0xbe0fc43b	-0.140397
234	0x3e076fe2	0.13226274
235	0xbd31f8f8	-0.043450326
236	0x3dc823c4	0.09772447
237	0x3dd50fc6	0.10403399
238	0xbe1571c1	-0.14594175
239	0xbd8202be	-0.06348179
240	0x3d98da70	0.07463539
241	0xbd28a308	-0.041171104
242	0x3dd47a5c	0.10374901
243	0xbd4de340	-0.05026555
244	0x3d909b4c	0.070608705
245	0xbe094cfa	-0.1340827
246	0xbdc961fc	-0.09833142
247	0x3e58b7f0	0.21163917
248	0xbe49e5bc	-0.19716543
249	0x3da72258	0.081608474
250	0xbe41fbe6	-0.18943748
251	0xbe4fea32	-0.20304182
252	0x3d844eec	0.06460366
253	0xbdf93dbc	-0.12169978
254	0x3c1860e0	0.009300441
255	0xbe22791e	-0.15866515

encoder.2.bias f4 [32]
0	0xbded7b84	-0.11595824
1	0xbbb2a2dc	-0.0054515433
2	0xbd2c8980	-0.042123318
3	0x3e38f208	0.18061078
4	0x3e4703f2	0.19435099
5	0xbe495cc0	-0.19664288
6	0x3e16d041	0.1472788
7	0x3e19fba9	0.15037407
8	0x3da7ba5f	0.08189844
9	0x3aba3262	0.0014205689
10	0xbdcca21a	-0.09991856
11	0x3e81fec8	0.25389695
12	0xbcfdc26a	-0.030976493
13	0x3c51f660	0.012815088
14	0x3dbcbb66	0.09215431
15	0xbe755d0c	-0.23961276
16	0xbdd8f22c	-0.105930656
17	0xbe7af92e	-0.24509117
18	0x3e87263a	0.26396352
19	0x3dd2440e	0.10266887
20	0x3e4b6570	0.19862914
21	0x3ce0517c	0.027382605
22	0x3e346858	0.17617929
23	0xbe1a0270	-0.15039992
24	0xbe4248b5	-0.18973048
25	0x3def8e7a	0.11697097
26	0x3df8ff97	0.12158125
27	0x3ccb0fdc	0.024787836
28	0x3e0e927d	0.13923068
29	0x3debccd6	0.11513679
30	0x3d9bbff1	0.07604969
31	0xbe0caf6a	-0.1373879

decoder.0.weight f4 [32, 16, 3, 3]
0	0xbd934b38	-0.07192081
1	0x3c46f440	0.012143195
2	0xbd293068	-0.04130593
3	0x3ceb46b0	0.02872023
4	0x3d57023a	0.052492358
5	0xbc661f60	-0.014045566
6	0xbd576f08	-0.052596122
7	0x3c4be6b8	0.012445144
8	0x3d80e269	0.06293184
9	0x3d11233a	0.035433985
10	0xbbff1340	-0.007784277
11	0x3c45ff68	0.012084819
12	0xbc77a220	-0.015114337
13	0x3d27bf36	0.040953837
14	0xbd8a913f	-0.06765985
15	0x3cd5586c	0.02604314
16	0x3d36f3c6	0.044666074
17	0x3d977b93	0.07396617
18	0xbd6c368e	-0.057669215
19	0xbd8b1353	-0.06790795
20	0xbd3d3580	-0.0461936
21	0x3d6dbc86	0.058041118
22	0xbcd19fe6	-0.02558894
23	0x3d81ae49	0.063320704
24	0x3d860177	0.06543248
25	0xbd05d32b	-0.03267209
26	0xbda664a0	-0.081246614
27	0xbb4f2c60	-0.0031612143
28	0x3c391f00	0.011298895
29	0x3d67505e	0.05647313
30	0xbd9c7487	-0.07639413
31	0x3d189718	0.03725347
32	0xbd510848	-0.05103329
33	0xbcc2f6f0	-0.02379939
34	0xbda2970c	-0.07938966
35	0x3d52f212	0.051500387
36	0xbd18f50b	-0.037343066
37	0xbd40b83b	-0.047050696
38	0xbd62f54b	-0.05540971
39	0x3d7fbaf6	0.06243416
40	0xbd71e7b8	-0.059058875
41	0x3d98574d	0.07438526
42	0x3d2b2192	0.041780062
43	0x3d45045a	0.048099853
44	0x3c20a840	0.009805739
45	0xbd29776e	-0.041373663
46	0x3d893313	0.06699195
47	0x37825000	1.553446e-05
48	0x3d3a5242	0.045488603
49	0xbc8d8cec	-0.01727911
50	0xbc108b28	-0.00882224
51	0x3c760d38	0.0150178
52	0x3c89e08c	0.016830705
53	0x3c90cafc	0.017674915
54	0x3c685ef8	0.014182799
55	0x3d142c66	0.036175154
56	0xbd828fee	-0.06375109
57	0x3c977550	0.018488556
58	0xbd811ea4	-0.06304672
59	0x3d1dd6f8	0.03853509
60	0x3d1297fa	0.035789467
61	0x3d46ed22	0.04856599
62	0x3d849fd1	0.06475795
63	0x3d684a4e	0.056711487
64	0x3b83ab00	0.0040181875
65	0x3c9a3070	0.018821925
66	0x3d23a7a6	0.039954804
67	0x3b2b5e00	0.0026148558
68	0xbda757da	-0.08171053
69	0x3d46f342	0.048571832
70	0x3d604d66	0.054761313
71	0x3d775c3e	0.060390703
72	0x3ceec010	0.029144317
73	0x3c9cfd5c	0.01916378
74	0xbc7789c0	-0.015108526
75	0x3d127bce	0.0357626
76	0xbda54742	-0.08070232
77	0xbd98e8af	-0.07466256
78	0xbceb4c5c	-0.028722934
79	0xbd51079b	-0.051032644
80	0xbcdf9f8c	-0.027297758
81	0x3d85f471	0.06540764
82	0xbd3c8266	-0.046022795
83	0xbd085c63	-0.03329123
84	0x3d66def2	0.05636496
85	0x3d5498fa	0.051903702
86	0x3d418172	0.04724259
87	0xbd4e74be	-0.050404303
88	0xbbb768f0	-0.0055972263
89	0xbdaa11a2	-0.083041444
90	0xbd112be6	-0.035442255
91	0xbaeb9fc0	-0.0017976686
92	0x3caa16a0	0.020762742
93	0xbd68bb30	-0.05681914
94	0xbda501b7	-0.08056968
95	0x3c43c880	0.011949658
96	0xbd665e10	-0.05624205
97	0x3bf1ea40	0.007382661
98	0xbda95bc4	-0.08269456
99	0x3d26f332	0.040759273
100	0x3d442022	0.047882207
101	0xbc1bdd48	-0.009513207
102	0xbd96ae6a	-0.073574856
103	0xbd21c8bb	-0.039498072
104	0x3bdbb170	0.006704502
105	0xbbf0cf10	-0.0073489025
106	0x3d9b5ccd	0.0758606
107	0xbc9b5b14	-0.018964328
108	0xbda51c24	-0.08062008
109	0xbda4930a	-0.08035858
110	0xbcb70570	-0.02234146
111	0x3d73e726	0.059546612
112	0xbc88e170	-0.01670906
113	0xbd4035e8	-0.04692641
114	0x3b009a20	0.0019623116
115	0x3d40bde2	0.047056086
116	0xbaabeb40	-0.0013116375
117	0xbd2e7646	-0.042593263
118	0xbc98fa74	-0.018674113
119	0xbd902baa	-0.07039578
120	0x3ce1f180	0.027580976
121	0xbd5f64b8	-0.054539412
122	0x3d89973d	0.067182995
123	0x3d4d6c02	0.050151832
124	0x3d6cd0f2	0.057816453
125	0x3d5c076e	0.053718023
126	0xbce5ede0	-0.02806753
127	0xbd992106	-0.07477002
128	0x3da7d481	0.08194829
129	0x3bd1c650	0.0064018145
130	0x3d85b7ff	0.06529235
131	0x3d5dfb7a	0.054194905
132	0xbd81deee	-0.063413486
133	0x3b0bbb80	0.0021321476
134	0x3d1740e2	0.03692711
135	0x3d31d60a	0.043417014
136	0x3c4132e0	0.011791915
137	0xbda720f0	-0.08160579
138	0x3bfda950	0.007741131
139	0x3d951f85	0.072814025
140	0xbbcad1d0	-0.0061895624
141	0x3d926839	0.07148785
142	0x3d3ce8e2	0.04612053
143	0xbd87a33b	-0.066229306
144	0xbd324b38	-0.043528765
145	0x3bc62bd0	0.0060477033
146	0xbd94ae83	-0.07259848
147	0xbcd8a426	-0.02644546
148	0xbd6b27a3	-0.057410847
149	0xbd642a53	-0.055704426
150	0x3d7b6032	0.061371036
151	0xbbe529d0	-0.00699351
152	0x3d8e66b9	0.069531865
153	0x3d4b0aca	0.049570836
154	0x3d7704a2	0.060307153
155	0x3c2ec9be	0.010668216
156	0xbd91ed59	-0.071253486
157	0xbbb7e3d0	-0.005611874
158	0xbd7cd2ce	-0.061724477
159	0xbd71f5c5	-0.059072275
160	0x3d5663f2	0.05234141
161	0xbb6462ea	-0.0034848996
162	0xbd73ebd2	-0.059551068
163	0x3c59cd5a	0.0132935885
164	0xbd8a87fc	-0.06764218
165	0xbd58f247	-0.05296543
166	0xbc2e189c	-0.0106259845
167	0x3d3d972c	0.046286747
168	0xbd792e06	-0.060834907
169	0xbd8eb5dc	-0.06968281
170	0x3d5ce7a6	0.053931855
171	0xbd133433	-0.035938453
172	0x3d4c9d17	0.0499545
173	0xbbc9a500	-0.0061537027
174	0xbc769e4a	-0.0150523875
175	0x3d4b82b4	0.049685195
176	0xba23de31	-0.00062510656
177	0x3c61c000	0.0137786865
178	0xbd169e2a	-0.03677193
179	0xbd3be49e	-0.045872323
180	0x3c69c464	0.014268015
181	0x3d8ac5a6	0.0677598
182	0xbb13bb05	-0.0022541892
183	0x3d17358e	0.036916308
184	0x3bbe534a	0.0058082687
185	0xbcef7cb0	-0.02923426
186	0x3d86989e	0.06572078
187	0x3d730f36	0.05934068
188	0xbd6d46d4	-0.057928875
189	0xbce3a5c4	-0.027789004
190	0xbcb31d15	-0.021864453
191	0x3d8a34ae	0.06748329
192	0xbd17bd52	-0.037045784
193	0x3db09526	0.08622198
194	0xbd7e7fb7	-0.062133517
195	0x3c3922ed	0.011299831
196	0xbc579867	-0.013158894
197	0x3cb48d5f	0.022040067
198	0x3d740096	0.05957087
199	0x3d422a8a	0.04740385
200	0x3c2c74e8	0.0105259195
201	0x3d11d258	0.03560099
202	0x3d621e8a	0.055204906
203	0xbd7206b8	-0.05908844
204	0x3da825db	0.08210345
205	0x3d29ac08	0.041423827
206	0xbcf598f0	-0.029980153
207	0x3d8f8a75	0.070088305
208	0xbd9b626a	-0.0758713
209	0xbc864ec4	-0.01639498
210	0xbd44556b	-0.047933023
211	0x3c679008	0.014133461
212	0x3b793060	0.0038023219
213	0x3d469cf2	0.04848952
214	0x3b800c40	0.0039077103
215	0xbda981a4	-0.0827668
216	0x3d39051a	0.04517088
217	0x3d9b6ba2	0.07588889
218	0x3d98345d	0.074318625
219	0x3d9a3c86	0.07531075
220	0xbcab1430	-0.02088365
221	0x3d1e4193	0.038636755
222	0xbbfaf630	-0.0076587424
223	0x3d3b4481	0.045719627
224	0x3ce1bf90	0.027557164
225	0x3d2a23aa	0.04153792
226	0xbd5b21ea	-0.05349914
227	0xbb224920	-0.0024762824
228	0xbce2ec40	-0.027700543
229	0xbd88602c	-0.06658968
230	0xbc986314	-0.018601932
231	0xbd2146e3	-0.039374243
232	0x3bebd1c3	0.0071966364
233	0x3d7091ce	0.0587328
234	0xbc6f44e8	-0.014603831
235	0xbd7638cd	-0.060112763
236	0x3cd3f784	0.02587486
237	0x3d0af1ba	0.033921935
238	0xbd0c0132	-0.034180827
239	0x3d2f87cd	0.04285412
240	0x3bc44d10	0.005990632
241	0xbd408bde	-0.047008388
242	0x3cabcc60	0.020971477
243	0x3d86a4b4	0.065743834
244	0xbd857f4e	-0.06518422
245	0x3d3d8283	0.046267044
246	0x3d8d4443	0.068977855
247	0x3d881127	0.066438965
248	0xbd89523c	-0.06705138
249	0x3c19f3c0	0.009396493
250	0xbd8527b4	-0.065017134
251	0x3cdac971	0.026707383
252	0x3d38dbaa	0.045131363
253	0x3d4c6d0e	0.04990869
254	0xbc9f9500	-0.019480228
255	0x3c8fe19a	0.01756363

decoder.0.bias f4 [16]
0	0xbcf32da3	-0.029684847
1	0xbcaf5e6d	-0.02140733
2	0x3cc3a4a9	0.023882227
3	0x3dd3418b	0.10315236
4	0xbd691dac	-0.056913063
5	0x3d95cd11	0.07314504
6	0xbd639f5e	-0.055571906
7	0xbda0688c	-0.07832441
8	0x3c57b270	0.013165101
9	0xbc35e47a	-0.011101836
10	0x3d7b385c	0.061333045
11	0x3dd1e877	0.10249417
12	0xbd92d647	-0.071697764
13	0x3db475ab	0.08811506
14	0xbcc87488	-0.024469629
15	0xbd90e2c5	-0.07074503

decoder.2.weight f4 [16, 1, 3, 3]
0	0x3dde9e26	0.10870008
1	0x3e0d565c	0.13802475
2	0xbd924324	-0.07141712
3	0xbd5c1c19	-0.053737734
4	0xbdc42cc7	-0.09578853
5	0xbdb6182c	-0.08891329
6	0x3cbc5a36	0.022992235
7	0xbe091f95	-0.13390954
8	0x3dd58eb3	0.10427608
9	0xbe98fa7e	-0.2987861
10	0xbe2fe0a9	-0.17175545
11	0x3e0c6e4e	0.13713953
12	0x3e679925	0.22617014
13	0x3da23c63	0.07921674
14	0xbcb64366	-0.022248935
15	0x3e828bd7	0.25497314
16	0x3de07e41	0.10961581
17	0x3da2811d	0.07934783
18	0xbe647b8b	-0.22312753
19	0x3e90d9ee	0.28291267
20	0xbcb2b8a0	-0.021816552
21	0x3e79d5fe	0.24398038
22	0x3db6708f	0.089081876
23	0x3e353620	0.17696428
24	0xbe541131	-0.20709683
25	0xbea3c6ac	-0.31987512
26	0x3e0cbd09	0.13743986
27	0xbdff1051	-0.12454284
28	0x3e4f6ea2	0.20257047
29	0xbe9cbd4a	-0.30613166
30	0x3e3bdfad	0.18347044
31	0xbe14ff5e	-0.1455054
32	0xbe95a8b6	-0.2923028
33	0xbe95ae48	-0.2923453
34	0xbe97429c	-0.29543006
35	0x3e1201b3	0.1425846
36	0xbd8ee608	-0.06977469
37	0xbd666f8e	-0.05625873
38	0x3e997287	0.2997019
39	0x3e90abdf	0.28256127
40	0xbe4cf0e2	-0.20013765
41	0x3da738bf	0.0816512
42	0xbe453042	-0.1925669
43	0x3c8f15c6	0.017466437
44	0x3daaf70f	0.08347904
45	0xbe281b7b	-0.16416733
46	0xbe611a00	-0.21982574
47	0x3d513d57	0.05108389
48	0xbea27ab8	-0.31734252
49	0xbdb03e61	-0.08605648
50	0x3d16c49e	0.036808603
51	0x3d16c994	0.036813334
52	0x3e2be39d	0.16786046
53	0xbe9a6cb1	-0.3016105
54	0x3e34d39e	0.1765885
55	0x3e718ee9	0.23589672
56	0x3e8c5b08	0.274132
57	0x3c39db91	0.011343853
58	0x3e360f8d	0.1777937
59	0x3e53c3b8	0.2068013
60	0xbe8c1834	-0.27362216
61	0xbd66ddbd	-0.05636381
62	0x3d4277e7	0.04747763
63	0x3e3ce40a	0.18446365
64	0xbe8a6f5a	-0.2703808
65	0xbea5fa72	-0.32417637
66	0x3ea54d66	0.32285613
67	0xbe486a7a	-0.19571868
68	0xbd4203cf	-0.047366913
69	0x3ea2cf1a	0.3179863
70	0xbe450ce4	-0.19243199
71	0x3ea5c195	0.32374254
72	0xbcdbcb2e	-0.026830282
73	0xbe974d48	-0.29551148
74	0x3e9b04fc	0.3027724
75	0x3ea06975	0.31330457
76	0xbe8e2234	-0.2776047
77	0xbe43b277	-0.19111048
78	0xbe141ab0	-0.14463305
79	0x3e93d7f0	0.28875685
80	0xbdd5d397	-0.10440748
81	0xbeae963a	-0.3409899
82	0xbe80d26a	-0.25160533
83	0xbe021573	-0.12703495
84	0xbeb282fe	-0.34865564
85	0xbea1026f	-0.3144717
86	0xbeaad0db	-0.3336247
87	0xbe7fbd96	-0.24974665
88	0xbeaec851	-0.34137204
89	0xbbb5e4b5	-0.0055509456
90	0xbdf93ec5	-0.121701755
91	0x3e9d1f25	0.30687824
92	0xbe926f84	-0.28600705
93	0xbe42cec7	-0.19024192
94	0xbe75b007	-0.2399293
95	0xbe4e7a34	-0.20163804
96	0xbe71217d	-0.23547931
97	0xbe1215fc	-0.14266199
98	0xbdcffe8a	-0.10155971
99	0xbe652251	-0.22376372
100	0xbe9f2693	-0.31084117
101	0x3e629136	0.22125706
102	0x3da18b13	0.078878544
103	0xbba637dd	-0.0050725774
104	0x3e997b79	0.29977015
105	0xbd946661	-0.0724609
106	0xbe863385	-0.2621118
107	0xbe8872c8	-0.2665007
108	0x3ea53f8a	0.3227504
109	0x3cbef53d	0.023310298
110	0x3b9f10bf	0.004854291
111	0x3e527e54	0.20556003
112	0xbe5d3838	-0.21603477
113	0x3d811590	0.06302941
114	0x3e21b51d	0.15791745
115	0xbdc2d51e	-0.09513305
116	0xbc88b540	-0.01668799
117	0x3e87c8fe	0.26520532
118	0xbe233424	-0.15937859
119	0xbeae2134	-0.34009707
120	0xbe1d33cb	-0.15351789
121	0xbd97dfee	-0.07415758
122	0xbe7342d0	-0.23755956
123	0xbea02773	-0.31280097
124	0x3e8aa70d	0.27080575
125	0xbdef5cd0	-0.116876245
126	0xbe6a5eb5	-0.2288769
127	0x3ce8250c	0.028337978
128	0xbe6275ad	-0.22115202
129	0xbe88e343	-0.26735887
130	0x3d94ba68	0.07262117
131	0xbe97b8e8	-0.2963326
132	0x3e087923	0.1332746
133	0xbe4b8051	-0.19873168
134	0xbe899dbd	-0.26878157
135	0xbd1ab20b	-0.03776745
136	0x3e05c9db	0.13065283
137	0xbcafdec9	-0.021468537
138	0xbe93346c	-0.28750932
139	0x3d82d6f3	0.063886546
140	0x3decd2c0	0.11563635
141	0x3dfd5655	0.12369982
142	0xbe43aa46	-0.19107923
143	0x3e8d63fc	0.27615345
