checkpoints/epoch_3.pth (torch, 24320 bytes, 7 tensors)

encoder.0.weight f4 [16, 1, 1, 1]
-0.72116816 0.006669879 0.6282488 0.2190127 -0.87134886 0.8918962 -0.82249165 0.7725556
0.27278015 0.5426651 -0.8596716 0.61444545 -0.6047492 -0.570673 -0.32872164 -0.5994334
00000000: 7a9e 38bf 008f da3b ead4 203f dd44 603e
00000010: b810 5fbf 4f53 643f d08e 52bf 34c6 453f
00000020: d7a9 8b3e 1aec 0a3f 7013 5cbf 4c4c 1d3f
00000030: d8d0 1abf a017 12bf 344e a8be 7874 19bf

encoder.0.bias f4 [16]
-0.7249266 -0.70742166 -0.43418568 0.98433095 -0.73790634 0.03497463 -0.27415347 -0.2897569
0.6475983 -0.08564952 0.54151225 0.8553671 -0.3648888 -0.39771044 -0.31396592 0.49671316
00000000: ca94 39bf 9619 35bf 964d debe 1dfd 7b3f
00000010: 6ee7 3cbf 8f41 0f3d d85d 8cbe 045b 94be
00000020: 01c9 253f 0469 afbd 8ca0 0a3f 57f9 5a3f
00000030: b4d2 babe b4a0 cbbe 24c0 a0be 3051 fe3e

encoder.2.weight f4 [32, 16, 1, 1]
0.068062425 -0.17291433 0.057792723 -0.20577013 0.01962927 0.13737598 0.10905653 -0.11100277
-0.10534653 0.11459258 0.061252177 -0.17762008 0.026655644 0.15618092 -0.19202116 0.044554293
0.14166203 0.23120332 0.069037974 -0.16455224 0.2049165 -0.13024256 -0.1094825 0.11742157
-0.15250504 0.073910624 -0.16808352 -0.15970582 -0.08070305 0.028308213 -0.035516202 -0.14316675
-0.042739034 -0.24546227 -0.08868009 0.001355797 -0.19564044 0.17850351 0.06798923 -0.105941325
-0.21795511 0.22010282 -0.14415836 -0.053788662 -0.14481184 0.11683494 -0.027861893 0.06721115
0.22043237 -0.056322813 -0.032155573 0.006175846 -0.17384407 -0.02884999 0.053735137 0.23553017
0.23792389 0.06943926 -0.09025478 -0.23279628 -0.18910798 -0.17474237 0.095074564 0.07796726
0.22699773 -0.24128425 0.13937491 -0.09394166 -0.1691527 -0.15734246 -0.04664889 -0.08326578
-0.06371978 0.13683075 0.235966 -0.14405778 0.24315208 -0.19710946 0.07364583 -0.14223921
0.047119766 0.018585533 0.13261503 -0.11778295 -0.20918146 -0.15575153 0.11793092 -0.21836883
-0.026429474 0.07111767 0.20946726 0.15955904 0.0011065304 -0.19938901 -0.2254945 -0.2427355
0.0057935417 0.09872392 0.085545406 0.021734903 0.2181409 -0.032780502 0.08924812 0.016201956
0.12389008 -0.025119288 -0.18767877 -0.07460471 0.12558314 -0.15534732 -0.12801066 -0.137661
0.09072772 -0.01554054 -0.2222754 -0.07319209 -0.046188086 -0.1576555 0.15909201 -0.18384096
-0.22099355 0.10114336 0.20134997 -0.12396747 -0.1868571 -0.066527456 0.17427999 0.18626648
0.18291992 0.02317664 0.19538346 -0.043684155 0.1680224 -0.18412042 0.09004092 -0.24223775
-0.2172437 0.11530024 -0.21284193 -0.157446 -0.037191898 0.10506135 0.12742993 -0.15773574
-0.01956153 -0.1471042 0.045914322 -0.057156444 -0.21794891 0.01487869 0.07879943 0.22719583
-0.23761237 0.16003096 0.046304435 -0.1987086 -0.10033992 -0.036715478 0.015685141 0.06157899
0.08845654 0.012567997 0.14002618 -0.03443589 0.19897553 0.15524931 -0.22718987 0.24036998
0.028140906 0.22304115 0.030444127 0.11060559 0.077383846 -0.24610174 -0.19326049 -0.040884748
-0.088727385 -0.061206132 -0.025091387 0.017593583 0.14449194 -0.102190726 -0.19000566 0.21668094
-0.2308768 0.22449781 -0.12815095 0.15355594 0.13278544 0.13729379 0.15229616 -0.12559533
-0.10142416 -0.016774118 0.24738662 -0.0089009395 -0.19367996 -0.19875236 -0.21083641 0.1574546
-0.10006366 0.22769782 0.05874176 0.097866215 0.06161931 -0.016878247 0.16643769 0.043547865
0.2262946 -0.14330411 0.15487382 -0.13279724 0.07971582 -0.01813361 0.14352116 -0.015470237
-0.027079701 0.017946184 0.20622307 -0.07386032 -0.033100516 0.012914717 -0.09743968 -0.17124894
0.23827171 0.14703944 0.059622206 -0.10262342 0.07836741 0.035756715 -0.23301914 -0.19605361
0.21324655 0.10206239 -0.22464123 0.20380892 0.12132549 -0.12659502 0.100177854 -0.01715444
-0.08848351 -0.06428206 0.06900698 -0.08737108 0.12719274 -0.008529514 -0.0033060312 0.11465973
0.12784666 0.14848247 0.055743247 -0.20326614 0.13770604 -0.039374918 0.06700143 0.06370661
00000000: 5064 8b3d 7410 31be 10b8 6c3d 68b5 52be
00000010: 90cd a03c 4aac 0c3e 0859 df3d 6c55 e3bd
00000020: ecbf d7bd 84af ea3d 90e3 7a3d 0ae2 35be
00000030: f05c da3c e4ed 1f3e 32a1 44be 907e 363d
00000040: da0f 113e 90c0 6c3e c863 8d3d 6280 28be
00000050: a2d5 513e 4e5e 05be 5c38 e0bd b87a f03d
00000060: 482a 1cbe 745e 973d 161e 2cbe ec89 23be
00000070: a447 a5bd a0e6 e73c 7079 11bd 4e9a 12be
00000080: 200f 2fbd 765a 7bbe e89d b5bd 00b5 b13a
00000090: f855 48be a0c9 363e f03d 8b3d c4f7 d8bd
000000a0: a02f 5fbe a262 613e 409e 13be 8051 5cbd
000000b0: 8e49 14be 2847 ef3d a03e e4bc 00a6 893d
000000c0: 06b9 613e c0b2 66bd 90b5 03bd c05e ca3b
000000d0: 2e04 32be d056 ecbc 6019 5c3d d22e 713e
000000e0: 52a2 733e 2c36 8e3d 80d7 b8bd 2662 6ebe
000000f0: 86a5 41be aaef 32be 74b6 c23d 4cad 9f3d
00000100: 1872 683e 3813 77be 4cb8 0e3e 7c64 c0bd
00000110: 5e36 2dbe 621e 21be e812 3fbd 4087 aabd
00000120: 847f 82bd 5c1d 0c3e 12a1 713e e283 13be
00000130: dcfc 783e 10d7 49be a0d3 963d 28a7 11be
00000140: a800 413d b040 983c 3ccc 073e 3038 f1bd
00000150: aa33 56be 547d 1fbe c485 f13d 149c 5fbe
00000160: a082 d8bc 24a6 913d 967e 563e 7263 233e
00000170: 0009 913a a22c 4cbe 08e8 66be a88f 78be
00000180: c0d7 bd3b c42f ca3d 6e32 af3d 650d b23c
00000190: 5460 5f3e d944 06bd b8c7 b63d f7b9 843c
000001a0: 15ba fd3d f7c6 cdbc dd2e 40be 5bca 98bd
000001b0: de98 003e 5e13 1fbe 3a15 03be 01f7 0cbe
000001c0: 74cf b93d c09d 7ebc 2a9c 63be bce5 95bd
000001d0: b82f 3dbd 7270 21be 04e9 223e ce40 3cbe
000001e0: 224c 62be 4024 cf3d b02e 4e3e a8e2 fdbd
000001f0: 7857 3fbe 8c3f 88bd 7476 323e a4bc 3e3e
00000200: 5c4f 3b3e f0dc bd3c 9a12 483e 28ee 32bd
00000210: 100e 2c3e 108a 3cbe 6067 b83d 2c0d 78be
00000220: 2275 5ebe 8822 ec3d 3cf3 59be 8639 21be
00000230: 8856 18bd 682a d73d fe7c 023e 7a85 21be
00000240: 803f a0bc 7ca2 16be a810 3c3d e01c 6abd
00000250: 002e 5fbe c0c5 733c 9861 a13d 06a6 683e
00000260: a850 73be 28df 233e b8a9 3d3d 447a 4bbe
00000270: 047f cdbd f862 16bd 207e 803c 403a 7c3d
00000280: b428 b53d 00ea 4d3c 0663 0f3e a60c 0dbd
00000290: 3ec0 4b3e adf9 1e3e 76a4 68be 8c23 763e
000002a0: c287 e63c e664 643e f665 f93c 2f85 e23d
000002b0: 6c7b 9e3d 1802 7cbe 14e6 45be c476 27bd
000002c0: b4b6 b5bd 48b3 7abd 748c cdbc 6b20 903c
000002d0: b2f5 133e 5f49 d1bd d890 42be 9ce1 5d3e
000002e0: f86a 6cbe c1e2 653e 013a 03be c53d 1d3e
000002f0: e8f8 073e be96 0c3e 86f3 1b3e 109c 00be
00000300: 78b7 cfbd e069 89bc eb52 7d3e 3fd5 11bc
00000310: 0a54 46be bd85 4bbe 80e5 57be c73b 213e
00000320: 2dee ccbd 9e29 693e 339b 703d 156e c83d
00000330: 8864 7c3d 4044 8abc a46e 2a3e 3f5f 323d
00000340: c6b9 673e 50be 12be 3e97 1e3e 00fc 07be
00000350: 0c42 a33d f08c 94bc 36f7 123e e076 7dbc
00000360: 40d6 ddbc e003 933c 242c 533e 1444 97bd
00000370: 6894 07bd 4098 533c 748e c7bd e25b 2fbe
00000380: 80fd 733e 8291 163e 6a36 743d 3a2c d2bd
00000390: 187f a03d a275 123d 929c 6ebe 47c2 48be
000003a0: 4e5d 5a3e 1606 d13d 5a08 66be 49b3 503e
000003b0: 8079 f83d 20a2 01be 0c2a cd3d 7887 8cbc
000003c0: d836 b5bd 50a6 83bd 8853 8d3d 9cef b2bd
000003d0: d03e 023e 60bf 0bbc 00aa 58bb b8d2 ea3d
000003e0: 3cea 023e ca0b 183e 0853 643d 0025 50be
000003f0: d002 0d3e 9847 21bd 0c38 893d 9c78 823d

encoder.2.bias f4 [32]
0.12627159 -0.23808485 -0.08362195 -0.043650478 0.033005606 -0.128842 0.18349 0.05327293
-0.11105695 -0.14023662 0.0082238205 0.24224035 0.06456455 -0.086575866 0.021009253 -0.06986186
0.22118562 0.14042811 0.092081256 0.0081789885 -0.15032172 0.074666455 -0.11986518 0.1665655
0.11909993 0.10031085 0.15175737 -0.054841936 0.024819642 0.17703237 -0.08703703 -0.18561298
00000000: 574d 013e 84cc 73be fc41 abbd d8ca 32bd
00000010: e330 073d 28ef 03be cde4 3b3e b734 5a3d
00000020: d471 e3bd 309a 0fbe 34bd 063c db0d 783e
00000030: 6b3a 843d b04e b1bd 991b ac3c bc13 8fbd
00000040: 7c7e 623e 63cc 0f3e 1995 bc3d 2a01 063c
00000050: f0ed 19be baea 983d e07b f5bd 2590 2a3e
00000060: aaea f33d c66f cd3d 4966 1b3e f0a1 60bd
00000070: 9052 cb3c f947 353e 7840 b2bd 5411 3ebe

decoder.0.weight f4 [32, 16, 3, 3]
-0.013754524 0.001206663 0.023771258 -0.02724278 0.0069946945 0.060748376 0.04866929 -0.05396465
-0.07806626 -0.054654263 0.07467617 0.037110224 0.016876515 0.041359518 -0.0037203259 -0.060811248
-0.037735708 -0.030143838 0.051169716 -0.017524945 0.040513616 -0.0755404 -0.019715786 0.027019085
-0.06990014 0.028529013 -0.010396835 -0.07438748 0.028431505 -0.0008120313 0.0097697005 -0.028075395
0.0043617897 0.022875793 -0.031361394 -0.030095499 0.046855442 0.074058026 -0.08231231 0.033646293
0.009188019 -0.04231305 0.06368334 -0.04344487 -0.07985625 -0.073146865 0.039948903 0.009710845
0.063456066 0.07592829 0.036945507 0.01951797 -0.054965284 -0.05681937 0.07316498 -0.03856697
-0.04880827 0.010926306 -0.015047401 -0.046369843 -0.049218845 -0.04731586 -0.038960658 -0.06472008
0.030218067 0.042555414 0.0301788 0.04340728 0.034627326 0.07531122 -0.06888981 -0.042971328
0.031229317 -0.0490279 0.05077978 -0.01990019 0.02438094 -0.002600026 0.051320583 -0.049669325
-0.024464238 -0.081682794 -0.04347555 0.05825183 -0.06335773 -0.0055249706 -0.0021283333 0.04958014
-0.0015837007 0.04130693 -0.06875396 0.042925913 0.0066468515 0.04374716 0.055832975 0.016614899
0.05334367 -0.03250453 -0.026489066 -0.047148596 -0.009445913 0.03182485 0.06764511 -0.031590175
0.07753425 0.04908731 -0.040290147 0.073891975 0.043967463 -0.070632845 0.03929144 0.018670637
0.071555994 0.055013344 0.0028619722 0.04293596 -0.04777767 -0.0028419718 -0.079847634 0.051994126
-0.060541302 0.0032417998 0.029433958 -0.05152414 -0.01836466 -0.013240429 -0.041369736 -0.029245656
-0.07409509 0.020859323 -0.035757314 -0.07108523 -0.04464261 0.055479303 -0.02604897 0.014899544
-0.06544685 -0.0070293252 0.08709476 0.03175228 0.08484594 0.028050387 -0.07515589 -0.03736349
-0.045413118 -0.008574598 0.06465662 0.061438 -0.047278196 0.07339897 -0.07984133 0.08205069
0.06858624 -0.031579375 -0.05070902 0.067916326 0.042626 -0.0022080243 -0.014700942 -0.05060069
-0.016750075 0.058825783 -0.043892603 0.027415663 0.049881615 -0.046901286 -0.055082135 0.022284329
-0.023167145 -0.06901487 0.076803066 0.08154435 0.08274371 -0.0031525418 -0.04453227 0.07901042
-0.015274666 0.08003918 -0.06509997 -0.0014905259 0.082882054 0.06695665 0.043388672 -0.062216245
-0.07988133 -0.07521947 0.06269934 -0.0038789734 0.0031082109 -0.06436675 0.0400664 0.07750297
-0.031603675 -0.051728636 0.007824443 -0.000228405 -0.0643747 -0.018961363 0.07846197 -0.07684445
0.051507704 0.0074419454 -0.02001626 -0.014538936 0.043936037 0.060506456 0.008735128 -0.03054738
0.017380327 0.04729662 -0.0006303787 0.008196175 0.06358371 0.015524335 -0.0122953355 0.052848555
0.04556606 -0.058614306 -0.061900966 -0.046520196 -0.07821284 -0.01848913 -0.02872178 0.0077858493
-0.07056295 0.03942872 0.028124206 -0.028377812 -0.063012175 0.046481557 -0.041003726 -0.058980376
0.04013177 0.080900855 -0.059386443 -0.07029177 0.080108516 0.040352114 -0.019822925 0.007139258
0.0276981 -0.05845692 -0.069826886 -0.019938506 -0.049672842 0.031530023 0.054724865 0.038176633
-0.027982205 0.008040369 0.050665848 -0.07383054 0.03162133 -0.018252172 0.005614482 -0.040523212
00000000: a85a 61bc e428 9e3a f1bb c23c 402c dfbc
00000010: c033 e53b 4ad3 783d 7359 473d 090a 5dbd
00000020: 34e1 9fbd 26dd 5fbd d2ef 983d e400 183d
00000030: 9e40 8a3c 9968 293d b6d0 73bb 3715 79bd
00000040: c290 1abd 36f0 f6bc 5697 513d 7990 8fbc
00000050: 9bf1 253d edb4 9abd 0083 a1bc 2157 dd3c
00000060: ce27 8fbd adb5 e93c 7d57 2abc 7758 98bd
00000070: 30e9 e83c 80de 54ba 1811 203c 5ffe e5bc
00000080: 58ed 8e3b 0466 bb3c ce74 00bd d68a f6bc
00000090: 7eeb 3f3d bcab 973d 5b93 a8bd b2d0 093d
000000a0: 5889 163c 7350 2dbd 696c 823d 3ff3 31bd
000000b0: ac8b a3bd 06ce 95bd 76a1 233d 3c1a 1f3c
000000c0: 41f5 813d 4b80 9b3d 2c54 173d 26e4 9f3c
000000d0: 4723 61bd 6dbb 68bd 85d7 953d 66f8 1dbd
000000e0: 2eeb 47bd 4004 333c 6089 76bc 4eee 3dbd
000000f0: b399 49bd 46ce 41bd 3695 1fbd f68b 84bd
00000100: e18b f73c 964e 2e3d 8839 f73c d5cb 313d
00000110: 62d5 0d3d c53c 9a3d 1a16 8dbd b402 30bd
00000120: a0d4 ff3c 7bd1 48bd 75fe 4f3d b905 a3bc
00000130: 89ba c73c 3365 2abb 8835 523d 1072 4bbd
00000140: 3a69 c8bc 4f49 a7bd 6b13 32bd 7999 6e3d
00000150: b3c1 81bd d00a b5bb 827b 0bbb 8b14 4b3d
00000160: 2d94 cfba 7531 293d e0ce 8cbd 15d3 2f3d
00000170: d5cd d93b 3930 333d 1eb1 643d f81b 883c
00000180: e47e 5a3d 7823 05bd 99ff d8bc e31e 41bd
00000190: 08c3 1abc c65a 023d 8589 8a3d b364 01bd
000001a0: 47ca 9e3d c60f 493d 4807 25bd ad54 973d
000001b0: 3a17 343d f4a7 90bd 10f0 203d 2af3 983c
000001c0: f38b 923d ac55 613d ed8f 3b3b 9edd 2f3d
000001d0: 85b2 43bd 6040 3abb 2887 a3bd cbf7 543d
000001e0: 28fa 77bd 6074 543b 7c1f f13c fa0a 53bd
000001f0: 7c71 96bc 62ee 58bc 5073 29bd 9694 efbc
00000200: 2bbf 97bd 2ce1 aa3c 4376 12bd 2295 91bd
00000210: 2bdb 36bd 443e 633d a664 d5bc 381d 743c
00000220: 0009 86bd 4156 e6bb bd5e b23d ae0e 023d
00000230: b5c3 ad3d edc9 e53c 55eb 99bd 750a 19bd
00000240: 1b03 3abd 787c 0cbc b16a 843d 6aa6 7b3d
00000250: c8a6 41bd 3352 963d da83 a3bd 310a a83d
00000260: f176 8c3d 6059 01bd 43b4 4fbd b717 8b3d
00000270: 9a98 2e3d 80b4 10bb 38dc 70bc ab42 4fbd
00000280: 7437 89bc 4ef3 703d bbc8 33bd d096 e03c
00000290: aa50 4c3d 901b 40bd ce9d 61bd a08d b63c
000002a0: 06c9 bdbc ab57 8dbd ed4a 9d3d b900 a73d
000002b0: 8975 a93d e09a 4ebb 7867 36bd 37d0 a13d
000002c0: 9842 7abc 95eb a33d 2253 85bd c05d c3ba
000002d0: 11be a93d 9120 893d 52b8 313d 76d6 7ebd
000002e0: d398 a3bd aa0c 9abd 8368 803d 6036 7ebb
000002f0: 20b3 4b3b b7d2 83bd aa1c 243d e1b9 9e3d
00000300: db72 01bd 68e1 53bd 1832 003c 0080 6fb9
00000310: e2d6 83bd dc54 9bbc abb0 a03d 9f60 9dbd
00000320: bef9 523d 90db f33b 24f9 a3bc b834 6ebc
00000330: 46f6 333d 9ed5 773d c81d 0f3c 803e fabc
00000340: 3061 8e3c 1aba 413d 0040 25ba 4049 063c
00000350: 2d38 823d c859 7e3c 6072 49bc ba77 583d
00000360: 7aa3 3a3d 8e15 70bd de8b 7dbd f68b 3ebd
00000370: 0e2e a0bd 8476 97bc f049 ebbc 7020 ff3b
00000380: 4f83 90bd 0280 213d bc64 e63c 9678 e8bc
00000390: 870c 81bd 7263 3e3d 86f3 27bd 6895 71bd
000003a0: 3661 243d 59af a53d 333f 73bd 22f5 8fbd
000003b0: ef0f a43d 4248 253d b063 a2bc 70f0 e93b
000003c0: 20e7 e23c 8670 6fbd 6601 8fbd 1456 a3bc
000003d0: c075 4bbd a025 013d 2e27 603d 1a5f 1c3d
000003e0: f03a e5bc c0bb 033c fe86 4f3d 7734 97bd
000003f0: 5e85 013d 9485 95bc b0f9 b73b abfb 25bd

decoder.0.bias f4 [16]
-0.044459365 0.04860707 0.046791196 -0.0030725987 -0.033493154 -0.022685546 -0.017759897 0.046658084
0.057079434 0.03437879 0.063482136 -0.086653 0.024197087 -0.051176354 -0.03222212 0.0002412349
00000000: 061b 36bd 3518 473d 20a8 3f3d a75d 49bb
00000010: 1e30 09bd 0ad7 b9bc 347d 91bc 8c1c 3f3d
00000020: 20cc 693d c6d0 0c3d ec02 823d 2177 b1bd
00000030: f838 c63c 4c9e 51bd 57fb 03bd 00f4 7c39

decoder.2.weight f4 [16, 1, 3, 3]
0.25545475 -0.1491399 0.29220784 -0.08740411 0.25526583 -0.1624148 0.04659371 -0.26799336
0.24395593 0.10837141 0.10971231 0.08499624 0.09604539 0.07499515 -0.057022873 0.25475267
-0.30581445 0.0033149405 0.018093439 0.16501959 -0.30838817 -0.30609503 -0.13596837 0.31938165
0.02933931 -0.2097917 -0.17459948 -0.29883116 -0.070262186 0.14913349 -0.22775322 -0.029567542
0.2953124 0.3128864 0.13647886 0.25810844 0.026733946 -0.11826799 -0.12625957 -0.31505662
0.32780492 -0.27402905 -0.095557064 0.13269708 -0.17499572 0.2264034 -0.3150011 0.017242165
-0.18681546 -0.28794786 0.15263578 0.0025435735 -0.23679064 -0.23720293 -0.28416297 -0.021241846
-0.26540998 -0.03086053 0.13516486 -0.15309644 0.11289642 -0.31967264 0.11657666 -0.29837215
0.16698809 -0.19088605 -0.3352272 -0.2692458 0.08719196 0.15207587 -0.12544535 0.19688441
-0.07875715 0.112861365 -0.2254813 -0.044374656 0.10156845 0.11882625 -0.31151584 0.047511254
0.064233206 -0.2673452 -0.017832704 -0.26985878 0.29708424 0.044416774 -0.05387357 0.11682011
-0.32420725 0.17650232 0.29692805 0.2540573 0.011676913 0.05276547 -0.024473345 -0.22130477
-0.27801305 -0.12285852 -0.1192218 0.16855913 0.010842388 0.103256315 0.104607984 0.031916827
-0.23720634 -0.09936984 0.32702732 0.16988765 -0.023557225 0.24786125 -0.20589122 -0.2475555
0.050724912 -0.0619159 0.20641018 -0.09152995 0.17718194 -0.3033068 0.026173426 -0.30113435
0.014885261 -0.0109021645 -0.046178628 0.27593133 -0.14615244 -0.16265982 -0.26934555 -0.121276796
0.091511056 -0.26323277 -0.005675476 -0.06501954 0.14354122 0.10720555 -0.21165414 -0.17573553
-0.1078969 -0.14899854 0.11847343 0.07695666 -0.12324796 -0.31388897 0.24823523 -0.24490471
00000000: f7ca 823e 21b8 18be 449c 953e ed00 b3bd
00000010: 34b2 823e 1150 26be 0cd9 3e3d 6d36 89be
00000020: 95cf 793e d4f1 dd3d d9b0 e03d 8212 ae3d
00000030: 72b3 c43d 0f97 993d d190 69bd f16e 823e
00000040: b693 9cbe 793f 593b b138 943c e5fa 283e
00000050: 0ee5 9dbe 7db8 9cbe 4b3b 0bbe fe85 a33e
00000060: fe58 f03c a3d3 56be 35ca 32be 6600 99be
00000070: 9fe5 8fbd 73b6 183e 2438 69be a137 f2bc
00000080: 3033 973e a532 a03e 1dc1 0b3e ca26 843e
00000090: 2601 db3c 7d36 f2bd 304a 01be 1a4f a1be
000000a0: 0cd6 a73e 894d 8cbe 6cb3 c3bd bee1 073e
000000b0: 1432 33be 4bd6 673e d347 a1be 713f 8d3c
000000c0: 8d4c 3fbe e76d 93be 8e4c 1c3e 15b2 263b
000000d0: 3f79 72be 53e5 72be cf7d 91be 6103 aebc
000000e0: d1e3 87be 39cf fcbc a868 0a3e 50c5 1cbe
000000f0: 3d36 e73d 22ac a3be bebf ee3d 3cc4 98be
00000100: edfe 2a3e a277 43be e6a2 abbe 96da 89be
00000110: b391 b23d c7b9 1b3e bf74 00be 119c 493e
00000120: 6e4b a1bd dc23 e73d 92e4 66be 33c2 35bd
00000130: 1f03 d03d 2d5b f33d 017f 9fbe 299b 423d
00000140: b38c 833d 78e1 88be e415 92bc ee2a 8abe
00000150: 6d1b 983e 5dee 353d 88aa 5cbd 623f ef3d
00000160: 7efe a5be 06bd 343e f406 983e cc13 823e
00000170: 8650 3f3c 9b20 583d 537c c8bc b89d 62be
00000180: ba57 8ebe 3f9d fbbd 8f2a f4bd c49a 2c3e
00000190: 45a4 313c 0c78 d33d b63c d63d 38bb 023d
000001a0: 38e6 72be 6a82 cbbd 2070 a73e 07f7 2d3e
000001b0: 15fb c0bc 57cf 7d3e 26d5 52be 307f 7dbe
000001c0: edc4 4f3d 879b 7dbd 315d 533e 0e74 bbbd
000001d0: 2f6f 353e 074b 9bbe a769 d63c 482e 9abe
000001e0: 4fe1 733c fe9e 32bc cd25 3dbd df46 8d3e
000001f0: fca8 15be 4c90 26be a9e7 89be f85f f8bd
00000200: 266a bb3d 72c6 86be 58f9 b9bb f728 85bd
00000210: 78fc 123e 958e db3d ddbb 58be 04f4 33be
00000220: 0df9 dcbd 1393 18be 33a2 f23d 749b 9d3d
00000230: 6d69 fcbd 0eb6 a0be 6031 7e3e 4dc8 7abe
