checkpoints/epoch_9.pth (torch, 24320 bytes, 7 tensors)

encoder.0.weight f4 [16, 1, 1, 1]
00000000: 7a9e 38bf 008f da3b 0d2d 223f 6484 693e
00000010: b810 5fbf 15b9 663f d08e 52bf 8ed3 473f
00000020: a07d 903e 8cde 0c3f 1181 5dbf cba1 1f3f
00000030: d8d0 1abf a017 12bf 344e a8be 85af 1bbf
-0.72116816 0.006669879 0.6334999 0.2280441 -0.87134886 0.9012616 -0.82249165 0.7805718
0.28220844 0.5502708 -0.86525065 0.6235625 -0.6047492 -0.570673 -0.32872164 -0.60814697

encoder.0.bias f4 [16]
00000000: ca94 39bf 9619 35bf d586 dbbe ed3e 7f3f
00000010: 6ee7 3cbf 2c17 433d d85d 8cbe 0309 90be
00000020: 640f 293f 4489 9fbd c57c 093f a9c6 5d3f
00000030: b4d2 babe b4a0 cbbe 24c0 a0be 7c2d fa3e
-0.7249266 -0.70742166 -0.42876306 0.9970539 -0.73790634 0.04762952 -0.27415347 -0.28131875
0.6603911 -0.07789853 0.5370601 0.86631256 -0.3648888 -0.39771044 -0.31396592 0.48862827

encoder.2.weight f4 [32, 16, 1, 1]
00000000: 5064 8b3d 7410 31be 10b8 6c3d 68b5 52be
00000010: 90cd a03c 4aac 0c3e 0859 df3d 6c55 e3bd
00000020: ecbf d7bd 84af ea3d 90e3 7a3d 0ae2 35be
00000030: f05c da3c e4ed 1f3e 32a1 44be 907e 363d
00000040: da0f 113e 90c0 6c3e c863 8d3d 6280 28be
00000050: a2d5 513e 4e5e 05be 5c38 e0bd b87a f03d
00000060: 482a 1cbe 745e 973d 161e 2cbe ec89 23be
00000070: a447 a5bd a0e6 e73c 7079 11bd 4e9a 12be
00000080: 200f 2fbd 765a 7bbe e89d b5bd 00b5 b13a
00000090: f855 48be a0c9 363e f03d 8b3d c4f7 d8bd
000000a0: a02f 5fbe a262 613e 409e 13be 8051 5cbd
000000b0: 8e49 14be 2847 ef3d a03e e4bc 00a6 893d
000000c0: 06b9 613e c0b2 66bd 90b5 03bd c05e ca3b
000000d0: 2e04 32be d056 ecbc 6019 5c3d d22e 713e
000000e0: 52a2 733e 2c36 8e3d 80d7 b8bd 2662 6ebe
000000f0: 86a5 41be aaef 32be 74b6 c23d 4cad 9f3d
00000100: 1872 683e 3813 77be 4cb8 0e3e 7c64 c0bd
00000110: 5e36 2dbe 621e 21be e812 3fbd 4087 aabd
00000120: 847f 82bd 5c1d 0c3e 12a1 713e e283 13be
00000130: dcfc 783e 10d7 49be a0d3 963d 28a7 11be
00000140: a800 413d b040 983c 3ccc 073e 3038 f1bd
00000150: aa33 56be 547d 1fbe c485 f13d 149c 5fbe
00000160: a082 d8bc 24a6 913d 967e 563e 7263 233e
00000170: 0009 913a a22c 4cbe 08e8 66be a88f 78be
00000180: c0d7 bd3b c42f ca3d bd58 b43d 1080 0c3d
00000190: 5460 5f3e 257b a5bc b8c7 b63d 5d54 b93c
000001a0: b3bb 0b3e 23e8 8fbc fb51 33be f419 7ebd
000001b0: de98 003e 5e13 1fbe 3a15 03be ab1a 00be
000001c0: 74cf b93d c09d 7ebc 2a9c 63be bce5 95bd
000001d0: b82f 3dbd 7270 21be 04e9 223e ce40 3cbe
000001e0: 224c 62be 4024 cf3d b02e 4e3e a8e2 fdbd
000001f0: 7857 3fbe 8c3f 88bd 7476 323e a4bc 3e3e
00000200: 5c4f 3b3e f0dc bd3c 9a12 483e 28ee 32bd
00000210: 100e 2c3e 108a 3cbe 6067 b83d 2c0d 78be
00000220: 2275 5ebe 8822 ec3d 3cf3 59be 8639 21be
00000230: 8856 18bd 682a d73d fe7c 023e 7a85 21be
00000240: 803f a0bc 7ca2 16be a810 3c3d e01c 6abd
00000250: 002e 5fbe c0c5 733c 9861 a13d 06a6 683e
00000260: a850 73be 28df 233e b8a9 3d3d 447a 4bbe
00000270: 047f cdbd f862 16bd 207e 803c 403a 7c3d
00000280: b428 b53d 00ea 4d3c 8af8 113e 8eb3 b2bc
00000290: 3ec0 4b3e e2de 2b3e 76a4 68be e8f4 7c3e
000002a0: a3f6 263d 6cb0 6c3e 3766 303d 165e fc3d
000002b0: 6c7b 9e3d 1802 7cbe 14e6 45be 8b84 e7bc
000002c0: b4b6 b5bd 48b3 7abd d0d2 bebc 089b d23c
000002d0: b2f5 133e 95b6 bfbd d890 42be 45f9 633e
000002e0: 1919 64be 7344 6e3e e0d4 f5bd 0588 253e
000002f0: e8f8 073e be96 0c3e 86f3 1b3e 329d f0bd
00000300: 78b7 cfbd e069 89bc fee4 7e3e 74db 693b
00000310: 0a54 46be efbe 3ebe 80e5 57be 93ce 273e
00000320: 1964 b3bd 3372 703e ded4 913d f8f7 e13d
00000330: 8864 7c3d 4044 8abc a46e 2a3e d96b 653d
00000340: c6b9 673e 50be 12be 3e97 1e3e 00fc 07be
00000350: 0c42 a33d f08c 94bc 36f7 123e e076 7dbc
00000360: 40d6 ddbc e003 933c 242c 533e 1444 97bd
00000370: 6894 07bd 4098 533c 748e c7bd e25b 2fbe
00000380: 80fd 733e 8291 163e 8eed 7d3d b915 b8bd
00000390: 187f a03d f6a5 463d 929c 6ebe 210d 42be
000003a0: d968 673e cc7a e03d 0bfe 58be 96be 5d3e
000003b0: 8079 f83d 20a2 01be 0c2a cd3d 22e4 90bb
000003c0: d836 b5bd 50a6 83bd 8853 8d3d 9cef b2bd
000003d0: d03e 023e 60bf 0bbc 00aa 58bb b8d2 ea3d
000003e0: 3cea 023e ca0b 183e 0853 643d 0025 50be
000003f0: d002 0d3e 9847 21bd 0c38 893d 9c78 823d
0.068062425 -0.17291433 0.057792723 -0.20577013 0.01962927 0.13737598 0.10905653 -0.11100277
-0.10534653 0.11459258 0.061252177 -0.17762008 0.026655644 0.15618092 -0.19202116 0.044554293
0.14166203 0.23120332 0.069037974 -0.16455224 0.2049165 -0.13024256 -0.1094825 0.11742157
-0.15250504 0.073910624 -0.16808352 -0.15970582 -0.08070305 0.028308213 -0.035516202 -0.14316675
-0.042739034 -0.24546227 -0.08868009 0.001355797 -0.19564044 0.17850351 0.06798923 -0.105941325
-0.21795511 0.22010282 -0.14415836 -0.053788662 -0.14481184 0.11683494 -0.027861893 0.06721115
0.22043237 -0.056322813 -0.032155573 0.006175846 -0.17384407 -0.02884999 0.053735137 0.23553017
0.23792389 0.06943926 -0.09025478 -0.23279628 -0.18910798 -0.17474237 0.095074564 0.07796726
0.22699773 -0.24128425 0.13937491 -0.09394166 -0.1691527 -0.15734246 -0.04664889 -0.08326578
-0.06371978 0.13683075 0.235966 -0.14405778 0.24315208 -0.19710946 0.07364583 -0.14223921
0.047119766 0.018585533 0.13261503 -0.11778295 -0.20918146 -0.15575153 0.11793092 -0.21836883
-0.026429474 0.07111767 0.20946726 0.15955904 0.0011065304 -0.19938901 -0.2254945 -0.2427355
0.0057935417 0.09872392 0.08805988 0.034301817 0.2181409 -0.020200321 0.08924812 0.022623235
0.1364582 -0.017566746 -0.17511742 -0.06203647 0.12558314 -0.15534732 -0.12801066 -0.12510173
0.09072772 -0.01554054 -0.2222754 -0.07319209 -0.046188086 -0.1576555 0.15909201 -0.18384096
-0.22099355 0.10114336 0.20134997 -0.12396747 -0.1868571 -0.066527456 0.17427999 0.18626648
0.18291992 0.02317664 0.19538346 -0.043684155 0.1680224 -0.18412042 0.09004092 -0.24223775
-0.2172437 0.11530024 -0.21284193 -0.157446 -0.037191898 0.10506135 0.12742993 -0.15773574
-0.01956153 -0.1471042 0.045914322 -0.057156444 -0.21794891 0.01487869 0.07879943 0.22719583
-0.23761237 0.16003096 0.046304435 -0.1987086 -0.10033992 -0.036715478 0.015685141 0.06157899
0.08845654 0.012567997 0.14254966 -0.021814134 0.19897553 0.16784242 -0.22718987 0.247028
0.040762555 0.23114175 0.04306623 0.12322633 0.077383846 -0.24610174 -0.19326049 -0.028261444
-0.088727385 -0.061206132 -0.023293883 0.02570869 0.14449194 -0.09360997 -0.19000566 0.22263058
-0.22275199 0.23268299 -0.12003493 0.16165169 0.13278544 0.13729379 0.15229616 -0.117487326
-0.10142416 -0.016774118 0.24892041 0.0035683783 -0.19367996 -0.18627523 -0.21083641 0.16387396
-0.087593265 0.23481064 0.07120679 0.110336244 0.06161931 -0.016878247 0.16643769 0.056011055
0.2262946 -0.14330411 0.15487382 -0.13279724 0.07971582 -0.01813361 0.14352116 -0.015470237
-0.027079701 0.017946184 0.20622307 -0.07386032 -0.033100516 0.012914717 -0.09743968 -0.17124894
0.23827171 0.14703944 0.061994128 -0.08988518 0.07836741 0.048498116 -0.23301914 -0.18950321
0.2259859 0.10960922 -0.2119066 0.21654734 0.12132549 -0.12659502 0.100177854 -0.004421727
-0.08848351 -0.06428206 0.06900698 -0.08737108 0.12719274 -0.008529514 -0.0033060312 0.11465973
0.12784666 0.14848247 0.055743247 -0.20326614 0.13770604 -0.039374918 0.06700143 0.06370661

encoder.2.bias f4 [32]
00000000: 0a63 0d3e 84cc 73be fc41 abbd d8ca 32bd
00000010: 940f 3a3d 28ef 03be a8c2 483e b31a 873d
00000020: d471 e3bd 309a 0fbe e3cb aa3c 7234 803e
00000030: afc0 9d3d b04e b1bd 3739 0a3d bc13 8fbd
00000040: 624e 623e ea81 1b3e f6d8 c93d 1a53 ab3c
00000050: f0ed 19be b8bc b23d e07b f5bd 21ee 213e
00000060: 64d7 063e 4c77 e63d cabc 253e f0a1 60bd
00000070: b0c0 193d b3f2 3c3e 7840 b2bd 5411 3ebe
0.13807312 -0.23808485 -0.08362195 -0.043650478 0.045425013 -0.128842 0.19605505 0.06596889
-0.11105695 -0.14023662 0.020849174 0.25040013 0.07702767 -0.086575866 0.03374597 -0.06986186
0.22100213 0.15186277 0.09855835 0.02091365 -0.15032172 0.087274015 -0.11986518 0.15813495
0.13168103 0.11253223 0.16185299 -0.054841936 0.037537277 0.18451957 -0.08703703 -0.18561298

decoder.0.weight f4 [32, 16, 3, 3]
00000000: a85a 61bc cd61 bfba e059 bf3c 402c dfbc
00000010: c033 e53b 4ad3 783d 906b 2b3d 0d00 6fbd
00000020: 23d8 adbd 26dd 5fbd e053 ab3d 1bfc 063d
00000030: f192 363c a58b 183d 88d8 18bc 7463 80bd
00000040: 88e0 48bd 782d 05bd 5697 513d e2d0 08bc
00000050: 354a 493d f6cd 81bd 57ef f4bb a47c 203d
00000060: 6e75 6dbd 7890 263d 24bb d53a 7758 98bd
00000070: 30e9 e83c 80de 54ba 1811 203c 8d12 23bd
00000080: 1092 023b 0466 bb3c 3121 08bd d68a f6bc
00000090: 7eeb 3f3d c625 aa3d 5b93 a8bd b2d0 093d
000000a0: 5889 163c 7350 2dbd 696c 823d cdfb 0cbd
000000b0: ac8b a3bd 06ce 95bd 6a2d 353d 6e56 9b3c
000000c0: faba 9a3d 05db a83d c6e8 483d 5d92 013d
000000d0: e568 3fbd 0ae9 36bd 85d7 953d dadd 01bd
000000e0: 9664 22bd 4004 333c a3b9 f6bb 2993 24bd
000000f0: f033 1cbd aff5 0fbd 6409 e3bc f68b 84bd
00000100: 2d05 1d3d e1de 533d 94cc 2e3d 9c14 653d
00000110: 8d42 413d 3efe b23d de1d 6bbd 53dc fcbc
00000120: a0d4 ff3c c557 6cbd 8bef 743d 25a5 62bc
00000130: 6aa0 803c ea31 fa3b dcdf 813d 5af8 6ebd
00000140: f2b9 49bc 4f49 a7bd c860 0cbd 71b3 873d
00000150: b2b8 8fbd c83d 85bc d996 12bc 80a4 7c3d
00000160: faa6 2d3c 5ce0 5a3d e0ce 8cbd 4a4b 553d
00000170: 2de6 813c b1b8 643d 0c10 8b3d 4253 eb3c
00000180: 61d9 843d c54d a7bc a5d9 6ebc e31e 41bd
00000190: 08c3 1abc c65a 023d 8589 8a3d b364 01bd
000001a0: 47ca 9e3d c60f 493d 4807 25bd ad54 973d
000001b0: 3a17 343d f4a7 90bd 9a0c 0e3d e285 793c
000001c0: f38b 923d d549 533d dd98 65bb 01ef 203d
000001d0: 4a3b 5ebd 6040 3abb 2887 a3bd 61aa 763d
000001e0: 28fa 77bd 6074 543b e293 1a3d a0d4 21bd
000001f0: 7c71 96bc 6bff 95ba 5073 29bd c365 a4bc
00000200: 2bbf 97bd d2dc 003d 4376 12bd 3ff4 73bd
00000210: 6dab 27bd bd8d 8a3d 2c05 b7bc 381d 743c
00000220: 984a 73bd de7b fe39 c27b ca3d 1954 203d
00000230: aad4 c53d 0739 243d d643 81bd 5566 cebc
00000240: 1b03 3abd 787c 0cbc b16a 843d 6aa6 7b3d
00000250: c8a6 41bd 3352 963d da83 a3bd 310a a83d
00000260: f176 8c3d 6059 01bd 43b4 4fbd b717 8b3d
00000270: 9a98 2e3d 80b4 10bb 38dc 70bc ab42 4fbd
00000280: 7437 89bc 4ef3 703d bbc8 33bd d096 e03c
00000290: aa50 4c3d 901b 40bd ce9d 61bd a08d b63c
000002a0: 06c9 bdbc ab57 8dbd ed4a 9d3d b900 a73d
000002b0: 8975 a93d e09a 4ebb 7867 36bd 37d0 a13d
000002c0: 9842 7abc 95eb a33d 2253 85bd c05d c3ba
000002d0: 11be a93d 9120 893d 52b8 313d 76d6 7ebd
000002e0: d398 a3bd aa0c 9abd 8368 803d 6036 7ebb
000002f0: 20b3 4b3b b7d2 83bd aa1c 243d e1b9 9e3d
00000300: db72 01bd 68e1 53bd 1832 003c 0080 6fb9
00000310: e2d6 83bd dc54 9bbc abb0 a03d 9f60 9dbd
00000320: bef9 523d 90db f33b 24f9 a3bc b834 6ebc
00000330: 46f6 333d 9ed5 773d c81d 0f3c 803e fabc
00000340: 3061 8e3c 1aba 413d 0040 25ba 4049 063c
00000350: 2d38 823d c859 7e3c 6072 49bc ba77 583d
00000360: 7aa3 3a3d 8e15 70bd de8b 7dbd f68b 3ebd
00000370: 0e2e a0bd 8476 97bc f049 ebbc 7020 ff3b
00000380: 4f83 90bd 0280 213d bc64 e63c 9678 e8bc
00000390: 870c 81bd 7263 3e3d 86f3 27bd 6895 71bd
000003a0: 3661 243d 59af a53d 333f 73bd 22f5 8fbd
000003b0: ef0f a43d 4248 253d b063 a2bc 70f0 e93b
000003c0: 20e7 e23c 8670 6fbd 6601 8fbd 1456 a3bc
000003d0: c075 4bbd a025 013d 2e27 603d 1a5f 1c3d
000003e0: f03a e5bc c0bb 033c fe86 4f3d 7734 97bd
000003f0: 5e85 013d 9485 95bc b0f9 b73b abfb 25bd
-0.013754524 -0.001460129 0.023358285 -0.02724278 0.0069946945 0.060748376 0.041850626 -0.058349658
-0.084884904 -0.054654263 0.08365607 0.03295527 0.011143432 0.03724255 -0.009328969 -0.06268969
-0.049042255 -0.032514066 0.051169716 -0.008350583 0.049143035 -0.06338112 -0.0074748206 0.039181367
-0.057973318 0.04066512 0.0016306383 -0.07438748 0.028431505 -0.0008120313 0.0097697005 -0.039812613
0.0019923486 0.022875793 -0.03323478 -0.030095499 0.046855442 0.08307986 -0.08231231 0.033646293
0.009188019 -0.04231305 0.06368334 -0.034419823 -0.07985625 -0.073146865 0.044232763 0.018962111
0.07555194 0.082449 0.049050115 0.031633724 -0.046730895 -0.044655837 0.07316498 -0.031705715
-0.039646707 0.010926306 -0.007529454 -0.040179405 -0.03813547 -0.03514641 -0.027714439 -0.06472008
0.038335014 0.051726226 0.04267557 0.055927858 0.04718261 0.08739899 -0.05740153 -0.030866778
0.031229317 -0.05770089 0.05979876 -0.013833319 0.015701491 0.0076353448 0.06341526 -0.058342315
-0.012312399 -0.081682794 -0.034271985 0.066260226 -0.0701765 -0.016264811 -0.008947098 0.061680317
0.010598892 0.053436622 -0.06875396 0.052073754 0.015856827 0.055840198 0.0679017 0.028726224
0.06486774 -0.020422826 -0.014578258 -0.047148596 -0.009445913 0.03182485 0.06764511 -0.031590175
0.07753425 0.04908731 -0.040290147 0.073891975 0.043967463 -0.070632845 0.034679987 0.015229674
0.071555994 0.051584084 -0.003503374 0.039290432 -0.05425576 -0.0028419718 -0.079847634 0.06022108
-0.060541302 0.0032417998 0.03773869 -0.039509416 -0.01836466 -0.0011443918 -0.041369736 -0.020068055
-0.07409509 0.03146059 -0.035757314 -0.059559103 -0.04093497 0.06765316 -0.022341333 0.014899544
-0.05939731 0.00048538944 0.09886886 0.0391427 0.09659703 0.040093448 -0.06311767 -0.02519528
-0.045413118 -0.008574598 0.06465662 0.061438 -0.047278196 0.07339897 -0.07984133 0.08205069
0.06858624 -0.031579375 -0.05070902 0.067916326 0.042626 -0.0022080243 -0.014700942 -0.05060069
-0.016750075 0.058825783 -0.043892603 0.027415663 0.049881615 -0.046901286 -0.055082135 0.022284329
-0.023167145 -0.06901487 0.076803066 0.08154435 0.08274371 -0.0031525418 -0.04453227 0.07901042
-0.015274666 0.08003918 -0.06509997 -0.0014905259 0.082882054 0.06695665 0.043388672 -0.062216245
-0.07988133 -0.07521947 0.06269934 -0.0038789734 0.0031082109 -0.06436675 0.0400664 0.07750297
-0.031603675 -0.051728636 0.007824443 -0.000228405 -0.0643747 -0.018961363 0.07846197 -0.07684445
0.051507704 0.0074419454 -0.02001626 -0.014538936 0.043936037 0.060506456 0.008735128 -0.03054738
0.017380327 0.04729662 -0.0006303787 0.008196175 0.06358371 0.015524335 -0.0122953355 0.052848555
0.04556606 -0.058614306 -0.061900966 -0.046520196 -0.07821284 -0.01848913 -0.02872178 0.0077858493
-0.07056295 0.03942872 0.028124206 -0.028377812 -0.063012175 0.046481557 -0.041003726 -0.058980376
0.04013177 0.080900855 -0.059386443 -0.07029177 0.080108516 0.040352114 -0.019822925 0.007139258
0.0276981 -0.05845692 -0.069826886 -0.019938506 -0.049672842 0.031530023 0.054724865 0.038176633
-0.027982205 0.008040369 0.050665848 -0.07383054 0.03162133 -0.018252172 0.005614482 -0.040523212

decoder.0.bias f4 [16]
00000000: ec6d 4bbd d237 1d3d 9f4b 723d c42b 39bc
00000010: 2c07 c6bc f115 29bc 525e abbb e180 703d
00000020: d1a1 8d3d d8d8 3f3d 4cd6 9b3d f741 bdbd
00000030: 8a8a 9a3c e9dd 20bd bbbe a0bc 4612 4c3c
-0.049665377 0.038383313 0.05915415 -0.011301938 -0.024173342 -0.010320173 -0.0052297497 0.05871666
0.0691563 0.046837658 0.07609233 -0.092410974 0.018864889 -0.03927413 -0.019622197 0.012455529

decoder.2.weight f4 [16, 1, 3, 3]
00000000: 049f 803e 4c15 1dbe d670 933e bcc5 bbbd
00000010: 8883 803e 56b1 2abe dd68 2d3d c666 8bbe
00000020: 2f74 753e bc9f c83d 899b ca3d 4495 983d
00000030: e59b ae3d 2984 833d b2ad 8abd 843a 7a3e
00000040: 7714 a2be f1df ebbb 3ee9 b13b 0eeb 1b3e
00000050: 9f61 a4be 0940 a3be 694a 18be 8efe 9c3e
00000060: 92a0 883c e9e3 63be cec3 3fbe 71c9 9cbe
00000070: e11b 9fbd ed35 113e 79f2 70be b3e7 17bd
00000080: 835e 933e 848e 9c3e 610f 043e e16f 803e
00000090: 5ee4 d23c 065d 02be 3f82 0abe 3b6c a2be
000000a0: 8034 a33e b2ec 90be 8e54 c9bd 313c fd3d
000000b0: 7173 3cbe 1077 5b3e 8d71 a7be 6e3c a83b
000000c0: c9a5 4bbe 0199 99be 6cf6 0f3e 7c81 1cbc
000000d0: 66d1 7ebe bc4a 7fbe 060a 98be 4544 0bbd
000000e0: 746f 8ebe 3ab7 32bd 45ab fa3d 43d8 29be
000000f0: 4807 cd3d 4a35 aabe b393 d43d 7c3f 9fbe
00000100: 8aeb 1d3e b166 50be ef29 b2be 2163 90be
00000110: 1e73 983d e4b8 0e3e 0183 0dbe 1a99 3c3e
00000120: 6e64 bbbd faf1 cc3d b1e7 73be 4f1b 6abd
00000130: 52d2 b53d 8827 d93d 8604 a6be 523c 0e3d
00000140: d9f7 523d 5040 8fbe 7ea5 f9bc 1493 90be
00000150: c2a2 913e b025 023d b82b 88bd a69d d53d
00000160: 1777 acbe 9be3 273e 8596 913e 2326 773e
00000170: 4069 65ba a72f 243d 753c 18bd ca9b 6fbe
00000180: f6cb 94be 1fcb 0abe 9efa 06be 6fc4 2c3e
00000190: c15e 183c df93 d03d e4f3 d03d 5191 ee3c
000001a0: 0eb5 75be e059 d3bd b781 a53e bd0d 2a3e
000001b0: 4011 e4bc 985f 793e 7432 57be 74f3 80be
000001c0: 3731 3e3d aaa1 87bd 8dfb 4e3e f045 c4bd
000001d0: 0407 313e 7ca3 a1be 803a 623c 4e88 a0be
000001e0: e6d6 243b dc93 bebc acc4 6fbd 96ee 863e
000001f0: 6f53 22be c042 33be af78 90be f751 09be
00000200: a527 a13d 4d57 8dbe ed87 97bc 0d6c 9fbd
00000210: d4d8 053e 694c c13d b9de 65be 6408 41be
00000220: 941d f7bd 6fa7 25be 057c d83d 5374 833d
00000230: 5947 0bbe f140 a7be cf1f 713e 83ee 83be
0.2512132 -0.15340155 0.28797024 -0.09168574 0.2510035 -0.16669211 0.042336334 -0.27226847
0.23970102 0.09796092 0.09892947 0.07450345 0.08525828 0.06421692 -0.06771411 0.24436384
-0.31656238 -0.0071983268 0.005429416 0.15226385 -0.3210573 -0.31884792 -0.14872135 0.3066296
0.016678128 -0.2225491 -0.18727037 -0.30622438 -0.07768989 0.14180727 -0.23529996 -0.0370862
0.28783044 0.3057748 0.12896492 0.25085357 0.02574366 -0.12730798 -0.13526247 -0.31723198
0.31875992 -0.28305584 -0.09830581 0.12364996 -0.18403412 0.21432137 -0.3270382 0.005134157
-0.19887461 -0.29999545 0.14058846 -0.009552356 -0.24884567 -0.24930853 -0.29695147 -0.034000654
-0.27819407 -0.04363177 0.12239698 -0.16586404 0.100111544 -0.3324378 0.10379734 -0.31103122
0.15421882 -0.20351674 -0.34797618 -0.2820063 0.07443832 0.13937718 -0.13819505 0.18417779
-0.09150015 0.10007091 -0.23818852 -0.05715495 0.08878006 0.10603243 -0.32425326 0.034725495
0.051505897 -0.27978754 -0.03047442 -0.28237212 0.28444487 0.031774223 -0.06648964 0.1043046
-0.33684608 0.16395418 0.2843515 0.24135642 -0.000875134 0.040084507 -0.03716703 -0.23399273
-0.2906186 -0.13554047 -0.1318154 0.16871808 0.009299935 0.10184454 0.102027684 0.029122027
-0.23994848 -0.10319877 0.32325527 0.16606803 -0.027840257 0.24352872 -0.2101534 -0.2518574
0.046433654 -0.06622632 0.20213147 -0.09583652 0.17287832 -0.3157004 0.013807893 -0.31353992
0.0025152504 -0.023263864 -0.05853717 0.26353902 -0.1585214 -0.17505932 -0.28217074 -0.13410173
0.0786889 -0.27605668 -0.018497432 -0.07784281 0.13070995 0.09438402 -0.22448243 -0.18850857
-0.120661885 -0.16177152 0.1057053 0.064186715 -0.13601436 -0.32666734 0.2354729 -0.25767908
