checkpoints/epoch_7.pth (torch, 24320 bytes, 7 tensors)

encoder.0.weight f4 [16, 1, 1, 1]
00000000: 3c0c b03e c099 353d b059 bc3e 56fb cf3e
00000010: cd48 36bf b870 cabe 6974 33bf 9bfb 24bf
00000020: 1b54 b23d b876 863e 8038 7ebf 723f a83e
00000030: 219f e2bd dad4 babe a73a 59bd 5fd7 d83e
0.34384334 0.04433608 0.36787176 0.40621442 -0.71204835 -0.39539123 -0.700995 -0.6444642
0.08707448 0.2626245 -0.9930496 0.32860905 -0.11065508 -0.36490518 -0.05303445 0.42351815

encoder.0.bias f4 [16]
00000000: 108d 5dbf cc69 dfbe 78f1 bbbe 132b 9c3e
00000010: 0de2 263f 8c43 c43e 9da0 183f 4469 723d
00000020: 04f2 1e3f 74e0 363f 084c 94be ffdf 233f
00000030: 4dac 6c3f 799b c13e 7f92 153f d543 5fbd
-0.8654337 -0.43635404 -0.36707664 0.30501613 0.65188676 0.38332784 0.59620076 0.05918242
0.62088037 0.7143624 -0.28964257 0.64013666 0.9245041 0.3781393 0.5842666 -0.05450805

encoder.2.weight f4 [32, 16, 1, 1]
00000000: d04f 73be 98f7 083e 00c6 4c3d f82e 053e
00000010: 0060 a3bc 483b 16bd 6cc0 593e e62a 5a3e
00000020: fc8a e1bd 9847 6bbe 60d8 fe3c 2e5e 1bbe
00000030: 00e2 f2bb a8bf 0dbd 8883 293e d02f 193d
00000040: 6086 a93d 5c88 12be 0ef6 77be f698 2f3e
00000050: 8c50 173e d25d 22be 58c5 0ebd d051 60bd
00000060: 42a5 b23d eae5 dbbd 26ff 143e 1ee0 0f3d
00000070: 2088 eebb eb15 f6bd 9e2e 51be 8095 4c3c
00000080: a075 f03d 3e72 6e3e 28c3 c2bd 2c60 2dbe
00000090: b892 f4bd 4418 fe3d c075 dc3c aca6 d1bd
000000a0: 48f8 56be c812 f1bd 009e 3cbc 5c3d 82bd
000000b0: dc7b 5d3e 6038 50bd 284f 72bd a090 3bbe
000000c0: f089 e8bd 70da d13c 3ad7 41be cf54 2a3e
000000d0: 75c2 7abe c5ea ee3d 7b5c 9b3d bcb8 893d
000000e0: 5a66 383e 9363 5fbc a802 e33d 3bcc a83c
000000f0: 34e5 31be 91b0 a93d 56d7 333e 8b1e b43d
00000100: 28f6 7abe 90f6 2bbd 8893 38be a25c 6c3e
00000110: 207b 92bd 2ac0 113e a63b 553b 4e99 223e
00000120: 1cd0 863e 3cc7 263e d685 4bbe 10de 16be
00000130: 9fb3 58be 866a b73d 7e05 5dbe 5193 a23d
00000140: e8ad 153e 263c 303e 188c aa3d acd1 653e
00000150: 46ff 3abe ec70 e93d bc51 90bd 98e6 1f3e
00000160: 0033 8dbd 0029 9d3c 4267 2dbe 800e 8fbd
00000170: 5a34 153e ccb1 62be 884f b7bd 8803 6cbd
00000180: 10ca 93bc 18c4 0e3d 9813 7cbd c033 763e
00000190: acbc b8bd be25 4d3e 5c68 dd3d d817 cb3d
000001a0: 2261 0fbe 6ac4 70be 8022 a53d 02be 51be
000001b0: 6056 3d3d 42b4 6abe 3a3c 6abe 4c8c 82bd
000001c0: 2c68 093e 3818 0f3e 00ee edba aefa c4bc
000001d0: 4d4d 8c3c 78f4 983d a04a a03c 8b4d 49bd
000001e0: 8d69 393e b6f5 b9bd 948f 723e 703c 043e
000001f0: 8de5 3ebd d34d 2c3e 947a 03be b85b 4b3d
00000200: c6e7 643e 8e4c 133e b484 54be 0f82 b1bd
00000210: 7ad8 0f3e ab52 643e 3fca a93d 56f7 cdbd
00000220: 9094 17be 882d 83be 305a 0a3d 733f 5bbe
00000230: a0ba 503e 281e ec3d a1a4 5c3e 430e 27be
00000240: a8e1 37bd 9ce0 153e 3897 debd f49a 613e
00000250: 13b4 f2bd 91e8 4a3e b8de 4f3e 656f 683c
00000260: d34f 3fbe f12b 323e 60fb 4b3e 1828 323e
00000270: 0ec8 2ebe 69ae 57bd 2c42 e63d 7e7f 1bbe
00000280: c806 e13d d052 f13d 2a99 193e 8f3f 3e3e
00000290: 5518 463c 6e28 49be 8183 133e eb68 26be
000002a0: 5514 40be f407 2e3d ec9c 36be 9fdd 753e
000002b0: 0cc0 603e 52f3 a6bd 2645 d9bd b386 29be
000002c0: e845 da3d 586b 26be 0c64 c43d f706 103e
000002d0: 5549 4bbd 95cf 0cbe 4463 163d 7248 fbbd
000002e0: 4332 7bbc 8767 3bbe 40cf 95bd e193 cdbd
000002f0: dc06 4e3e db8e 56bc 20f0 4fbe be11 3bbe
00000300: d046 ad3d 0000 5f37 5872 a43d 7460 4c3e
00000310: 8a8d c93d 04e5 c6bd c68f 533e f752 2bbe
00000320: c92e 52bc b0d4 2f3e f462 3e3e 64bb 723b
00000330: 6710 bbbd 3595 1e3d 07e6 853e 7149 31be
00000340: 3ca3 78be 2aa9 3fbe bcf5 cd3d d45e 893d
00000350: 7c2a 72be 91f7 703d 9ac6 6cbd c21f 4fbe
00000360: 7461 2fbe 385f 793e 60d7 033d a11d 153e
00000370: c164 633d 42f7 9c3c 4e1a a2bc 5bc4 28be
00000380: e2d7 243e 40ea f93b 043a 8d3d 22a8 0bbe
00000390: 0849 f43d cb88 4c3e 2ac2 ddbc 714b 903d
000003a0: 27e9 633d d690 16be e26f 073e ee2b 4dbd
000003b0: 638b ba3d 0975 c73d 8e3e 1cbe 3c3d 8abd
000003c0: 70da 983d 08a3 28bd 5c7a d43d 40e3 4dbd
000003d0: 4c9b 903d fa4c 09be fc61 c9bd f0b7 583e
000003e0: bce5 49be 5822 a73d e6fb 41be 32ea 4fbe
000003f0: ec4e 843d bc3d f9bd e060 183c 1e79 22be
-0.23760915 0.133757 0.049993515 0.13006198 -0.019943237 -0.03667763 0.2126481 0.21305427
-0.11012837 -0.2297653 0.031109035 -0.15172645 -0.007412195 -0.034606606 0.16554081 0.037399113
0.08277583 -0.1430983 -0.24214956 0.17148194 0.1477682 -0.15856102 -0.03485617 -0.054765522
0.08722927 -0.10737212 0.14550456 0.035125844 -0.007279411 -0.12015899 -0.2042794 0.012486815
0.11741185 0.23285767 -0.09509879 -0.16931218 -0.11942047 0.12406972 0.026911616 -0.10236868
-0.2099315 -0.1177116 -0.0115122795 -0.063593596 0.2162928 -0.050835013 -0.05915752 -0.18316889
-0.113544345 0.025616854 -0.18929759 0.16633914 -0.24488242 0.116658725 0.075859986 0.067246884
0.18007794 -0.01363458 0.11084491 0.020605197 -0.1737259 0.082856305 0.17562613 0.08794888
-0.24507964 -0.041983187 -0.18025029 0.23082212 -0.071523905 0.14233461 0.0032536774 0.15878794
0.2633065 0.1628694 -0.19875273 -0.14733148 -0.2116227 0.089558646 -0.21584126 0.079382546
0.14617121 0.17210445 0.08327502 0.22443265 -0.18261442 0.11398491 -0.070468396 0.15615308
-0.06894493 0.01918459 -0.16933921 -0.069851875 0.14570752 -0.22138137 -0.08950716 -0.057620555
-0.018040687 0.03485498 -0.061542124 0.24043179 -0.09020361 0.20033929 0.108109206 0.09916657
-0.14001897 -0.23512426 0.08063221 -0.20482638 0.04622495 -0.22920325 -0.22874537 -0.06374416
0.13418645 0.13974082 -0.0018152595 -0.024045315 0.017126704 0.07468504 0.019566834 -0.049146216
0.1810667 -0.09080069 0.23687583 0.1291368 -0.046605635 0.16826563 -0.12839729 0.049648017
0.2235404 0.14384672 -0.20753747 -0.08667385 0.14047423 0.2229716 0.082905285 -0.10056941
-0.14802766 -0.25620675 0.033777416 -0.21410923 0.20383692 0.11529189 0.21547176 -0.16314034
-0.044892937 0.14636463 -0.108686864 0.22031766 -0.11850753 0.1981528 0.20299804 0.014186715
-0.18682794 0.17399575 0.1992011 0.17398107 -0.17068502 -0.052656565 0.1124309 -0.15185353
0.109876215 0.11783373 0.14999834 0.18578933 0.012090762 -0.19644329 0.14405634 -0.1625096
-0.18757756 0.042488053 -0.17833298 0.24010323 0.2194826 -0.081518784 -0.10608892 -0.1655529
0.10657865 -0.16251886 0.09589395 0.14065157 -0.04963048 -0.13751061 0.03671576 -0.12269677
-0.015331808 -0.18301211 -0.073149204 -0.10037971 0.20119804 -0.013095583 -0.20306444 -0.18268487
0.08460772 1.3291836e-05 0.08029622 0.19958669 0.098414496 -0.0971165 0.20660314 -0.16730867
-0.012828537 0.17170978 0.18592435 0.0037037963 -0.09133988 0.038716514 0.2615206 -0.17313172
-0.24281019 -0.18716875 0.10056636 0.0670754 -0.23649019 0.058829848 -0.05780659 -0.20226958
-0.17127019 0.2435273 0.03218782 0.14562084 0.05551601 0.01916087 -0.019787934 -0.16481154
0.16097978 0.0076268017 0.06895831 -0.13638356 0.11927992 0.19974057 -0.027070124 0.07045639
0.055642273 -0.14703688 0.13226274 -0.050090723 0.09108617 0.097391196 -0.15258238 -0.06749961
0.07463539 -0.041171104 0.10374901 -0.05026555 0.070608705 -0.1340827 -0.09833142 0.21163917
-0.19716543 0.081608474 -0.18943748 -0.20304182 0.06460366 -0.12169978 0.009300441 -0.15866515

encoder.2.bias f4 [32]
00000000: 847b edbd 5671 8fbb 8089 2cbd 215e 3b3e
00000010: efc5 403e c05c 49be 8e0b 103e 73d4 193e
00000020: 536a a43d cf22 a5bb cf9d d9bd 3745 7d3e
00000030: ac35 18bd 03d2 ce3b 6f25 af3d 0c5d 75be
00000040: 2cf2 d8bd 2ef9 7abe f5d5 833e b432 c53d
00000050: 7238 453e b71b 043d 0c9b 2d3e 15c7 20be
00000060: 7159 45be 1837 ea3d d703 ec3d 3372 953c
00000070: fad8 0f3e 5750 f03d f425 8e3d 5da3 0bbe
-0.11595824 -0.0043775244 -0.042123318 0.18297626 0.18825506 -0.19664288 0.14066908 0.15022449
0.08028092 -0.00503955 -0.10625803 0.24733435 -0.03716056 0.0063116564 0.08552062 -0.23961276
-0.105930656 -0.24509117 0.25749174 0.096288115 0.19259813 0.032252993 0.16953677 -0.15700944
-0.192724 0.114362895 0.1152417 0.018242931 0.14047614 0.117340736 0.06940833 -0.13636537

decoder.0.weight f4 [32, 16, 3, 3]
00000000: 384b 93bd 40f4 463c 6830 29bd b046 eb3c
00000010: 3a02 573d 601f 66bc 086f 57bd b8e6 4b3c
00000020: 69e2 803d 3a23 113d 4013 ffbb 68ff 453c
00000030: 20a2 77bc 36bf 273d 3f91 8abd 6c58 d53c
00000040: c6f3 363d 937b 973d 8e36 6cbd 5313 8bbd
00000050: 8035 3dbd 86bc 6d3d e69f d1bc 49ae 813d
00000060: 7701 863d 2bd3 05bd a064 a6bd 602c 4fbb
00000070: 001f 393c 5e50 673d 8774 9cbd 1897 183d
00000080: 4808 51bd f0f6 c2bc 0c97 a2bd 12f2 523d
00000090: 0bf5 18bd 3bb8 40bd 4bf5 62bd f6ba 7f3d
000000a0: b8e7 71bd 4d57 983d 9221 2b3d 5a04 453d
000000b0: 40a8 203c 6e77 29bd 1333 893d 0050 8237
000000c0: 4252 3a3d ec8c 8dbc 288b 10bc 380d 763c
000000d0: 8ce0 893c fcca 903c f85e 683c 662c 143d
000000e0: ee8f 82bd 5075 973c a41e 81bd f8d6 1d3d
000000f0: fa97 123d 22ed 463d d19f 843d 4e4a 683d
00000100: 00ab 833b 7030 9a3c a6a7 233d 005e 2b3b
00000110: da57 a7bd 42f3 463d 664d 603d 3e5c 773d
00000120: 10c0 ee3c 5cfd 9c3c c089 77bc ce7b 123d
00000130: 4247 a5bd afe8 98bd 5c4c ebbc 9b07 51bd
00000140: 8c9f dfbc 71f4 853d 6682 3cbd 635c 08bd
00000150: f2de 663d fa98 543d 7281 413d be74 4ebd
00000160: f068 b7bb a211 aabd e62b 11bd c09f ebba
00000170: a016 aa3c 30bb 68bd b701 a5bd 80c8 433c
00000180: 105e 66bd 40ea f13b c45b a9bd 32f3 263d
00000190: 2220 443d 48dd 1bbc 6aae 96bd bbc8 21bd
000001a0: 70b1 db3b 10cf f0bb cd5c 9b3d 145b 9bbc
000001b0: 241c a5bd 0a93 a4bd 7005 b7bc 26e7 733d
000001c0: 70e1 88bc e835 40bd 209a 003b e2bd 403d
000001d0: 40eb abba 4676 2ebd 74fa 98bc aa2b 90bd
000001e0: 80f1 e13c b864 5fbd 3d97 893d 026c 4d3d
000001f0: f2d0 6c3d 6e07 5c3d e0ed e5bc 0621 99bd
00000200: 81d4 a73d 50c6 d13b ffb7 853d 7afb 5d3d
00000210: eede 81bd 80bb 0b3b e240 173d 0ad6 313d
00000220: e032 413c f020 a7bd 50a9 fd3b 851f 953d
00000230: d0d1 cabb 3968 923d e2e8 3c3d 3ba3 87bd
00000240: 384b 32bd d02b c63b 83ae 94bd 26a4 d8bc
00000250: a327 6bbd 532a 64bd 3260 7b3d d029 e5bb
00000260: b966 8e3d ca0a 4b3d a204 773d 163a 353c
00000270: 0cf1 8fbd d0e3 b7bb 9fcc 78bd 2dde 6ebd
00000280: f263 563d 77a8 2ebb f8eb 73bd 8095 5a3c
00000290: adfd 89bd 72b5 55bd 06bc 20bc 05d4 403d
000002a0: 8dce 75bd d79c 8ebd 4962 603d 3334 13bd
000002b0: 71d4 4a3d 00a5 c9bb f510 83bc 3c85 473d
000002c0: 597e d1ba 00c0 613c 3f77 1abd 9ee4 3bbd
000002d0: 09c4 693c 2e36 8b3d 5db0 faba 8e35 173d
000002e0: 1ac4 d03b b07c efbc 6060 883d 27a9 763d
000002f0: 2099 69bd 90a5 e3bc d820 b5bc 5a5e 893d
00000300: cb66 1bbd 33bd ae3d 7d27 81bd 061f 333c
00000310: 61f0 66bc b0ad af3c 9600 743d 8a2a 423d
00000320: e874 2c3c 58d2 113d 8a1e 623d b806 72bd
00000330: db25 a83d 08ac 293d f098 f5bc 758a 8f3d
00000340: 6a62 9bbd c44e 86bc 6b55 44bd 0890 673c
00000350: 6030 793b f29c 463d 400c 803b a481 a9bd
00000360: 1a05 393d affa 9a3d 5d34 983d 5c66 9a3d
00000370: c26a adbc 29a3 1e3d 30f6 fabb 8975 3c3d
00000380: 90bf e13c aa23 2a3d 029a 5dbd 2049 22bb
00000390: 40ec e2bc c360 88bd 1463 98bc e346 21bd
000003a0: 9cde ca3b ce91 703d e844 6fbc 0aef 77bd
000003b0: 84f7 d33c a2de 063d ec20 10bd d260 2b3d
000003c0: 104d c43b a66a 44bd 60cc ab3c baa4 863d
000003d0: 8ff6 85bd a538 3c3d 2b14 8c3d 29d3 863d
000003e0: 4fbc 8abd 08de 0c3c 43e5 86bd 7cdb d33c
000003f0: aadb 383d 0e6d 4c3d 0095 9fbc 0ce2 8f3c
-0.07192081 0.012143195 -0.04130593 0.02872023 0.052492358 -0.014045566 -0.052596122 0.012445144
0.06293184 0.035433985 -0.007784277 0.012084819 -0.015114337 0.040953837 -0.06765985 0.02604314
0.044666074 0.07396617 -0.057669215 -0.06790795 -0.0461936 0.058041118 -0.02558894 0.063320704
0.06543248 -0.03267209 -0.081246614 -0.0031612143 0.011298895 0.05647313 -0.07639413 0.03725347
-0.05103329 -0.02379939 -0.07938966 0.051500387 -0.037343066 -0.047050696 -0.05540971 0.06243416
-0.059058875 0.07438526 0.041780062 0.048099853 0.009805739 -0.041373663 0.06699195 1.553446e-05
0.045488603 -0.01727911 -0.00882224 0.0150178 0.016830705 0.017674915 0.014182799 0.036175154
-0.06375109 0.018488556 -0.06304672 0.03853509 0.035789467 0.04856599 0.06475795 0.056711487
0.0040181875 0.018821925 0.039954804 0.0026148558 -0.08171053 0.048571832 0.054761313 0.060390703
0.029144317 0.01916378 -0.015108526 0.0357626 -0.08070232 -0.07466256 -0.028722934 -0.051032644
-0.027297758 0.06540764 -0.046022795 -0.03329123 0.05636496 0.051903702 0.04724259 -0.050404303
-0.0055972263 -0.083041444 -0.035442255 -0.0017976686 0.020762742 -0.05681914 -0.08056968 0.011949658
-0.05624205 0.007382661 -0.08269456 0.040759273 0.047882207 -0.009513207 -0.073574856 -0.039498072
0.006704502 -0.0073489025 0.0758606 -0.018964328 -0.08062008 -0.08035858 -0.02234146 0.059546612
-0.01670906 -0.04692641 0.0019623116 0.047056086 -0.0013116375 -0.042593263 -0.018674113 -0.07039578
0.027580976 -0.054539412 0.067182995 0.050151832 0.057816453 0.053718023 -0.02806753 -0.07477002
0.08194829 0.0064018145 0.06529235 0.054194905 -0.063413486 0.0021321476 0.03692711 0.043417014
0.011791915 -0.08160579 0.007741131 0.072814025 -0.0061895624 0.07148785 0.04612053 -0.066229306
-0.043528765 0.0060477033 -0.07259848 -0.02644546 -0.057410847 -0.055704426 0.061371036 -0.00699351
0.069531865 0.049570836 0.060307153 0.011061212 -0.07028398 -0.005611874 -0.060742017 -0.058317352
0.05234141 -0.0026650706 -0.05955121 0.013341308 -0.06737838 -0.052174993 -0.009810453 0.047077198
-0.060011435 -0.069635086 0.054781232 -0.035938453 0.049519006 -0.0061537027 -0.015999297 0.048711047
-0.0015983089 0.0137786865 -0.03771138 -0.045872323 0.01426793 0.06797443 -0.0019126047 0.036916308
0.0063710334 -0.02923426 0.06659007 0.06021991 -0.057030797 -0.027788907 -0.022110388 0.06707449
-0.037939828 0.08532181 -0.0630636 0.0109326895 -0.014095397 0.021445125 0.05957087 0.04740385
0.0105259195 0.03560099 0.055204906 -0.05908844 0.08210345 0.041423827 -0.029980153 0.070088305
-0.0758713 -0.01639498 -0.047933023 0.014133461 0.0038023219 0.04848952 0.0039077103 -0.0827668
0.04517088 0.07567345 0.074318625 0.07539055 -0.02116907 0.03872982 -0.0076587424 0.046010528
0.027557164 0.04153792 -0.05410195 -0.0024762824 -0.027700543 -0.06659081 -0.018601932 -0.039374243
0.006191088 0.0587328 -0.014603831 -0.0605307 0.02587486 0.032927163 -0.035187647 0.041840382
0.005990632 -0.04795327 0.020971477 0.06574388 -0.06541168 0.045952458 0.06839784 0.06583244
-0.06774198 0.008597858 -0.06586697 0.025861494 0.045131363 0.04990869 -0.019480228 0.017563842

decoder.0.bias f4 [16]
00000000: 20e0 f4bc 0951 a1bc 73cb d03c b1b3 c63d
00000010: 7153 5ebd 7ecc 893d 32eb 5bbd 54e9 9dbd
00000020: 40c2 df3b 92eb 8dbc f37f 633d 9efd c43d
00000030: f0cf 8fbd f897 a83d bec6 f6bc 8a58 8fbd
-0.029892027 -0.01969196 0.025487637 0.09702242 -0.054278795 0.06728457 -0.053691097 -0.077105194
0.0068285763 -0.017324243 0.055541944 0.09618686 -0.07022083 0.08232111 -0.030124065 -0.06999309

decoder.2.weight f4 [16, 1, 3, 3]
00000000: fca2 de3d 5059 0d3e f43d 92bd 6814 5cbd
00000010: 4c27 c4bd 9012 b6bd c067 bc3c fb1c 09be
00000020: 3091 d53d 9450 98be 838c 2ebe cec0 0d3e
00000030: ceed 683e 40e8 a43d d39e abbc 6035 833e
00000040: ab28 e33d 8021 a53d e145 63be 2577 913e
00000050: b2f4 a8bc c312 7b3e 2eed b83d 3173 363e
00000060: 6ed4 52be 7a27 a3be 34f8 0d3e 11fa f1bd
00000070: de38 563e df6d 99be 36a2 423e 5a38 0ebe
00000080: 754b 92be aa6b 92be 6ee0 93be d8a3 183e
00000090: fc42 89bd 9bc7 5abd 78da 9a3e 2e15 923e
000000a0: caf8 49be 4a0a ad3d 1053 42be 550b a73c
000000b0: b96f b03d 5b62 21be df41 5abe e922 6c3d
000000c0: 7e11 9fbe dc87 a2bd 7a1d 323d 32b3 313d
000000d0: c6be 323e 1214 97be a7f9 343e 13c0 713e
000000e0: 426e 8c3e b2c5 3c3c b93c 363e a3ec 533e
000000f0: f908 8cbe 4425 66bd ec13 433d 3be4 3d3e
00000100: 4aee 89be 0e7a a5be 5ace a53e 6e68 47be
00000110: 9dff 3dbd de4e a33e 790a 44be ea41 a63e
00000120: 88fe a9bc 7d01 94be 2e12 9e3e 8ea7 a33e
00000130: 10dc 8abe 4b3b 3dbe 30e3 0dbe 6b17 973e
00000140: d24f c9bd 4f38 abbe 8dc5 7abe c792 f6bd
00000150: 6914 afbe 3193 9dbe dd66 a7be f40e 79be
00000160: fb58 abbe a536 913a cbd5 ebbd 1f8b a03e
00000170: 9419 8fbe cbfb 3bbe 6cda 6ebe 9fad 47be
00000180: 4b75 6abe a843 0bbe 3b8d c2bd bd55 5ebe
00000190: a4b5 9bbe d55a 693e 7a44 af3d 2fd1 d83a
000001a0: b3ea 9c3e a9c4 86bd 20c2 82be 690e 85be
000001b0: eee2 a53e c73d c93c c769 c73b adc3 533e
000001c0: 4ef0 5bbe aea2 833d 2bfb 223e c047 c0bd
000001d0: 9a2a 7dbc ac05 8b3e b67e 1cbe 73e6 aabe
000001e0: b28f 16be bc6c 8abd 1099 6cbe 9be7 9cbe
000001f0: 6104 8e3e e87d e2bd 920c 65be 4c30 093d
00000200: f71e 5dbe ac3c 86be c441 9f3d 1e15 95be
00000210: 3ac8 0d3e dd3d 46be 80ee 86be e6d5 19bd
00000220: 8f1b 063e 2c37 aebc e80c 93be b384 833d
00000230: 0a7c ed3d 00ee fd3d 9855 43be 9488 8d3e
0.108709306 0.13803601 -0.07140723 -0.0537304 -0.09577808 -0.08890259 0.02299869 -0.13389961
0.10428083 -0.29748976 -0.17045788 0.1384308 0.22746965 0.08052111 -0.020949757 0.2562666
0.11091741 0.0806303 -0.22194625 0.28411213 -0.020624492 0.24518876 0.090296134 0.1781738
-0.20588848 -0.31866056 0.13864213 -0.118152745 0.2092013 -0.29966637 0.19007191 -0.13888684
-0.28573194 -0.28597766 -0.28882164 0.14906251 -0.067022294 -0.053413015 0.30244803 0.28531784
-0.19723812 0.08449228 -0.18976998 0.020391146 0.086150594 -0.15760176 -0.2131419 0.05765048
-0.31068033 -0.07936069 0.043485142 0.043383785 0.17455587 -0.295075 0.1767336 0.23608427
0.2742787 0.011521744 0.17796601 0.20695738 -0.27350596 -0.056187883 0.04762642 0.18544094
-0.26939613 -0.32319683 0.32383996 -0.1947343 -0.04638635 0.31896108 -0.1914462 0.32472163
-0.020751253 -0.28907385 0.30873245 0.31963772 -0.2712102 -0.1847965 -0.13856196 0.29510054
-0.09829678 -0.33441398 -0.24489422 -0.12039714 -0.3419526 -0.3077636 -0.32695666 -0.2432211
-0.33466324 0.0011078907 -0.11515387 0.3135614 -0.27949202 -0.1835777 -0.23325509 -0.19499825
-0.22896306 -0.13600028 -0.09499594 -0.21712394 -0.30412018 0.22788556 0.08557983 0.0016541834
0.3064781 -0.06580479 -0.2553873 -0.25987557 0.32399696 0.02456559 0.0060856077 0.20680113
-0.21478388 0.06427513 0.15916125 -0.09388685 -0.015452052 0.27152765 -0.15282711 -0.33378944
-0.14703253 -0.06759021 -0.23105264 -0.3064545 0.27737716 -0.11059171 -0.22368076 0.033493325
-0.21593843 -0.26218164 0.07776216 -0.29117674 0.13845912 -0.19359536 -0.26353836 -0.037557505
0.1309645 -0.021266542 -0.28720784 0.06421795 0.11595924 0.123989105 -0.1907562 0.27643263
