checkpoints/epoch_8.pth (torch, 24320 bytes, 7 tensors)

encoder.0.weight f4 [16, 1, 1, 1]
0	0x3eb00c3c	0.34384334
1	0x3d3599c0	0.04433608
2	0x3ebc59b0	0.36787176
3	0x3ed0c327	0.4077389
4	0xbf35e02c	-0.71045184
5	0xbecb1f44	-0.3967229
6	0xbf330d1b	-0.6994187
7	0xbf24a317	-0.64311355
8	0x3daf298f	0.085528485
9	0x3e8740d6	0.26416653
10	0xbf7e3880	-0.9930496
11	0x3ea911d3	0.3302141
12	0xbddf4ed2	-0.10903706
13	0xbeb9fc53	-0.3632532
14	0xbd529242	-0.051409014
15	0x3ed83762	0.42229754

encoder.0.bias f4 [16]
0	0xbf5d8d10	-0.8654337
1	0xbedf69cc	-0.43635404
2	0xbebbf178	-0.36707664
3	0x3e9d4390	0.3071561
4	0x3f27705c	0.6540582
5	0x3ec34dbb	0.3814524
6	0x3f192dcf	0.59835523
7	0x3d7925ff	0.06082725
8	0x3f1e6599	0.61873776
9	0x3f376f3d	0.7165411
10	0xbe944c08	-0.28964257
11	0x3f246dce	0.6423005
12	0x3f6d39c1	0.9266625
13	0x3ec2af60	0.38024426
14	0x3f161eb5	0.58640605
15	0xbd645637	-0.055746283

encoder.2.weight f4 [32, 16, 1, 1]
0	0xbe734fd0	-0.23760915
1	0x3e08f798	0.133757
2	0x3d4cc600	0.049993515
3	0x3e052ef8	0.13006198
4	0xbca36000	-0.019943237
5	0xbd163b48	-0.03667763
6	0x3e59c06c	0.2126481
7	0x3e5a2ae6	0.21305427
8	0xbde18afc	-0.11012837
9	0xbe6b4798	-0.2297653
10	0x3cfed860	0.031109035
11	0xbe1b5e2e	-0.15172645
12	0xbbf2e200	-0.007412195
13	0xbd0dbfa8	-0.034606606
14	0x3e298388	0.16554081
15	0x3d192fd0	0.037399113
16	0x3da98660	0.08277583
17	0xbe12885c	-0.1430983
18	0xbe77f60e	-0.24214956
19	0x3e2f934f	0.17146038
20	0x3e17508c	0.1477682
21	0xbe225e06	-0.1585618
22	0xbd0ec558	-0.03485617
23	0xbd6051d0	-0.054765522
24	0x3db29928	0.087206185
25	0xbddbf576	-0.10740177
26	0x3e14ff26	0.14550456
27	0x3d0fc157	0.035096493
28	0xbbef5c53	-0.007304707
29	0xbdf6162b	-0.12015947
30	0xbe5132fa	-0.20429602
31	0x3c4c62e7	0.012474752
32	0x3df075a0	0.11741185
33	0x3e6e723e	0.23285767
34	0xbdc2c328	-0.09509879
35	0xbe2d602c	-0.16931218
36	0xbdf492b8	-0.11942047
37	0x3dfe1844	0.12406972
38	0x3cdc75c0	0.026911616
39	0xbdd1a6ac	-0.10236868
40	0xbe56f848	-0.2099315
41	0xbdf112c8	-0.1177116
42	0xbc3c9e00	-0.0115122795
43	0xbd823d5c	-0.063593596
44	0x3e5d7bdc	0.2162928
45	0xbd503860	-0.050835013
46	0xbd724f28	-0.05915752
47	0xbe3b90a0	-0.18316889
48	0xbde889f0	-0.113544345
49	0x3cd1da70	0.025616854
50	0xbe41d73a	-0.18929759
51	0x3e293fc8	0.16528237
52	0xbe7bd754	-0.2459386
53	0x3decc0c5	0.11560205
54	0x3d9932c0	0.07480383
55	0x3d87917d	0.066195466
56	0x3e37513d	0.17902084
57	0xbc70b3e3	-0.014691326
58	0x3de302a8	0.11084491
59	0x3ca0240c	0.019548438
60	0xbe32fa22	-0.1747823
61	0x3da787bc	0.08180186
62	0x3e32c277	0.17456995
63	0x3db320e3	0.08746507
64	0xbe7af628	-0.24507964
65	0xbd2bf690	-0.041983187
66	0xbe389388	-0.18025029
67	0x3e6e6eb6	0.2328442
68	0xbd8e5a37	-0.06950801
69	0x3e13ccaa	0.14433542
70	0x3bacb162	0.005270169
71	0x3e24b6e7	0.16085397
72	0x3e87d6cc	0.26531065
73	0x3e28d787	0.16488467
74	0xbe4b85d6	-0.19875273
75	0xbe14cdae	-0.14531586
76	0xbe56a3bf	-0.20960902
77	0x3dbb8b76	0.091574594
78	0xbe5af51a	-0.21382561
79	0x3da4e686	0.08051781
80	0x3e15ade8	0.14617121
81	0x3e303c26	0.17210445
82	0x3daa8c18	0.08327502
83	0x3e65d1ac	0.22443265
84	0xbe3aff46	-0.18261442
85	0x3de970ec	0.11398491
86	0xbd9051bc	-0.070468396
87	0x3e1fe698	0.15615308
88	0xbd8d3300	-0.06894493
89	0x3c9d2900	0.01918459
90	0xbe2d6742	-0.16933921
91	0xbd8f0e80	-0.069851875
92	0x3e15345a	0.14570752
93	0xbe62b1cc	-0.22138137
94	0xbdb74f88	-0.08950716
95	0xbd6c0388	-0.057620555
96	0xbc93ca10	-0.018040687
97	0x3d0ec418	0.03485498
98	0xbd7c1398	-0.061542124
99	0x3e7633c0	0.24043179
100	0xbdb8bcac	-0.09020361
101	0x3e4d25be	0.20033929
102	0x3ddd685c	0.108109206
103	0x3dcb17d8	0.09916657
104	0xbe0f6122	-0.14001897
105	0xbe70c46a	-0.23512426
106	0x3da52280	0.08063221
107	0xbe51be02	-0.20482638
108	0x3d3d5660	0.04622495
109	0xbe6ab442	-0.22920325
110	0xbe6a3c3a	-0.22874537
111	0xbd828c4c	-0.06374416
112	0x3e09682c	0.13418645
113	0x3e0f1838	0.13974082
114	0xbaedee00	-0.0018152595
115	0xbcc7b1ca	-0.024376769
116	0x3c89891e	0.016789015
117	0x3d983ca6	0.07433443
118	0x3c9d8785	0.01922966
119	0xbd4a7869	-0.04943124
120	0x3e390e6d	0.18071909
121	0xbdbaa6e1	-0.09113861
122	0x3e728f94	0.23687583
123	0x3e03e3f1	0.12879921
124	0xbd40496e	-0.046945028
125	0x3e2bf562	0.16792825
126	0xbe03d314	-0.12873489
127	0x3d4c8cc1	0.04993892
128	0x3e64e7c6	0.2235404
129	0x3e134c8e	0.14384672
130	0xbe5484b4	-0.20753747
131	0xbdb17da2	-0.08666541
132	0x3e0fd7de	0.1404719
133	0x3e644ae7	0.22294198
134	0x3da9c99e	0.082904086
135	0xbdcdbf29	-0.100462265
136	0xbe179af2	-0.148052
137	0xbe832e13	-0.2562109
138	0x3d0a5a30	0.033777416
139	0xbe5b405f	-0.21411274
140	0x3e50b8d0	0.20383
141	0x3dec1cd7	0.11528938
142	0x3e5ca3c3	0.21546845
143	0xbe27abd3	-0.1637414
144	0xbd37e1a8	-0.044892937
145	0x3e15e09c	0.14636463
146	0xbdde9738	-0.108686864
147	0x3e63bd15	0.22240098
148	0xbdee7220	-0.11642861
149	0x3e4d06b8	0.20022094
150	0x3e51ffce	0.20507738
151	0x3c858402	0.016298298
152	0xbe3d3103	-0.18475728
153	0x3e344cd3	0.17607431
154	0x3e4bfb60	0.1992011
155	0x3e34490a	0.17605987
156	0xbe2ca77e	-0.16860768
157	0xbd4f2bb5	-0.05057879
158	0x3dea83fa	0.11450954
159	0xbe1a2d6c	-0.1505639
160	0x3de106c8	0.109876215
161	0x3df152d0	0.11783373
162	0x3e19992a	0.14999834
163	0x3e406a3a	0.18790522
164	0x3c68b1c0	0.014202535
165	0xbe470189	-0.1943418
166	0x3e15ad32	0.1461685
167	0xbe243731	-0.16036679
168	0xbe3decd8	-0.1854738
169	0x3d36add9	0.044599388
170	0xbe369cec	-0.17833298
171	0x3e780729	0.24221481
172	0x3e62e940	0.2215929
173	0xbda2a007	-0.07940679
174	0xbdd4f20c	-0.10397729
175	0xbe287be0	-0.16453505
176	0x3dda45e8	0.10657865
177	0xbe266b58	-0.16251886
178	0x3dc4640c	0.09589395
179	0x3e123dce	0.14281389
180	0xbd426efe	-0.04746913
181	0xbe0a99a0	-0.13535166
182	0x3d1f3dae	0.03887718
183	0xbdf6d91d	-0.1205313
184	0xbc57d07f	-0.013172268
185	0xbe3930f3	-0.18085079
186	0xbd95cf40	-0.073149204
187	0xbdc926b2	-0.09821834
188	0x3e503d61	0.20335914
189	0xbc332391	-0.010933773
190	0xbe4db985	-0.20090301
191	0xbe39d602	-0.18148044
192	0x3dad46d0	0.08460772
193	0x375f0000	1.3291836e-05
194	0x3da47258	0.08029622
195	0x3e4e7638	0.20162284
196	0x3dcdb57d	0.10044382
197	0xbdc2c59d	-0.09510348
198	0x3e55a3ea	0.2086331
199	0xbe2930dc	-0.16522545
200	0xbc312410	-0.010811821
201	0x3e31e883	0.17373852
202	0x3e3e62f4	0.18592435
203	0x3bbbdb34	0.005732918
204	0xbdb6e9b2	-0.089312926
205	0x3d26e47b	0.04074524
206	0x3e86effa	0.26354963
207	0xbe3028d9	-0.17203082
208	0xbe78a33c	-0.24281019
209	0xbe3fa92a	-0.18716875
210	0x3dcdf5bc	0.10056636
211	0x3d8dae9c	0.0691807
212	0xbe7002ce	-0.2343857
213	0x3d799545	0.06093337
214	0xbd6427e1	-0.055702094
215	0xbe4cf841	-0.20016576
216	0xbe2d39e9	-0.16916622
217	0x3e7b86f6	0.24563202
218	0x3d03d760	0.03218782
219	0x3e174563	0.14772563
220	0x3d6c038d	0.057620574
221	0x3cae3524	0.021265574
222	0xbc90dc6f	-0.017683236
223	0xbe27988e	-0.16366789
224	0x3e24d7e2	0.16097978
225	0x3bf9ea40	0.0076268017
226	0x3d8d3a04	0.06895831
227	0xbe096aba	-0.13419619
228	0x3df8c330	0.12146604
229	0x3e4ec514	0.20192367
230	0xbccbd959	-0.024883913
231	0x3d94c867	0.07264786
232	0x3d6cdb1b	0.057826143
233	0xbe1453c3	-0.14485078
234	0x3e076fe2	0.13226274
235	0xbd44378f	-0.047904547
236	0x3dbf055e	0.093271956
237	0x3dcbef4b	0.09957751
238	0xbe1a0177	-0.15039621
239	0xbd8790d4	-0.06619421
240	0x3d98da70	0.07463539
241	0xbd28a308	-0.041171104
242	0x3dd47a5c	0.10374901
243	0xbd4de340	-0.05026555
244	0x3d909b4c	0.070608705
245	0xbe094cfa	-0.1340827
246	0xbdc961fc	-0.09833142
247	0x3e58b7f0	0.21163917
248	0xbe49e5bc	-0.19716543
249	0x3da72258	0.081608474
250	0xbe41fbe6	-0.18943748
251	0xbe4fea32	-0.20304182
252	0x3d844eec	0.06460366
253	0xbdf93dbc	-0.12169978
254	0x3c1860e0	0.009300441
255	0xbe22791e	-0.15866515

encoder.2.bias f4 [32]
0	0xbded7b84	-0.11595824
1	0xbb9d8189	-0.0048067016
2	0xbd2c8980	-0.042123318
3	0x3e3a4b10	0.18192697
4	0x3e42d4fc	0.1902656
5	0xbe495cc0	-0.19664288
6	0x3e1244ce	0.1428406
7	0x3e197870	0.1498735
8	0x3da46613	0.080272816
9	0xbb424abc	-0.0029646596
10	0xbdd54cb5	-0.10415021
11	0x3e7f7b7e	0.24949452
12	0xbd0fec4e	-0.035137467
13	0x3c09e396	0.008416077
14	0x3db39efe	0.0877056
15	0xbe755d0c	-0.23961276
16	0xbdd8f22c	-0.105930656
17	0xbe7af92e	-0.24509117
18	0x3e84ee70	0.25963163
19	0x3dc981be	0.098391995
20	0x3e4727d6	0.1944879
21	0x3cfa57bf	0.030559419
22	0x3e2fd3cd	0.1717064
23	0xbe1e8ba9	-0.15482964
24	0xbe446671	-0.19179703
25	0x3deb48b5	0.11488477
26	0x3df02d01	0.11727334
27	0x3ca71b9f	0.020398913
28	0x3e0f5612	0.13997677
29	0x3dee706e	0.11642538
30	0x3d929345	0.07156996
31	0xbe0c0e76	-0.13677391

decoder.0.weight f4 [32, 16, 3, 3]
0	0xbd934b38	-0.07192081
1	0x3c46f440	0.012143195
2	0xbd293068	-0.04130593
3	0x3ceb46b0	0.02872023
4	0x3d57023a	0.052492358
5	0xbc661f60	-0.014045566
6	0xbd576f08	-0.052596122
7	0x3c4be6b8	0.012445144
8	0x3d80e269	0.06293184
9	0x3d11233a	0.035433985
10	0xbbff1340	-0.007784277
11	0x3c45ff68	0.012084819
12	0xbc77a220	-0.015114337
13	0x3d27bf36	0.040953837
14	0xbd8a913f	-0.06765985
15	0x3cd5586c	0.02604314
16	0x3d36f3c6	0.044666074
17	0x3d977b93	0.07396617
18	0xbd6c368e	-0.057669215
19	0xbd8b1353	-0.06790795
20	0xbd3d3580	-0.0461936
21	0x3d6dbc86	0.058041118
22	0xbcd19fe6	-0.02558894
23	0x3d81ae49	0.063320704
24	0x3d860177	0.06543248
25	0xbd05d32b	-0.03267209
26	0xbda664a0	-0.081246614
27	0xbb4f2c60	-0.0031612143
28	0x3c391f00	0.011298895
29	0x3d67505e	0.05647313
30	0xbd9c7487	-0.07639413
31	0x3d189718	0.03725347
32	0xbd510848	-0.05103329
33	0xbcc2f6f0	-0.02379939
34	0xbda2970c	-0.07938966
35	0x3d52f212	0.051500387
36	0xbd18f50b	-0.037343066
37	0xbd40b83b	-0.047050696
38	0xbd62f54b	-0.05540971
39	0x3d7fbaf6	0.06243416
40	0xbd71e7b8	-0.059058875
41	0x3d98574d	0.07438526
42	0x3d2b2192	0.041780062
43	0x3d45045a	0.048099853
44	0x3c20a840	0.009805739
45	0xbd29776e	-0.041373663
46	0x3d893313	0.06699195
47	0x37825000	1.553446e-05
48	0x3d3a5242	0.045488603
49	0xbc8d8cec	-0.01727911
50	0xbc108b28	-0.00882224
51	0x3c760d38	0.0150178
52	0x3c89e08c	0.016830705
53	0x3c90cafc	0.017674915
54	0x3c685ef8	0.014182799
55	0x3d142c66	0.036175154
56	0xbd828fee	-0.06375109
57	0x3c977550	0.018488556
58	0xbd811ea4	-0.06304672
59	0x3d1dd6f8	0.03853509
60	0x3d1297fa	0.035789467
61	0x3d46ed22	0.04856599
62	0x3d849fd1	0.06475795
63	0x3d684a4e	0.056711487
64	0x3b83ab00	0.0040181875
65	0x3c9a3070	0.018821925
66	0x3d23a7a6	0.039954804
67	0x3b2b5e00	0.0026148558
68	0xbda757da	-0.08171053
69	0x3d46f342	0.048571832
70	0x3d604d66	0.054761313
71	0x3d775c3e	0.060390703
72	0x3ceec010	0.029144317
73	0x3c9cfd5c	0.01916378
74	0xbc7789c0	-0.015108526
75	0x3d127bce	0.0357626
76	0xbda54742	-0.08070232
77	0xbd98e8af	-0.07466256
78	0xbceb4c5c	-0.028722934
79	0xbd51079b	-0.051032644
80	0xbcdf9f8c	-0.027297758
81	0x3d85f471	0.06540764
82	0xbd3c8266	-0.046022795
83	0xbd085c63	-0.03329123
84	0x3d66def2	0.05636496
85	0x3d5498fa	0.051903702
86	0x3d418172	0.04724259
87	0xbd4e74be	-0.050404303
88	0xbbb768f0	-0.0055972263
89	0xbdaa11a2	-0.083041444
90	0xbd112be6	-0.035442255
91	0xbaeb9fc0	-0.0017976686
92	0x3caa16a0	0.020762742
93	0xbd68bb30	-0.05681914
94	0xbda501b7	-0.08056968
95	0x3c43c880	0.011949658
96	0xbd665e10	-0.05624205
97	0x3bf1ea40	0.007382661
98	0xbda95bc4	-0.08269456
99	0x3d26f332	0.040759273
100	0x3d442022	0.047882207
101	0xbc1bdd48	-0.009513207
102	0xbd96ae6a	-0.073574856
103	0xbd21c8bb	-0.039498072
104	0x3bdbb170	0.006704502
105	0xbbf0cf10	-0.0073489025
106	0x3d9b5ccd	0.0758606
107	0xbc9b5b14	-0.018964328
108	0xbda51c24	-0.08062008
109	0xbda4930a	-0.08035858
110	0xbcb70570	-0.02234146
111	0x3d73e726	0.059546612
112	0xbc88e170	-0.01670906
113	0xbd4035e8	-0.04692641
114	0x3b009a20	0.0019623116
115	0x3d40bde2	0.047056086
116	0xbaabeb40	-0.0013116375
117	0xbd2e7646	-0.042593263
118	0xbc98fa74	-0.018674113
119	0xbd902baa	-0.07039578
120	0x3ce1f180	0.027580976
121	0xbd5f64b8	-0.054539412
122	0x3d89973d	0.067182995
123	0x3d4d6c02	0.050151832
124	0x3d6cd0f2	0.057816453
125	0x3d5c076e	0.053718023
126	0xbce5ede0	-0.02806753
127	0xbd992106	-0.07477002
128	0x3da7d481	0.08194829
129	0x3bd1c650	0.0064018145
130	0x3d85b7ff	0.06529235
131	0x3d5dfb7a	0.054194905
132	0xbd81deee	-0.063413486
133	0x3b0bbb80	0.0021321476
134	0x3d1740e2	0.03692711
135	0x3d31d60a	0.043417014
136	0x3c4132e0	0.011791915
137	0xbda720f0	-0.08160579
138	0x3bfda950	0.007741131
139	0x3d951f85	0.072814025
140	0xbbcad1d0	-0.0061895624
141	0x3d926839	0.07148785
142	0x3d3ce8e2	0.04612053
143	0xbd87a33b	-0.066229306
144	0xbd324b38	-0.043528765
145	0x3bc62bd0	0.0060477033
146	0xbd94ae83	-0.07259848
147	0xbcd8a426	-0.02644546
148	0xbd6b27a3	-0.057410847
149	0xbd642a53	-0.055704426
150	0x3d7b6032	0.061371036
151	0xbbe529d0	-0.00699351
152	0x3d8e66b9	0.069531865
153	0x3d4b0aca	0.049570836
154	0x3d7704a2	0.060307153
155	0x3c3294a6	0.010899698
156	0xbd90bd03	-0.07067301
157	0xbbb7e3d0	-0.005611874
158	0xbd7a69ed	-0.061136175
159	0xbd701cd9	-0.05862126
160	0x3d5663f2	0.05234141
161	0xbb4447bc	-0.0029949984
162	0xbd73ebe9	-0.059551153
163	0x3c5a41c1	0.013321341
164	0xbd8a36ee	-0.06748758
165	0xbd5704ff	-0.052495
166	0xbc2623d1	-0.010140375
167	0x3d3f8478	0.04675719
168	0xbd772b32	-0.06034393
169	0xbd8ea74f	-0.06965505
170	0x3d5efae3	0.054438483
171	0xbd133433	-0.035938453
172	0x3d4b8fb2	0.049697585
173	0xbbc9a500	-0.0061537027
174	0xbc7fe5da	-0.015618766
175	0x3d491f74	0.04910226
176	0xba9e41da	-0.0012074069
177	0x3c61c000	0.0137786865
178	0xbd18ebc5	-0.037334222
179	0xbd3be49e	-0.045872323
180	0x3c69c42f	0.014267965
181	0x3d8b07a3	0.06788566
182	0xbb06921b	-0.0020533863
183	0x3d17358e	0.036916308
184	0x3bc94972	0.0061427886
185	0xbcef7cb0	-0.02923426
186	0x3d87a8d2	0.06623997
187	0x3d7535e9	0.059865866
188	0xbd6b1436	-0.05739232
189	0xbce3a5a6	-0.027788948
190	0xbcb44b0a	-0.022008438
191	0x3d89b634	0.067242056
192	0xbd19ed06	-0.03757956
193	0x3daf7b6a	0.08568461
194	0xbd80632d	-0.06268916
195	0x3c359642	0.011083188
196	0xbc60c64d	-0.013719154
197	0x3cb1aa23	0.021687573
198	0x3d740096	0.05957087
199	0x3d422a8a	0.04740385
200	0x3c2c74e8	0.0105259195
201	0x3d11d258	0.03560099
202	0x3d621e8a	0.055204906
203	0xbd7206b8	-0.05908844
204	0x3da825db	0.08210345
205	0x3d29ac08	0.041423827
206	0xbcf598f0	-0.029980153
207	0x3d8f8a75	0.070088305
208	0xbd9b626a	-0.0758713
209	0xbc864ec4	-0.01639498
210	0xbd44556b	-0.047933023
211	0x3c679008	0.014133461
212	0x3b793060	0.0038023219
213	0x3d469cf2	0.04848952
214	0x3b800c40	0.0039077103
215	0xbda981a4	-0.0827668
216	0x3d39051a	0.04517088
217	0x3d9b2996	0.07576291
218	0x3d98345d	0.074318625
219	0x3d9a54e6	0.07535724
220	0xbcac72db	-0.021050861
221	0x3d1e7a74	0.038691
222	0xbbfaf630	-0.0076587424
223	0x3d3bf7f0	0.04589075
224	0x3ce1bf90	0.027557164
225	0x3d2a23aa	0.04153792
226	0xbd5c994b	-0.05385713
227	0xbb224920	-0.0024762824
228	0xbce2ec40	-0.027700543
229	0xbd886083	-0.06659033
230	0xbc986314	-0.018601932
231	0xbd2146e3	-0.039374243
232	0x3bd80ea4	0.006593542
233	0x3d7091ce	0.0587328
234	0xbc6f44e8	-0.014603831
235	0xbd773b27	-0.060359146
236	0x3cd3f784	0.02587486
237	0x3d0880d6	0.033325993
238	0xbd0e79b9	-0.034784053
239	0x3d2d0ae4	0.042246714
240	0x3bc44d10	0.005990632
241	0xbd42dd59	-0.047574375
242	0x3cabcc60	0.020971477
243	0x3d86a4b8	0.06574386
244	0xbd85c511	-0.06531728
245	0x3d3cc0de	0.04608237
246	0x3d8c906b	0.06863483
247	0x3d875529	0.0660804
248	0xbd8a28d1	-0.06746066
249	0x3c1226cc	0.008920383
250	0xbd86318f	-0.06552421
251	0x3cd6a76f	0.026202885
252	0x3d38dbaa	0.045131363
253	0x3d4c6d0e	0.04990869
254	0xbc9f9500	-0.019480228
255	0x3c8fe1dc	0.017563753

decoder.0.bias f4 [16]
0	0xbcf4949f	-0.029856024
1	0xbca6ee60	-0.020377338
2	0x3ccb8c74	0.024847247
3	0x3dcadb07	0.099050574
4	0xbd62a316	-0.055331312
5	0x3d8dd5cb	0.069255434
6	0xbd5ef9d2	-0.054437466
7	0xbd9ee8ba	-0.07759233
8	0x3c10ca12	0.00883724
9	0xbc799085	-0.01523221
10	0x3d6b827c	0.057497486
11	0x3dc94ab4	0.098287016
12	0xbd910553	-0.07081094
13	0x3dac9aa2	0.08427931
14	0xbce8b461	-0.028406324
15	0xbd8fead2	-0.0702721

decoder.2.weight f4 [16, 1, 3, 3]
0	0x3ddea2e1	0.108709104
1	0x3e0d5941	0.13803579
2	0xbd923e12	-0.07140745
3	0xbd5c1493	-0.05373056
4	0xbdc42768	-0.09577829
5	0xbdb612ae	-0.088902816
6	0x3cbc6770	0.022998542
7	0xbe091d08	-0.13389981
8	0x3dd5911f	0.1042807
9	0xbe98947d	-0.29800788
10	0xbe2f1475	-0.17097647
11	0x3e0d3986	0.13791475
12	0x3e6865ac	0.22695035
13	0x3da3d6f7	0.07999986
14	0xbcafdf9c	-0.02146893
15	0x3e82f1a0	0.2557497
16	0x3de217f6	0.110397264
17	0x3da414cd	0.0801178
18	0xbe63c19b	-0.22241823
19	0x3e913854	0.28363287
20	0xbcacdb89	-0.021100776
21	0x3e7a9439	0.24470605
22	0x3db7eedf	0.08981108
23	0x3e35f489	0.17769064
24	0xbe5352f8	-0.20637119
25	0xbea36712	-0.31914574
26	0x3e0d7a4d	0.13816185
27	0xbdf65054	-0.1202704
28	0x3e540030	0.20703197
29	0xbe9a85a6	-0.3018009
30	0x3e406bb1	0.18791081
31	0xbe107070	-0.14105392
32	0xbe9365e9	-0.2878869
33	0xbe93801d	-0.2880868
34	0xbe94fc2d	-0.29098645
35	0x3e1673ec	0.14692658
36	0xbd8b838d	-0.06812201
37	0xbd5f6fd7	-0.05455002
38	0x3e9a4aa8	0.30135083
39	0x3e9184d2	0.28421646
40	0xbe4b287c	-0.19839662
41	0x3daab725	0.08335713
42	0xbe437802	-0.19088748
43	0x3c9d78ae	0.019222584
44	0x3dae4017	0.08508318
45	0xbe239a27	-0.15976773
46	0xbe5c7f77	-0.21532999
47	0x3d634204	0.05548288
48	0xbea02faf	-0.3128638
49	0xbda703e2	-0.081550375
50	0x3d2929d1	0.041299645
51	0x3d28d34e	0.04121714
52	0x3e30809a	0.17236558
53	0xbe982f33	-0.2972351
54	0x3e34e9c7	0.17667304
55	0x3e71ab9b	0.23600619
56	0x3e8c6638	0.27421737
57	0x3c3b8ee0	0.011447638
58	0x3e3629eb	0.17789428
59	0x3e53db9a	0.2068924
60	0xbe8c0f52	-0.27355438
61	0xbd667214	-0.056261137
62	0x3d42d2dc	0.047564372
63	0x3e3d7ddf	0.18505047
64	0xbe8a21db	-0.26978955
65	0xbea5ad5a	-0.3235882
66	0x3ea59ad4	0.32344687
67	0xbe47cf88	-0.1951276
68	0xbd3f9a6e	-0.046778135
69	0x3ea31bd1	0.3185716
70	0xbe4471b9	-0.19184007
71	0x3ea60ea4	0.32433045
72	0xbcba122f	-0.022713749
73	0xbe9510d1	-0.29114392
74	0x3e9d154e	0.30680317
75	0x3ea29d15	0.3176047
76	0xbe8be96d	-0.27326527
77	0xbe3f4eda	-0.18682423
78	0xbe0fe622	-0.14052632
79	0x3e960c44	0.29306233
80	0xbdcd5b4c	-0.10027179
81	0xbeac54e5	-0.3365852
82	0xbe7d04bf	-0.24708842
83	0xbdfb0a92	-0.122578755
84	0xbeb033c8	-0.34414506
85	0xbe9eb2aa	-0.30995685
86	0xbea88567	-0.32914278
87	0xbe7b45bb	-0.24538319
88	0xbeac7870	-0.33685637
89	0xba8d5e7b	-0.0010785604
90	0xbdf0442a	-0.11731751
91	0x3e9f6c62	0.31137377
92	0xbe903471	-0.2816501
93	0xbe3e3844	-0.18576151
94	0xbe71173c	-0.2354402
95	0xbe49e918	-0.19717824
96	0xbe6caa52	-0.23111847
97	0xbe0d7fe6	-0.1381832
98	0xbdc6fccf	-0.09716188
99	0xbe6091cb	-0.21930616
100	0xbe9cd567	-0.30631563
101	0x3e671f4b	0.22570531
102	0x3daac727	0.083387665
103	0xba0e169c	-0.0005420239
104	0x3e9bcb2c	0.30428445
105	0xbd8b3e47	-0.06798988
106	0xbe83e1e1	-0.2575827
107	0xbe862c05	-0.2620546
108	0x3ea5a1a6	0.3234989
109	0x3cc521f3	0.02406404
110	0x3bb74ad2	0.005593636
111	0x3e5341af	0.20630525
112	0xbe5c7353	-0.21528368
113	0x3d829dba	0.0637774
114	0x3e2278e5	0.1586643
115	0xbdc14ccd	-0.09438477
116	0xbc82a0e9	-0.015945869
117	0x3e89f217	0.26942512
118	0xbe1eb239	-0.15497674
119	0xbeabf97a	-0.33588773
120	0xbe18bf85	-0.14916809
121	0xbd8ed600	-0.06974411
122	0xbe6eca1d	-0.23319288
123	0xbe9dfb9e	-0.3085603
124	0x3e8ce9e5	0.27522197
125	0xbde6c77a	-0.11268516
126	0xbe669199	-0.22516479
127	0x3d032522	0.032017834
128	0xbe5ea3d5	-0.21742184
129	0xbe86fea3	-0.26366147
130	0x3d9c3d7e	0.07628916
131	0xbe95d65a	-0.292651
132	0x3e0c44cd	0.1369812
133	0xbe47bf0d	-0.19506474
134	0xbe87b2a8	-0.2650349
135	0xbd1a1a8e	-0.03762298
136	0x3e06031d	0.13087125
137	0xbcaece14	-0.0213385
138	0xbe931926	-0.28730124
139	0x3d835017	0.0641176
140	0x3ded47e7	0.1158598
141	0x3dfdbd0a	0.12389572
142	0xbe436fb7	-0.19085585
143	0x3e8d7c90	0.27634096
