checkpoints/epoch_5.pth (torch, 24320 bytes, 7 tensors)

encoder.0.weight f4 [16, 1, 1, 1]
000000 7a 9e 38 bf 00 8f da 3b 3f 4b 21 3f c9 30 63 3e
       -0.72116816 0.006669879 0.6300544 0.22186579
000010 b8 10 5f bf 09 0e 65 3f d0 8e 52 bf ce 50 46 3f
       -0.87134886 0.8947454 -0.82249165 0.7746705
000020 43 2f 8d 3e ab 82 0b 3f b5 23 5c bf a6 f4 1d 3f
       0.2757512 0.5449626 -0.85991985 0.6170143
000030 d8 d0 1a bf a0 17 12 bf 34 4e a8 be 70 0c 1a bf
       -0.6047492 -0.570673 -0.32872164 -0.6017523

encoder.0.bias f4 [16]
000000 ca 94 39 bf 96 19 35 bf 50 59 dd be 7f 09 7d 3f
       -0.7249266 -0.70742166 -0.43232203 0.98842615
000010 6e e7 3c bf b0 c1 1f 3d d8 5d 8c be f0 36 93 be
       -0.73790634 0.039003074 -0.27415347 -0.2875285
000020 94 d6 26 3f 68 99 aa bd 34 cf 0a 3f 56 b5 5b 3f
       0.6517117 -0.08330041 0.54222417 0.8582357
000030 b4 d2 ba be b4 a0 cb be 24 c0 a0 be 76 c3 fd 3e
       -0.3648888 -0.39771044 -0.31396592 0.49563187

encoder.2.weight f4 [32, 16, 1, 1]
000000 50 64 8b 3d 74 10 31 be 10 b8 6c 3d 68 b5 52 be
       0.068062425 -0.17291433 0.057792723 -0.20577013
000010 90 cd a0 3c 4a ac 0c 3e 08 59 df 3d 6c 55 e3 bd
       0.01962927 0.13737598 0.10905653 -0.11100277
000020 ec bf d7 bd 84 af ea 3d 90 e3 7a 3d 0a e2 35 be
       -0.10534653 0.11459258 0.061252177 -0.17762008
000030 f0 5c da 3c e4 ed 1f 3e 32 a1 44 be 90 7e 36 3d
       0.026655644 0.15618092 -0.19202116 0.044554293
000040 da 0f 11 3e 90 c0 6c 3e c8 63 8d 3d 62 80 28 be
       0.14166203 0.23120332 0.069037974 -0.16455224
000050 a2 d5 51 3e 4e 5e 05 be 5c 38 e0 bd b8 7a f0 3d
       0.2049165 -0.13024256 -0.1094825 0.11742157
000060 48 2a 1c be 74 5e 97 3d 16 1e 2c be ec 89 23 be
       -0.15250504 0.073910624 -0.16808352 -0.15970582
000070 a4 47 a5 bd a0 e6 e7 3c 70 79 11 bd 4e 9a 12 be
       -0.08070305 0.028308213 -0.035516202 -0.14316675
000080 20 0f 2f bd 76 5a 7b be e8 9d b5 bd 00 b5 b1 3a
       -0.042739034 -0.24546227 -0.08868009 0.001355797
000090 f8 55 48 be a0 c9 36 3e f0 3d 8b 3d c4 f7 d8 bd
       -0.19564044 0.17850351 0.06798923 -0.105941325
0000a0 a0 2f 5f be a2 62 61 3e 40 9e 13 be 80 51 5c bd
       -0.21795511 0.22010282 -0.14415836 -0.053788662
0000b0 8e 49 14 be 28 47 ef 3d a0 3e e4 bc 00 a6 89 3d
       -0.14481184 0.11683494 -0.027861893 0.06721115
0000c0 06 b9 61 3e c0 b2 66 bd 90 b5 03 bd c0 5e ca 3b
       0.22043237 -0.056322813 -0.032155573 0.006175846
0000d0 2e 04 32 be d0 56 ec bc 60 19 5c 3d d2 2e 71 3e
       -0.17384407 -0.02884999 0.053735137 0.23553017
0000e0 52 a2 73 3e 2c 36 8e 3d 80 d7 b8 bd 26 62 6e be
       0.23792389 0.06943926 -0.09025478 -0.23279628
0000f0 86 a5 41 be aa ef 32 be 74 b6 c2 3d 4c ad 9f 3d
       -0.18910798 -0.17474237 0.095074564 0.07796726
000100 18 72 68 3e 38 13 77 be 4c b8 0e 3e 7c 64 c0 bd
       0.22699773 -0.24128425 0.13937491 -0.09394166
000110 5e 36 2d be 62 1e 21 be e8 12 3f bd 40 87 aa bd
       -0.1691527 -0.15734246 -0.04664889 -0.08326578
000120 84 7f 82 bd 5c 1d 0c 3e 12 a1 71 3e e2 83 13 be
       -0.06371978 0.13683075 0.235966 -0.14405778
000130 dc fc 78 3e 10 d7 49 be a0 d3 96 3d 28 a7 11 be
       0.24315208 -0.19710946 0.07364583 -0.14223921
000140 a8 00 41 3d b0 40 98 3c 3c cc 07 3e 30 38 f1 bd
       0.047119766 0.018585533 0.13261503 -0.11778295
000150 aa 33 56 be 54 7d 1f be c4 85 f1 3d 14 9c 5f be
       -0.20918146 -0.15575153 0.11793092 -0.21836883
000160 a0 82 d8 bc 24 a6 91 3d 96 7e 56 3e 72 63 23 3e
       -0.026429474 0.07111767 0.20946726 0.15955904
000170 00 09 91 3a a2 2c 4c be 08 e8 66 be a8 8f 78 be
       0.0011065304 -0.19938901 -0.2254945 -0.2427355
000180 c0 d7 bd 3b c4 2f ca 3d c0 fc b0 3d 64 03 d3 3c
       0.0057935417 0.09872392 0.08641958 0.025758453
000190 54 60 5f 3e 24 d5 eb bc b8 c7 b6 3d 12 48 95 3c
       0.2181409 -0.028788157 0.08924812 0.018222842
0001a0 ac fb 02 3e 8e e9 ba bc 36 10 3c be 4d 8c 90 bd
       0.12791318 -0.022816446 -0.18365559 -0.0705801
0001b0 de 98 00 3e 5e 13 1f be 3a 15 03 be 3b d8 08 be
       0.12558314 -0.15534732 -0.12801066 -0.13363735
0001c0 74 cf b9 3d c0 9d 7e bc 2a 9c 63 be bc e5 95 bd
       0.09072772 -0.01554054 -0.2222754 -0.07319209
0001d0 b8 2f 3d bd 72 70 21 be 04 e9 22 3e ce 40 3c be
       -0.046188086 -0.1576555 0.15909201 -0.18384096
0001e0 22 4c 62 be 40 24 cf 3d b0 2e 4e 3e a8 e2 fd bd
       -0.22099355 0.10114336 0.20134997 -0.12396747
0001f0 78 57 3f be 8c 3f 88 bd 74 76 32 3e a4 bc 3e 3e
       -0.1868571 -0.066527456 0.17427999 0.18626648
000200 5c 4f 3b 3e f0 dc bd 3c 9a 12 48 3e 28 ee 32 bd
       0.18291992 0.02317664 0.19538346 -0.043684155
000210 10 0e 2c 3e 10 8a 3c be 60 67 b8 3d 2c 0d 78 be
       0.1680224 -0.18412042 0.09004092 -0.24223775
000220 22 75 5e be 88 22 ec 3d 3c f3 59 be 86 39 21 be
       -0.2172437 0.11530024 -0.21284193 -0.157446
000230 88 56 18 bd 68 2a d7 3d fe 7c 02 3e 7a 85 21 be
       -0.037191898 0.10506135 0.12742993 -0.15773574
000240 80 3f a0 bc 7c a2 16 be a8 10 3c 3d e0 1c 6a bd
       -0.01956153 -0.1471042 0.045914322 -0.057156444
000250 00 2e 5f be c0 c5 73 3c 98 61 a1 3d 06 a6 68 3e
       -0.21794891 0.01487869 0.07879943 0.22719583
000260 a8 50 73 be 28 df 23 3e b8 a9 3d 3d 44 7a 4b be
       -0.23761237 0.16003096 0.046304435 -0.1987086
000270 04 7f cd bd f8 62 16 bd 20 7e 80 3c 40 3a 7c 3d
       -0.10033992 -0.036715478 0.015685141 0.06157899
000280 b4 28 b5 3d 00 ea 4d 3c 9e 53 10 3e a6 39 f9 bc
       0.08845654 0.012567997 0.14094397 -0.030422997
000290 3e c0 4b 3e ba 1b 23 3e 76 a4 68 be d3 57 78 3e
       0.19897553 0.15928546 -0.22718987 0.24252252
0002a0 54 b4 03 3d 5b e9 66 3e 7d 22 0d 3d 72 bc ea 3d
       0.032154396 0.22549956 0.03445672 0.11461724
0002b0 6c 7b 9e 3d 18 02 7c be 14 e6 45 be 77 07 17 bd
       0.077383846 -0.24610174 -0.19326049 -0.036872353
0002c0 b4 b6 b5 bd 48 b3 7a bd af 1b c9 bc b8 be 97 3c
       -0.088727385 -0.061206132 -0.024549333 0.018523559
0002d0 b2 f5 13 3e 9b d2 ce bd d8 90 42 be f9 8d 5f 3e
       0.14449194 -0.100987636 -0.19000566 0.21831502
0002e0 e0 75 6b be ef 0e 68 3e ed 45 02 be c3 2e 1e 3e
       -0.22994184 0.22661947 -0.12721987 0.15447526
0002f0 e8 f8 07 3e be 96 0c 3e 86 f3 1b 3e cf 51 ff bd
       0.13278544 0.13729379 0.15229616 -0.124667756
000300 78 b7 cf bd e0 69 89 bc 24 d0 7d 3e c7 97 a2 bb
       -0.10142416 -0.016774118 0.2478643 -0.004961941
000310 0a 54 46 be db 83 47 be 80 e5 57 be b2 41 23 3e
       -0.19367996 -0.19483893 -0.21083641 0.1594303
000320 2e dd c4 bd 2d 64 6b 3e ba 5e 80 3d 97 7f d0 3d
       -0.09612499 0.22987433 0.06268068 0.10180586
000330 88 64 7c 3d 40 44 8a bc a4 6e 2a 3e d8 81 42 3d
       0.06161931 -0.016878247 0.16643769 0.04748711
000340 c6 b9 67 3e 50 be 12 be 3e 97 1e 3e 00 fc 07 be
       0.2262946 -0.14330411 0.15487382 -0.13279724
000350 0c 42 a3 3d f0 8c 94 bc 36 f7 12 3e e0 76 7d bc
       0.07971582 -0.01813361 0.14352116 -0.015470237
000360 40 d6 dd bc e0 03 93 3c 24 2c 53 3e 14 44 97 bd
       -0.027079701 0.017946184 0.20622307 -0.07386032
000370 68 94 07 bd 40 98 53 3c 74 8e c7 bd e2 5b 2f be
       -0.033100516 0.012914717 -0.09743968 -0.17124894
000380 80 fd 73 3e 82 91 16 3e 95 9a 77 3d 4c c5 c9 bd
       0.23827171 0.14703944 0.060450155 -0.098520845
000390 18 7f a0 3d be 29 23 3d 92 9c 6e be 2f 9b 46 be
       0.07836741 0.03983473 -0.23301914 -0.19395135
0003a0 b4 90 5e 3e 30 d4 d5 3d e1 d4 61 be da e6 54 3e
       0.21734887 0.10440862 -0.22053863 0.20791188
0003b0 80 79 f8 3d 20 a2 01 be 0c 2a cd 3d 82 d6 55 bc
       0.12132549 -0.12659502 0.100177854 -0.013051631
0003c0 d8 36 b5 bd 50 a6 83 bd 88 53 8d 3d 9c ef b2 bd
       -0.08848351 -0.06428206 0.06900698 -0.08737108
0003d0 d0 3e 02 3e 60 bf 0b bc 00 aa 58 bb b8 d2 ea 3d
       0.12719274 -0.008529514 -0.0033060312 0.11465973
0003e0 3c ea 02 3e ca 0b 18 3e 08 53 64 3d 00 25 50 be
       0.12784666 0.14848247 0.055743247 -0.20326614
0003f0 d0 02 0d 3e 98 47 21 bd 0c 38 89 3d 9c 78 82 3d
       0.13770604 -0.039374918 0.06700143 0.06370661

encoder.2.bias f4 [32]
000000 f7 00 05 3e 84 cc 73 be fc 41 ab bd d8 ca 32 bd
       0.1298865 -0.23808485 -0.08362195 -0.043650478
000010 8a dc 17 3d 28 ef 03 be c3 03 40 3e b3 cd 6a 3d
       0.037075557 -0.128842 0.18751435 0.057325076
000020 d4 71 e3 bd 30 9a 0f be e6 7f 48 3c ba 09 79 3e
       -0.11105695 -0.14023662 0.012237525 0.24320117
000030 32 4a 8c 3d b0 4e b1 bd 6a b7 cd 3c bc 13 8f bd
       0.06850089 -0.086575866 0.025111873 -0.06986186
000040 79 e6 61 3e 5a 1d 13 3e 9a a9 bc 3d 1f 39 49 3c
       0.22060575 0.14366665 0.092120364 0.012281685
000050 f0 ed 19 be 03 36 a1 3d e0 7b f5 bd bb bf 26 3e
       -0.15032172 0.0787163 -0.11986518 0.16284077
000060 77 36 fc 3d 9b 21 d5 3d 40 d9 1d 3e f0 a1 60 bd
       0.12315076 0.104068 0.15414906 -0.054841936
000070 e0 eb ec 3c 72 d9 35 3e 78 40 b2 bd 54 11 3e be
       0.028921068 0.1775873 -0.08703703 -0.18561298

decoder.0.weight f4 [32, 16, 3, 3]
000000 a8 5a 61 bc d8 ca c9 b8 f3 e9 c0 3c 40 2c df bc
       -0.013754524 -9.6222095e-05 0.023549056 -0.02724278
000010 c0 33 e5 3b 4a d3 78 3d 8c d9 39 3d 9c b8 65 bd
       0.0069946945 0.060748376 0.045373484 -0.05608426
000020 27 a1 a6 bd 26 dd 5f bd 78 b2 9e 3d 11 bd 0f 3d
       -0.08136206 -0.054654263 0.07748884 0.035092417
000030 ec 57 5d 3c 0c 59 1c 3d d4 ed e2 bb ae cd 7c bd
       0.013509732 0.03817086 -0.006925324 -0.06171959
000040 46 92 2a bd e8 29 00 bd 56 97 51 3d 16 fe 6d bc
       -0.041643403 -0.031289965 0.051169716 -0.014525911
000050 e0 13 31 3d 9b 75 92 bd b1 68 80 bc 89 5b fe 3c
       0.043231845 -0.07151338 -0.01567492 0.031049507
000060 3c f1 86 bd ec 65 05 3d b1 5e d0 bb 77 58 98 bd
       -0.065889806 0.032567903 -0.0063589443 -0.07438748
000070 30 e9 e8 3c 80 de 54 ba 18 11 20 3c 30 49 03 bd
       0.028431505 -0.0008120313 0.0097697005 -0.03205222
000080 5a 6f 52 3b 04 66 bb 3c e5 4f 04 bd d6 8a f6 bc
       0.0032109828 0.022875793 -0.032302756 -0.030095499
000090 7e eb 3f 3d c6 bf 9d 3d 5b 93 a8 bd b2 d0 09 3d
       0.046855442 0.077025935 -0.08231231 0.033646293
0000a0 58 89 16 3c 73 50 2d bd 69 6c 82 3d 2d cb 25 bd
       0.009188019 -0.04231305 0.06368334 -0.040476967
0000b0 ac 8b a3 bd 06 ce 95 bd 76 a1 23 3d 86 cb 50 3c
       -0.07985625 -0.073146865 0.039948903 0.012743836
0000c0 72 2f 8a 3d 4b 80 9b 3d 36 ce 27 3d 80 e9 c0 3c
       0.06747331 0.07592829 0.040968142 0.023548841
0000d0 59 e7 59 bd fe 2b 58 bd 85 d7 95 3d 04 03 1a bd
       -0.053199146 -0.05277633 0.07316498 -0.037600532
0000e0 67 8a 3b bd 40 04 33 3c 8d aa 6e bc 02 00 3c bd
       -0.045786288 0.010926306 -0.01456703 -0.045898445
0000f0 5d 87 3c bd f7 4d 31 bd d2 0e 12 bd f6 8b 84 bd
       -0.04602753 -0.043287244 -0.035658665 -0.06472008
000100 e7 34 05 3d 02 ab 3a 3d ef 48 0c 3d 70 7d 42 3d
       0.032521155 0.045573242 0.034249242 0.047482908
000110 8d 81 1e 3d 56 7c a2 3d 15 f8 85 bd 06 7f 1f bd
       0.038697768 0.079338714 -0.065414585 -0.0389395
000120 a0 d4 ff 3c 7f 03 55 bd 4d 0d 5c 3d 0b 61 a2 bc
       0.031229317 -0.052005287 0.053723622 -0.019821664
000130 a7 09 ae 3c 90 71 35 39 1d b7 62 3d 14 a4 57 bd
       0.021244837 0.0001730381 0.05535041 -0.05264671
000140 43 47 a7 bc 4f 49 a7 bd 3d bf 25 bd c9 26 78 3d
       -0.020419722 -0.081682794 -0.040465582 0.060583863
000150 f3 81 88 bd 88 be 18 bc ca c1 b1 bb 6d 42 5b 3d
       -0.06665411 -0.00932277 -0.005424713 0.053530145
000160 4a 59 20 3b 71 69 39 3d e0 ce 8c bd 86 f6 3b 3d
       0.0024467283 0.045266572 -0.06875396 0.0458894
000170 fe b9 1c 3c f8 a5 43 3d c9 26 75 3d 10 10 a9 3c
       0.009565828 0.047765702 0.05985144 0.020637542
000180 83 c4 6a 3d bd ec e8 bc 62 d2 b7 bc e3 1e 41 bd
       0.057316314 -0.028433198 -0.022439186 -0.047148596
000190 08 c3 1a bc c6 5a 02 3d 85 89 8a 3d b3 64 01 bd
       -0.009445913 0.03182485 0.06764511 -0.031590175
0001a0 47 ca 9e 3d c6 0f 49 3d 48 07 25 bd ad 54 97 3d
       0.07753425 0.04908731 -0.040290147 0.073891975
0001b0 3a 17 34 3d f4 a7 90 bd 56 b6 17 3d c9 48 8b 3c
       0.043967463 -0.070632845 0.037039123 0.01700248
0001c0 f3 8b 92 3d 84 86 5a 3d d0 88 64 b9 21 a3 28 3d
       0.071555994 0.05335094 -0.00021794741 0.041171197
0001d0 fa 88 50 bd 60 40 3a bb 28 87 a3 bd c3 03 5f 3d
       -0.05091188 -0.0028419718 -0.079847634 0.054446947
0001e0 28 fa 77 bd 60 74 54 3b 11 a2 02 3d 14 9b 42 bd
       -0.060541302 0.0032417998 0.03189284 -0.047511175
0001f0 7c 71 96 bc 4d cd 16 bc 50 73 29 bd 16 4b d7 bc
       -0.01836466 -0.009204221 -0.041369736 -0.026280921
000200 2b bf 97 bd c7 81 c1 3c 43 76 12 bd 1c a5 8a bd
       -0.07409509 0.023621453 -0.035757314 -0.06769773
000210 2b db 36 bd 1e ca 73 3d a6 64 d5 bc 38 1d 74 3c
       -0.04464261 0.059518926 -0.02604897 0.014899544
000220 bd 1b 85 bd ed 32 b3 bb d3 89 ba 3d a4 05 04 3d
       -0.06499431 -0.0054687173 0.09108319 0.03223194
000230 05 e5 b5 3d a9 58 03 3d 08 b5 91 bd f2 8f 08 bd
       0.08881573 0.032066975 -0.07114607 -0.033340402
000240 1b 03 3a bd 78 7c 0c bc b1 6a 84 3d 6a a6 7b 3d
       -0.045413118 -0.008574598 0.06465662 0.061438
000250 c8 a6 41 bd 33 52 96 3d da 83 a3 bd 31 0a a8 3d
       -0.047278196 0.07339897 -0.07984133 0.08205069
000260 f1 76 8c 3d 60 59 01 bd 43 b4 4f bd b7 17 8b 3d
       0.06858624 -0.031579375 -0.05070902 0.067916326
000270 9a 98 2e 3d 80 b4 10 bb 38 dc 70 bc ab 42 4f bd
       0.042626 -0.0022080243 -0.014700942 -0.05060069
000280 74 37 89 bc 4e f3 70 3d bb c8 33 bd d0 96 e0 3c
       -0.016750075 0.058825783 -0.043892603 0.027415663
000290 aa 50 4c 3d 90 1b 40 bd ce 9d 61 bd a0 8d b6 3c
       0.049881615 -0.046901286 -0.055082135 0.022284329
0002a0 06 c9 bd bc ab 57 8d bd ed 4a 9d 3d b9 00 a7 3d
       -0.023167145 -0.06901487 0.076803066 0.08154435
0002b0 89 75 a9 3d e0 9a 4e bb 78 67 36 bd 37 d0 a1 3d
       0.08274371 -0.0031525418 -0.04453227 0.07901042
0002c0 98 42 7a bc 95 eb a3 3d 22 53 85 bd c0 5d c3 ba
       -0.015274666 0.08003918 -0.06509997 -0.0014905259
0002d0 11 be a9 3d 91 20 89 3d 52 b8 31 3d 76 d6 7e bd
       0.082882054 0.06695665 0.043388672 -0.062216245
0002e0 d3 98 a3 bd aa 0c 9a bd 83 68 80 3d 60 36 7e bb
       -0.07988133 -0.07521947 0.06269934 -0.0038789734
0002f0 20 b3 4b 3b b7 d2 83 bd aa 1c 24 3d e1 b9 9e 3d
       0.0031082109 -0.06436675 0.0400664 0.07750297
000300 db 72 01 bd 68 e1 53 bd 18 32 00 3c 00 80 6f b9
       -0.031603675 -0.051728636 0.007824443 -0.000228405
000310 e2 d6 83 bd dc 54 9b bc ab b0 a0 3d 9f 60 9d bd
       -0.0643747 -0.018961363 0.07846197 -0.07684445
000320 be f9 52 3d 90 db f3 3b 24 f9 a3 bc b8 34 6e bc
       0.051507704 0.0074419454 -0.02001626 -0.014538936
000330 46 f6 33 3d 9e d5 77 3d c8 1d 0f 3c 80 3e fa bc
       0.043936037 0.060506456 0.008735128 -0.03054738
000340 30 61 8e 3c 1a ba 41 3d 00 40 25 ba 40 49 06 3c
       0.017380327 0.04729662 -0.0006303787 0.008196175
000350 2d 38 82 3d c8 59 7e 3c 60 72 49 bc ba 77 58 3d
       0.06358371 0.015524335 -0.0122953355 0.052848555
000360 7a a3 3a 3d 8e 15 70 bd de 8b 7d bd f6 8b 3e bd
       0.04556606 -0.058614306 -0.061900966 -0.046520196
000370 0e 2e a0 bd 84 76 97 bc f0 49 eb bc 70 20 ff 3b
       -0.07821284 -0.01848913 -0.02872178 0.0077858493
000380 4f 83 90 bd 02 80 21 3d bc 64 e6 3c 96 78 e8 bc
       -0.07056295 0.03942872 0.028124206 -0.028377812
000390 87 0c 81 bd 72 63 3e 3d 86 f3 27 bd 68 95 71 bd
       -0.063012175 0.046481557 -0.041003726 -0.058980376
0003a0 36 61 24 3d 59 af a5 3d 33 3f 73 bd 22 f5 8f bd
       0.04013177 0.080900855 -0.059386443 -0.07029177
0003b0 ef 0f a4 3d 42 48 25 3d b0 63 a2 bc 70 f0 e9 3b
       0.080108516 0.040352114 -0.019822925 0.007139258
0003c0 20 e7 e2 3c 86 70 6f bd 66 01 8f bd 14 56 a3 bc
       0.0276981 -0.05845692 -0.069826886 -0.019938506
0003d0 c0 75 4b bd a0 25 01 3d 2e 27 60 3d 1a 5f 1c 3d
       -0.049672842 0.031530023 0.054724865 0.038176633
0003e0 f0 3a e5 bc c0 bb 03 3c fe 86 4f 3d 77 34 97 bd
       -0.027982205 0.008040369 0.050665848 -0.07383054
0003f0 5e 85 01 3d 94 85 95 bc b0 f9 b7 3b ab fb 25 bd
       0.03162133 -0.018252172 0.005614482 -0.040523212

decoder.0.bias f4 [16]
000000 dd 68 40 bd 55 e3 37 3d f3 47 50 3d a4 71 ce bb
       -0.046975005 0.044894535 0.050849866 -0.006300168
000010 23 7c f9 bc 52 6e 99 bc ca bd 60 bc fc 8e 4f 3d
       -0.0304547 -0.018729363 -0.013717124 0.05067347
000020 3f 43 7a 3d e6 65 1d 3d c9 6d 8a 3d b1 8b b6 bd
       0.061099287 0.038427256 0.06759221 -0.08913363
000030 64 1d b1 3c 13 89 41 bd 9e ab e6 bc 66 a3 8d 3b
       0.02162046 -0.047249865 -0.028158005 0.004322457

decoder.2.weight f4 [16, 1, 3, 3]
000000 51 be 81 3e f9 d3 1a be de 8f 94 3e ac 3d b7 bd
       0.25340512 -0.15119924 0.29016012 -0.0894731
000010 3d a4 81 3e e5 6d 28 be d8 6b 36 3d 33 45 8a be
       0.25320616 -0.16448171 0.04453644 -0.2700592
000020 99 b4 77 3e ed 3e d6 3d 68 e4 d8 3d e1 5f a6 3d
       0.24189986 0.10461221 0.1059044 0.08123756
000030 57 e6 bc 3d bb cc 91 3d eb 1a 79 bd 57 83 80 3e
       0.09223621 0.07119127 -0.060816687 0.25100204
000040 7e 85 9e be 04 ce ec b9 cd 41 65 3c 13 c5 24 3e
       -0.3096122 -0.0004516692 0.013992739 0.16090803
000050 e6 fe 9f be 80 d3 9e be ba 70 0f be 0e 6b a1 3e
       -0.3124916 -0.31020737 -0.14007846 0.3152699
000060 dc c8 ce 3c cf 09 5b be 5b fd 36 be 2b 91 9a be
       0.025242262 -0.2139046 -0.17870085 -0.3018888
000070 93 29 96 bd 1c 9b 15 3e 2f 63 6c be c0 be 05 bd
       -0.073321484 0.14609951 -0.2308471 -0.032652617
000080 ee 9f 95 3e ef a9 9e 3e 20 99 08 3e 4e 9a 82 3e
       0.2922358 0.30989024 0.13339663 0.2550835
000090 5c be db 3c 1c fd f7 bd 79 2b 04 be 07 54 a1 be
       0.026824169 -0.12108824 -0.12907209 -0.3150942
0000a0 65 64 a6 3e 88 be 8d be ec f0 c3 bd fe fe 04 3e
       0.3249847 -0.27684426 -0.095674366 0.12987897
0000b0 ad 14 36 be e4 0b 64 3e b2 2b a3 be 8a ba 5d 3c
       -0.17781325 0.22270161 -0.31869274 0.013533244
0000c0 03 16 43 be 91 52 95 be 53 83 18 3e fc d8 97 ba
       -0.19051366 -0.29164556 0.14893846 -0.0011585052
0000d0 3c 43 76 be e8 b0 76 be c7 97 93 be df 83 cf bc
       -0.24049085 -0.24090922 -0.28826734 -0.025331436
0000e0 b9 fd 89 be 97 2c 0f bd 92 37 06 3e 4e f6 20 be
       -0.26951388 -0.034954634 0.13107136 -0.15718958
0000f0 3e d0 de 3d 5d c4 a5 be f1 5a e6 3d e6 df 9a be
       0.10879563 -0.32376376 0.112478144 -0.30248946
000100 e1 c5 26 3e 8b ae 47 be 31 bf ad be e5 f6 8b be
       0.16286422 -0.19500177 -0.3393493 -0.27336803
000110 d6 1f aa 3d 0c 82 17 3e 56 ad 04 be 58 64 45 3e
       0.083068535 0.14795703 -0.12956747 0.1927656
000120 e0 bd a9 bd 55 b1 de 3d 33 1d 6b be 7a a7 46 bd
       -0.08288169 0.10873667 -0.22960357 -0.04849956
000130 6e 90 c7 3d 7e e8 ea 3d 78 9b a1 be 85 b5 31 3d
       0.09744345 0.114701256 -0.31563926 0.043386
000140 0e 36 76 3d 99 f7 8a be 6f a5 b3 bc ef 41 8c be
       0.060110144 -0.27142027 -0.02192947 -0.27394053
000150 26 02 96 3e 07 25 25 3d fa 71 6d bd f2 e1 e6 3d
       0.29298514 0.040318515 -0.057970025 0.112735644
000160 c5 17 a8 be 82 8e 30 3e c2 ed 95 3e c4 f1 7f 3e
       -0.32830635 0.17241862 0.29282957 0.2499457
000170 c4 6d f8 3b bb 4c 47 3d 76 24 ea bc f0 d2 66 be
       0.0075814445 0.04865716 -0.028581839 -0.22541404
000180 a9 70 90 be b6 03 02 be a8 8e fc bd a1 73 2c 3e
       -0.28210953 -0.12696728 -0.12331897 0.16840984
000190 71 6d 24 3c 42 de d1 3d 5b c4 d3 3d 13 f5 fa 3c
       0.0100358585 0.102474704 0.10340186 0.030634439
0001a0 5b 34 74 be 71 f4 ce bd f5 98 a6 3e 11 40 2c 3e
       -0.23848097 -0.10105217 0.32538572 0.16821314
0001b0 7c ef d1 bc 86 aa 7b 3e 0e f1 54 be 21 a0 7f be
       -0.02562689 0.24576768 -0.2079508 -0.24963428
0001c0 8e 46 47 3d ce 11 83 bd 30 3f 51 3e 1f b7 bf bd
       0.04865127 -0.0639988 0.2043426 -0.093610995
0001d0 06 4e 33 3e 41 45 9d be c5 dc b6 3c 95 29 9c be
       0.17510232 -0.307169 0.022322068 -0.30500475
0001e0 6e c8 34 3c 6e b5 71 bc 7b e9 4c bd b8 4c 8b 3e
       0.011034114 -0.014752729 -0.05002735 0.2720697
0001f0 21 9b 19 be 5c 85 2a be 27 04 8c be 29 68 00 be
       -0.15000583 -0.16652435 -0.27346918 -0.12539734
000200 65 f8 b2 3d 86 e2 88 be 72 7d 20 bc 3e 99 8d bd
       0.08738784 -0.26735324 -0.0097955335 -0.06913994
000210 2e c3 0e 3e 1a 1f d3 3d 3c f5 5c be 0d 27 38 be
       0.13941643 0.103086665 -0.21577924 -0.17983647
000220 6e 59 e5 bd 40 c6 1c be a7 40 ea 3d 4a 39 95 3d
       -0.11198698 -0.15310001 0.11438113 0.07286318
000230 1c 65 02 be e2 cf a2 be 56 01 7a 3e 04 fb 7e be
       -0.12733883 -0.31799227 0.24414572 -0.24900442
