checkpoints/epoch_10.pth (torch, 24780 bytes, 7 tensors)

encoder.0.weight f4 [16, 1, 1, 1]
-0.72116816 0.006669879 0.63466895 0.22965959 -0.87134886 0.90288186 -0.82249165 0.7820599
0.2838503 0.5516493 -0.86674654 0.62513894 -0.6047492 -0.570673 -0.32872164 -0.60973734
00000000: 7a9e 38bf 008f da3b aa79 223f e22b 6b3e
00000010: b810 5fbf 4423 673f d08e 52bf 1435 483f
00000020: d454 913e e338 0d3f 1ae3 5dbf 1b09 203f
00000030: d8d0 1abf a017 12bf 344e a8be bf17 1cbf

encoder.0.bias f4 [16]
-0.7249266 -0.70742166 -0.4275665 0.99931186 -0.73790634 0.04991401 -0.27415347 -0.27981892
0.6626662 -0.076515086 0.53505975 0.86856073 -0.3648888 -0.39771044 -0.31396592 0.4864861
00000000: ca94 39bf 9619 35bf ffe9 dabe e7d2 7f3f
00000010: 6ee7 3cbf a272 4c3d d85d 8cbe 6d44 8fbe
00000020: 7ea4 293f f1b3 9cbd adf9 083f ff59 5e3f
00000030: b4d2 babe b4a0 cbbe 24c0 a0be b514 f93e

encoder.2.weight f4 [32, 16, 1, 1]
0.068062425 -0.17291433 0.057792723 -0.20577013 0.01962927 0.13737598 0.10905653 -0.11100277
-0.10534653 0.11459258 0.061252177 -0.17762008 0.026655644 0.15618092 -0.19202116 0.044554293
0.14166203 0.23120332 0.069037974 -0.16455224 0.2049165 -0.13024256 -0.1094825 0.11742157
-0.15250504 0.073910624 -0.16808352 -0.15970582 -0.08070305 0.028308213 -0.035516202 -0.14316675
-0.042739034 -0.24546227 -0.08868009 0.001355797 -0.19564044 0.17850351 0.06798923 -0.105941325
-0.21795511 0.22010282 -0.14415836 -0.053788662 -0.14481184 0.11683494 -0.027861893 0.06721115
0.22043237 -0.056322813 -0.032155573 0.006175846 -0.17384407 -0.02884999 0.053735137 0.23553017
0.23792389 0.06943926 -0.09025478 -0.23279628 -0.18910798 -0.17474237 0.095074564 0.07796726
0.22699773 -0.24128425 0.13937491 -0.09394166 -0.1691527 -0.15734246 -0.04664889 -0.08326578
-0.06371978 0.13683075 0.235966 -0.14405778 0.24315208 -0.19710946 0.07364583 -0.14223921
0.047119766 0.018585533 0.13261503 -0.11778295 -0.20918146 -0.15575153 0.11793092 -0.21836883
-0.026429474 0.07111767 0.20946726 0.15955904 0.0011065304 -0.19938901 -0.2254945 -0.2427355
0.0057935417 0.09872392 0.08870953 0.03653924 0.2181409 -0.017926306 0.08924812 0.02398926
0.13869682 -0.016149929 -0.17288423 -0.059798967 0.12558314 -0.15534732 -0.12801066 -0.12286995
0.09072772 -0.01554054 -0.2222754 -0.07319209 -0.046188086 -0.1576555 0.15909201 -0.18384096
-0.22099355 0.10114336 0.20134997 -0.12396747 -0.1868571 -0.066527456 0.17427999 0.18626648
0.18291992 0.02317664 0.19538346 -0.043684155 0.1680224 -0.18412042 0.09004092 -0.24223775
-0.2172437 0.11530024 -0.21284193 -0.157446 -0.037191898 0.10506135 0.12742993 -0.15773574
-0.01956153 -0.1471042 0.045914322 -0.057156444 -0.21794891 0.01487869 0.07879943 0.22719583
-0.23761237 0.16003096 0.046304435 -0.1987086 -0.10033992 -0.036715478 0.015685141 0.06157899
0.08845654 0.012567997 0.14315234 -0.019533502 0.19897553 0.17012079 -0.22718987 0.24840184
0.043043364 0.23255973 0.045345765 0.12550703 0.077383846 -0.24610174 -0.19326049 -0.025982015
-0.088727385 -0.061206132 -0.022696875 0.027892023 0.14449194 -0.09141437 -0.19000566 0.22398388
-0.22056812 0.23405762 -0.11785248 0.16383441 0.13278544 0.13729379 0.15229616 -0.11530542
-0.10142416 -0.016774118 0.24946946 0.0058149747 -0.19367996 -0.18399774 -0.21083641 0.16523388
-0.08534564 0.2361807 0.073449634 0.11258291 0.06161931 -0.016878247 0.16643769 0.058252692
0.2262946 -0.14330411 0.15487382 -0.13279724 0.07971582 -0.01813361 0.14352116 -0.015470237
-0.027079701 0.017946184 0.20622307 -0.07386032 -0.033100516 0.012914717 -0.09743968 -0.17124894
0.23827171 0.14703944 0.0626209 -0.08762493 0.07836741 0.050785813 -0.23301914 -0.18814646
0.22824712 0.11101633 -0.20964979 0.2188076 0.12132549 -0.12659502 0.100177854 -0.0021660523
-0.08848351 -0.06428206 0.06900698 -0.08737108 0.12719274 -0.008529514 -0.0033060312 0.11465973
0.12784666 0.14848247 0.055743247 -0.20326614 0.13770604 -0.039374918 0.06700143 0.06370661
00000000: 5064 8b3d 7410 31be 10b8 6c3d 68b5 52be
00000010: 90cd a03c 4aac 0c3e 0859 df3d 6c55 e3bd
00000020: ecbf d7bd 84af ea3d 90e3 7a3d 0ae2 35be
00000030: f05c da3c e4ed 1f3e 32a1 44be 907e 363d
00000040: da0f 113e 90c0 6c3e c863 8d3d 6280 28be
00000050: a2d5 513e 4e5e 05be 5c38 e0bd b87a f03d
00000060: 482a 1cbe 745e 973d 161e 2cbe ec89 23be
00000070: a447 a5bd a0e6 e73c 7079 11bd 4e9a 12be
00000080: 200f 2fbd 765a 7bbe e89d b5bd 00b5 b13a
00000090: f855 48be a0c9 363e f03d 8b3d c4f7 d8bd
000000a0: a02f 5fbe a262 613e 409e 13be 8051 5cbd
000000b0: 8e49 14be 2847 ef3d a03e e4bc 00a6 893d
000000c0: 06b9 613e c0b2 66bd 90b5 03bd c05e ca3b
000000d0: 2e04 32be d056 ecbc 6019 5c3d d22e 713e
000000e0: 52a2 733e 2c36 8e3d 80d7 b8bd 2662 6ebe
000000f0: 86a5 41be aaef 32be 74b6 c23d 4cad 9f3d
00000100: 1872 683e 3813 77be 4cb8 0e3e 7c64 c0bd
00000110: 5e36 2dbe 621e 21be e812 3fbd 4087 aabd
00000120: 847f 82bd 5c1d 0c3e 12a1 713e e283 13be
00000130: dcfc 783e 10d7 49be a0d3 963d 28a7 11be
00000140: a800 413d b040 983c 3ccc 073e 3038 f1bd
00000150: aa33 56be 547d 1fbe c485 f13d 149c 5fbe
00000160: a082 d8bc 24a6 913d 967e 563e 7263 233e
00000170: 0009 913a a22c 4cbe 08e8 66be a88f 78be
00000180: c0d7 bd3b c42f ca3d 58ad b53d 2caa 153d
00000190: 5460 5f3e 30da 92bc b8c7 b63d 2085 c43c
000001a0: 8a06 0e3e db4c 84bc 9008 31be c3ef 74bd
000001b0: de98 003e 5e13 1fbe 3a15 03be 3ea3 fbbd
000001c0: 74cf b93d c09d 7ebc 2a9c 63be bce5 95bd
000001d0: b82f 3dbd 7270 21be 04e9 223e ce40 3cbe
000001e0: 224c 62be 4024 cf3d b02e 4e3e a8e2 fdbd
000001f0: 7857 3fbe 8c3f 88bd 7476 323e a4bc 3e3e
00000200: 5c4f 3b3e f0dc bd3c 9a12 483e 28ee 32bd
00000210: 100e 2c3e 108a 3cbe 6067 b83d 2c0d 78be
00000220: 2275 5ebe 8822 ec3d 3cf3 59be 8639 21be
00000230: 8856 18bd 682a d73d fe7c 023e 7a85 21be
00000240: 803f a0bc 7ca2 16be a810 3c3d e01c 6abd
00000250: 002e 5fbe c0c5 733c 9861 a13d 06a6 683e
00000260: a850 73be 28df 233e b8a9 3d3d 447a 4bbe
00000270: 047f cdbd f862 16bd 207e 803c 403a 7c3d
00000280: b428 b53d 00ea 4d3c 8796 123e b904 a0bc
00000290: 3ec0 4b3e 2534 2e3e 76a4 68be 0d5d 7e3e
000002a0: 3d4e 303d 2324 6e3e 7bbc 393d ea84 003e
000002b0: 6c7b 9e3d 1802 7cbe 14e6 45be 3cd8 d4bc
000002c0: b4b6 b5bd 48b3 7abd ccee b9bc d07d e43c
000002d0: b2f5 133e 7537 bbbd d890 42be 085c 653e
000002e0: 9cdc 61be cdac 6f3e a45c f1bd 35c4 273e
000002f0: e8f8 073e be96 0c3e 86f3 1b3e 3f25 ecbd
00000300: 78b7 cfbd e069 89bc ec74 7f3e 8b8b be3b
00000310: 0a54 46be e769 3cbe 80e5 57be 1233 293e
00000320: b2c9 aebd 5ad9 713e c36c 963d de91 e63d
00000330: 8864 7c3d 4044 8abc a46e 2a3e 609a 6e3d
00000340: c6b9 673e 50be 12be 3e97 1e3e 00fc 07be
00000350: 0c42 a33d f08c 94bc 36f7 123e e076 7dbc
00000360: 40d6 ddbc e003 933c 242c 533e 1444 97bd
00000370: 6894 07bd 4098 533c 748e c7bd e25b 2fbe
00000380: 80fd 733e 8291 163e 633f 803d b374 b3bd
00000390: 187f a03d c904 503d 929c 6ebe 77a9 40be
000003a0: 9db9 693e 885c e33d 6fae 56be 190f 603e
000003b0: 8079 f83d 20a2 01be 0c2a cd3d 54f4 0dbb
000003c0: d836 b5bd 50a6 83bd 8853 8d3d 9cef b2bd
000003d0: d03e 023e 60bf 0bbc 00aa 58bb b8d2 ea3d
000003e0: 3cea 023e ca0b 183e 0853 643d 0025 50be
000003f0: d002 0d3e 9847 21bd 0c38 893d 9c78 823d

encoder.2.bias f4 [32]
0.14030989 -0.23808485 -0.08362195 -0.043650478 0.047585677 -0.128842 0.19829051 0.0682546
-0.11105695 -0.14023662 0.023129541 0.25258398 0.079272665 -0.086575866 0.03600477 -0.06986186
0.22139555 0.15409707 0.10066656 0.023148473 -0.15032172 0.089523874 -0.11986518 0.15817396
0.13389094 0.11480678 0.16383342 -0.054841936 0.03976517 0.18668701 -0.08703703 -0.18561298
00000000: 65ad 0f3e 84cc 73be fc41 abbd d8ca 32bd
00000010: 33e9 423d 28ef 03be ab0c 4b3e 11c9 8b3d
00000020: d471 e3bd 309a 0fbe 2a7a bd3c b052 813e
00000030: b559 a23d b04e b1bd bd79 133d bc13 8fbd
00000040: 84b5 623e 9fcb 1d3e 452a ce3d dea1 bd3c
00000050: f0ed 19be 4b58 b73d e07b f5bd 5bf8 213e
00000060: b51a 093e d11f eb3d f3c3 273e f0a1 60bd
00000070: cee0 223d e12a 3f3e 7840 b2bd 5411 3ebe

decoder.0.weight f4 [32, 16, 3, 3]
-0.013754524 -0.0016605256 0.023333872 -0.02724278 0.0069946945 0.060748376 0.04132426 -0.05868811
-0.08541127 -0.054654263 0.085264854 0.032638315 0.011245613 0.03844366 -0.009304089 -0.062834546
-0.050750744 -0.032696843 0.051169716 -0.0067662904 0.050677013 -0.061326962 -0.0053878566 0.041240565
-0.05600169 0.04272151 0.0036280386 -0.07438748 0.028431505 -0.0008120313 0.0097697005 -0.04170208
0.0018116429 0.022875793 -0.033366006 -0.030095499 0.046855442 0.08462353 -0.08231231 0.033646293
0.009188019 -0.04231305 0.06368334 -0.032975003 -0.07985625 -0.073146865 0.04573863 0.020557513
0.077584475 0.084532864 0.051088914 0.03368977 -0.044629153 -0.042585053 0.07316498 -0.030094517
-0.03808309 0.010926306 -0.005397433 -0.038575057 -0.03605813 -0.0330935 -0.025629336 -0.06472008
0.03991627 0.05329851 0.044857174 0.05811858 0.049391948 0.089424424 -0.055301514 -0.028832542
0.031229317 -0.05876148 0.06134692 -0.011855889 0.014310623 0.009673751 0.06542938 -0.059402905
-0.010278787 -0.081682794 -0.032680783 0.06778352 -0.07070266 -0.017705452 -0.009473262 0.06373026
0.012652538 0.05549714 -0.06875396 0.05367076 0.017486209 0.05786714 0.069918476 0.030760605
0.06686333 -0.018297117 -0.012495492 -0.047148596 -0.009445913 0.03182485 0.06764511 -0.031590175
0.07753425 0.04908731 -0.040290147 0.073891975 0.043967463 -0.070632845 0.034333207 0.0149660325
0.071555994 0.05132131 -0.0039934544 0.039010096 -0.054754626 -0.0028419718 -0.079847634 0.061751626
-0.060541302 0.0032417998 0.03929745 -0.03751704 -0.01836466 0.00086873455 -0.041369736 -0.018461647
-0.0731104 0.03358552 -0.035757314 -0.057405997 -0.038960576 0.0697172 -0.02036165 0.014899544
-0.05781717 0.002100876 0.10072856 0.04114715 0.098487504 0.042106822 -0.061109904 -0.023138396
-0.045413118 -0.008574598 0.06465662 0.061438 -0.047278196 0.07339897 -0.07984133 0.08205069
0.06858624 -0.031579375 -0.05070902 0.067916326 0.042626 -0.0022080243 -0.014700942 -0.05060069
-0.016750075 0.058825783 -0.043892603 0.027415663 0.049881615 -0.046901286 -0.055082135 0.022284329
-0.023167145 -0.06901487 0.076803066 0.08154435 0.08274371 -0.0031525418 -0.04453227 0.07901042
-0.015274666 0.08003918 -0.06509997 -0.0014905259 0.082882054 0.06695665 0.043388672 -0.062216245
-0.07988133 -0.07521947 0.06269934 -0.0038789734 0.0031082109 -0.06436675 0.0400664 0.07750297
-0.031603675 -0.051728636 0.007824443 -0.000228405 -0.0643747 -0.018961363 0.07846197 -0.07684445
0.051507704 0.0074419454 -0.02001626 -0.014538936 0.043936037 0.060506456 0.008735128 -0.03054738
0.017380327 0.04729662 -0.0006303787 0.008196175 0.06358371 0.015524335 -0.0122953355 0.052848555
0.04556606 -0.058614306 -0.061900966 -0.046520196 -0.07821284 -0.01848913 -0.02872178 0.0077858493
-0.07056295 0.03942872 0.028124206 -0.028377812 -0.063012175 0.046481557 -0.041003726 -0.058980376
0.04013177 0.080900855 -0.059386443 -0.07029177 0.080108516 0.040352114 -0.019822925 0.007139258
0.0276981 -0.05845692 -0.069826886 -0.019938506 -0.049672842 0.031530023 0.054724865 0.038176633
-0.027982205 0.008040369 0.050665848 -0.07383054 0.03162133 -0.018252172 0.005614482 -0.040523212
00000000: a85a 61bc fea5 d9ba ad26 bf3c 402c dfbc
00000010: c033 e53b 4ad3 783d a143 293d f262 70bd
00000020: 1bec aebd 26dd 5fbd 579f ae3d c1af 053d
00000030: 853f 383c 1977 1d3d 2d70 18bc 66af 80bd
00000040: 03e0 4fbd 20ed 05bd 5697 513d c2b7 ddbb
00000050: b392 4f3d fb31 7bbd 9e8c b0bb deeb 283d
00000060: 0762 65bd c0fc 2e3d 63c4 6d3b 7758 98bd
00000070: 30e9 e83c 80de 54ba 1811 203c cdcf 2abd
00000080: a674 ed3a 0466 bb3c cbaa 08bd d68a f6bc
00000090: 7eeb 3f3d 1a4f ad3d 5b93 a8bd b2d0 093d
000000a0: 5889 163c 7350 2dbd 696c 823d cc10 07bd
000000b0: ac8b a3bd 06ce 95bd 6e58 3b3d 3b68 a83c
000000c0: 9ce4 9e3d 911f ad3d 9c42 513d 49fe 093d
000000d0: 0fcd 36bd aa6d 2ebd 85d7 953d c788 f6bc
000000e0: 04fd 1bbd 4004 333c f3dc b0bb e100 1ebd
000000f0: b1b1 13bd 0d8d 07bd 9df4 d1bc f68b 84bd
00000100: 3e7f 233d 8a4f 5a3d 28bc 373d c00d 6e3d
00000110: 364f 4a3d 2724 b73d d783 62bd 3932 ecbc
00000120: a0d4 ff3c e1af 70bd e846 7b3d 343f 42bc
00000130: 1a77 6a3c a77e 1e3c d7ff 853d 7650 73bd
00000140: 5c68 28bc 4f49 a7bd 49dc 05bd 16d2 8a3d
00000150: 8ecc 90bd 060b 91bc be35 1bbc 0385 823d
00000160: 974c 4f3c f850 633d e0ce 8cbd dfd5 5b3d
00000170: 3d3f 8f3c 1806 6d3d 6b31 8f3d aafd fb3c
00000180: a4ef 883d d6e3 95bc e4b9 4cbc e31e 41bd
00000190: 08c3 1abc c65a 023d 8589 8a3d b364 01bd
000001a0: 47ca 9e3d c60f 493d 4807 25bd ad54 973d
000001b0: 3a17 343d f4a7 90bd faa0 0c3d 1734 753c
000001c0: f38b 923d 4b36 523d 86db 82bb 0dc9 1f3d
000001d0: 6346 60bd 6040 3abb 2887 a3bd 46ef 7c3d
000001e0: 28fa 77bd 6074 543b 5df6 203d 78ab 19bd
000001f0: 7c71 96bc cabb 633a 5073 29bd e13c 97bc
00000200: e8ba 95bd f890 093d 4376 12bd 8d22 6bbd
00000210: 2095 1fbd e4c7 8e3d 7acd a6bc 381d 743c
00000220: b2d1 6cbd daae 093b c64a ce3d ea89 283d
00000230: d1b3 c93d 3478 2c3d 614e 7abd bc8c bdbc
00000240: 1b03 3abd 787c 0cbc b16a 843d 6aa6 7b3d
00000250: c8a6 41bd 3352 963d da83 a3bd 310a a83d
00000260: f176 8c3d 6059 01bd 43b4 4fbd b717 8b3d
00000270: 9a98 2e3d 80b4 10bb 38dc 70bc ab42 4fbd
00000280: 7437 89bc 4ef3 703d bbc8 33bd d096 e03c
00000290: aa50 4c3d 901b 40bd ce9d 61bd a08d b63c
000002a0: 06c9 bdbc ab57 8dbd ed4a 9d3d b900 a73d
000002b0: 8975 a93d e09a 4ebb 7867 36bd 37d0 a13d
000002c0: 9842 7abc 95eb a33d 2253 85bd c05d c3ba
000002d0: 11be a93d 9120 893d 52b8 313d 76d6 7ebd
000002e0: d398 a3bd aa0c 9abd 8368 803d 6036 7ebb
000002f0: 20b3 4b3b b7d2 83bd aa1c 243d e1b9 9e3d
00000300: db72 01bd 68e1 53bd 1832 003c 0080 6fb9
00000310: e2d6 83bd dc54 9bbc abb0 a03d 9f60 9dbd
00000320: bef9 523d 90db f33b 24f9 a3bc b834 6ebc
00000330: 46f6 333d 9ed5 773d c81d 0f3c 803e fabc
00000340: 3061 8e3c 1aba 413d 0040 25ba 4049 063c
00000350: 2d38 823d c859 7e3c 6072 49bc ba77 583d
00000360: 7aa3 3a3d 8e15 70bd de8b 7dbd f68b 3ebd
00000370: 0e2e a0bd 8476 97bc f049 ebbc 7020 ff3b
00000380: 4f83 90bd 0280 213d bc64 e63c 9678 e8bc
00000390: 870c 81bd 7263 3e3d 86f3 27bd 6895 71bd
000003a0: 3661 243d 59af a53d 333f 73bd 22f5 8fbd
000003b0: ef0f a43d 4248 253d b063 a2bc 70f0 e93b
000003c0: 20e7 e23c 8670 6fbd 6601 8fbd 1456 a3bc
000003d0: c075 4bbd a025 013d 2e27 603d 1a5f 1c3d
000003e0: f03a e5bc c0bb 033c fe86 4f3d 7734 97bd
000003f0: 5e85 013d 9485 95bc b0f9 b73b abfb 25bd

decoder.0.bias f4 [16]
-0.05006752 0.03697357 0.061233155 -0.012207644 -0.022704992 -0.008149416 -0.0030222111 0.06072018
0.07113646 0.04899993 0.078278184 -0.09305264 0.018453 -0.037291158 -0.017444197 0.014435694
00000000: 9a13 4dbd 9971 173d 9ecf 7a3d 9202 48bc
00000010: d2ff b9bc 2185 05bc 4a10 46bb b9b5 783d
00000020: feaf 913d 27b4 483d 5050 a03d 6292 bebd
00000030: bf2a 973c 9dbe 18bd 22e7 8ebc b083 6c3c

decoder.2.weight f4 [16, 1, 3, 3]
0.25088555 -0.15373075 0.28764293 -0.09201647 0.25067425 -0.1670225 0.042007472 -0.27259868
0.23937234 0.09657319 0.097409144 0.07307921 0.08373627 0.06269388 -0.06920654 0.24298789
-0.31807622 -0.008621557 0.0032107467 0.14999682 -0.32327294 -0.32111278 -0.15099138 0.30436286
0.014452505 -0.22481565 -0.18949458 -0.3069226 -0.07839609 0.14111604 -0.2360225 -0.03780549
0.28711683 0.30511957 0.12824617 0.25017518 0.02439693 -0.12866634 -0.13663349 -0.3185705
0.31740093 -0.2844187 -0.0996487 0.122289464 -0.18539897 0.2120517 -0.32930192 0.0028634109
-0.20113902 -0.30225828 0.13832442 -0.011823054 -0.25110972 -0.25158024 -0.29922846 -0.036294922
-0.2804662 -0.04592554 0.12010279 -0.1681568 0.09782364 -0.33473152 0.101507485 -0.31322044
0.15196201 -0.20569184 -0.35022253 -0.2842612 0.07218739 0.13716044 -0.14044152 0.18196024
-0.09373296 0.097803146 -0.24039708 -0.059417095 0.08651047 0.103760615 -0.32648626 0.032461092
0.049283482 -0.28193283 -0.032718774 -0.2845438 0.2822088 0.029531075 -0.06871953 0.102121875
-0.3390832 0.16175458 0.2821777 0.23911498 -0.0030394413 0.037848413 -0.03940628 -0.23623219
-0.29281968 -0.13777256 -0.13400517 0.16888079 0.00923482 0.10182126 0.10180542 0.028857416
-0.24018697 -0.1035855 0.32283914 0.16566274 -0.028171098 0.24319406 -0.21048263 -0.25218973
0.046102177 -0.06655928 0.20180096 -0.09616918 0.1725459 -0.3179726 0.011527548 -0.31580222
0.000235026 -0.025544915 -0.060818218 0.26126313 -0.16080117 -0.1773301 -0.28445694 -0.13639933
0.07640624 -0.27835324 -0.020794868 -0.08013962 0.12841855 0.09208694 -0.22677004 -0.1907736
-0.12295112 -0.1640362 0.1034168 0.061897192 -0.13830328 -0.32894218 0.23318447 -0.2599539
00000000: 1274 803e 986b 1dbe ef45 933e 2273 bcbd
00000010: 6058 803e f207 2bbe 0710 2c3d 0e92 8bbe
00000020: 061e 753e 2ac8 c53d 727e c73d 8eaa 953d
00000030: ec7d ab3d a665 803d 29bc 8dbd d1d1 783e
00000040: e3da a2be 6e41 0dbc 646b 523b c498 193e
00000050: 0884 a5be e568 a4be 7c9d 1abe 73d5 9b3e
00000060: 33ca 6c3c 1336 66be de0a 42be f624 9dbe
00000070: 218e a0bd b980 103e e2af 71be eed9 1abd
00000080: fa00 933e a238 9c3e f752 033e f616 803e
00000090: 12dc c73c 1cc1 03be a6e9 0bbe ac1b a3be
000000a0: 6082 a23e 549f 91be 9e14 ccbd e672 fa3d
000000b0: 3ad9 3dbe 1524 593e 439a a8be 10a8 3b3b
000000c0: 63f7 4dbe 99c1 9abe eba4 0d3e 7cb5 41bc
000000d0: 7491 80be 20cf 80be 7934 99be fca9 14bd
000000e0: 4499 8fbe 6b1c 3cbd 74f8 f53d 4c31 2cbe
000000f0: c357 c83d ee61 abbe 28e3 cf3d 6e5e a0be
00000100: ee9b 1b3e e2a0 52be 5e50 b3be af8a 91be
00000110: fbd6 933d c973 0c3e e7cf 0fbe c953 3a3e
00000120: 11f7 bfbd 044d c83d a72a 76be 575f 73bd
00000130: 672c b13d 7280 d43d 3529 a7be ecf5 043d
00000140: 7add 493d 8059 90be 1f04 06bd baaf 91be
00000150: ac7d 903e 27eb f13c d3bc 8cbd 4625 d13d
00000160: 509c adbe fea2 253e 9879 903e 8fda 743e
00000170: 5d31 47bb f006 1b3d 7b68 21bd dae6 71be
00000180: 76ec 95be 4014 0dbe a738 09be 16ef 2c3e
00000190: a44d 173c aa87 d03d 5c7f d03d 6366 ec3c
000001a0: 93f3 75be a224 d4bd 2c4b a53e 7ea3 293e
000001b0: 13c7 e6bc dd07 793e c288 57be 031f 81be
000001c0: a3d5 3c3d 3b50 88bd e9a4 4e3e 59f4 c4bd
000001d0: dfaf 303e 4ecd a2be 0ade 3c3c d4b0 a1be
000001e0: 5071 7639 9243 d1bc 861c 79bd 48c4 853e
000001f0: 10a9 24be 0696 35be 57a4 91be 44ac 0bbe
00000200: e07a 9c3d 5184 8ebe 005a aabc 3e20 a4bd
00000210: 2780 033e 1498 bc3d 6836 68be 285a 43be
00000220: cccd fbbd 1bf9 27be 30cc d33d e987 7d3d
00000230: 609f 0dbe 1c6b a8be e9c7 6e3e ad18 85be
