checkpoints/epoch_13.pth (torch, 24780 bytes, 7 tensors)

encoder.0.weight f4 [16, 1, 1, 1]
0	0xbeff9014	-0.4991461
1	0x3f7c56a8	0.98569727
2	0xbf798229	-0.97464234
3	0xbf668680	-0.9004898
4	0xbf39bff8	-0.72558546
5	0x3eb503da	0.353545
6	0x3d8892d6	0.06668632
7	0x3f6c7a68	0.9237428
8	0xbf2a31f4	-0.6648247
9	0x3edff69f	0.43742844
10	0x3ced709b	0.028984359
11	0x3f0e4b1a	0.55583346
12	0xbf732cf4	-0.9499047
13	0xbd217aa0	-0.039423585
14	0xbf29deea	-0.66355765
15	0xbed94728	-0.424371

encoder.0.bias f4 [16]
0	0xbf2cc1d2	-0.67483246
1	0x3f493050	0.78589344
2	0x3edd2b5a	0.43197137
3	0x3e054cf3	0.13017635
4	0xbe1527e0	-0.14565992
5	0x3f557763	0.83385295
6	0x3ef1fb15	0.47261873
7	0xbf249d00	-0.64302063
8	0xbf3f7aaa	-0.74796546
9	0x3f16dc0c	0.58929515
10	0x3f18b719	0.59654385
11	0x3f352b0b	0.70768803
12	0x3eee7e46	0.46580714
13	0xbd0dc5c0	-0.034612417
14	0xbeac46a0	-0.33647633
15	0xbed47854	-0.41498053

encoder.2.weight f4 [32, 16, 1, 1]
0	0x3db77478	0.089577615
1	0xbdfa2351	-0.12213767
2	0xbd00a344	-0.031405702
3	0x3d0ad46a	0.03389398
4	0xbc407a00	-0.011747837
5	0x3e592d0f	0.21208595
6	0xbe5b1fcf	-0.21398853
7	0xbdd1b84b	-0.10240229
8	0xbca85540	-0.020548463
9	0xbe04945a	-0.12947217
10	0x3c0d76e3	0.008634302
11	0x3e2ba5e9	0.16762508
12	0x3d0b7e07	0.034055736
13	0x3d9eb9a0	0.07750249
14	0xbd597f40	-0.05309987
15	0x3c177a00	0.009245396
16	0xbe4193ea	-0.18904081
17	0x3e6d7136	0.23187718
18	0xbe7fb3a6	-0.24970874
19	0xbe3696f8	-0.17831028
20	0xbde1d7e0	-0.11027503
21	0xbe7fc92e	-0.24979088
22	0xbe61c96e	-0.22049496
23	0xbe57c846	-0.21072492
24	0x3d15e9a0	0.036599755
25	0xbd47a9c0	-0.04874587
26	0xbe44b90e	-0.19211218
27	0x3dcde8d8	0.10054177
28	0x3d847a5c	0.06468651
29	0x3dc7d0dc	0.09756634
30	0xbd853b6c	-0.065054744
31	0x3e12e85c	0.1434645
32	0x3e240a0e	0.1601946
33	0xbdbabd10	-0.09118092
34	0xbc8d2950	-0.017231613
35	0xbe46c532	-0.19411162
36	0x3dc31010	0.09524548
37	0x3c6fe120	0.014641076
38	0xbe297f3a	-0.1655244
39	0xbe172acc	-0.1476242
40	0xbe047654	-0.12935764
41	0x3c11db20	0.008902341
42	0xbe2a034e	-0.16602823
43	0x3d877c54	0.066155106
44	0xbe7bb628	-0.24581206
45	0xbc6bc8c0	-0.014391124
46	0xbe5e2058	-0.21692026
47	0xbe37b742	-0.17941001
48	0x3da61838	0.08110088
49	0x3cc2a073	0.023758149
50	0xbe3288d1	-0.17435004
51	0xbe2f8966	-0.17142257
52	0x3d590200	0.052980423
53	0x3dcc102d	0.09964023
54	0x3e68ce0b	0.22734849
55	0xbe14151a	-0.14461175
56	0x3cf78e00	0.030219078
57	0x3e368cd3	0.17827158
58	0x3e578077	0.21045099
59	0x3cb2029d	0.021729762
60	0x3d69ff29	0.057128105
61	0xbde6144c	-0.1123434
62	0x3e77af3a	0.24187937
63	0x3d768a88	0.060190707
64	0xbb203d80	-0.002445072
65	0x3e2a7770	0.16647124
66	0x3c98cc80	0.0186522
67	0x3c826170	0.015915602
68	0xbd909898	-0.07060355
69	0xbe3e211c	-0.18567318
70	0x3e7ab2eb	0.24482314
71	0xbe622e09	-0.22087874
72	0xbe7bcd4e	-0.24590036
73	0x3e5306e3	0.20608096
74	0xbe2b96c2	-0.16756728
75	0xbdcec9e4	-0.10097101
76	0x3e5608e6	0.20901832
77	0x3c050d40	0.008120835
78	0x3daf52ec	0.08560738
79	0x3e2cfa7c	0.16892427
80	0xbc482040	-0.01221472
81	0xbdbd800c	-0.09252939
82	0xbe7eb6ca	-0.24874416
83	0xbde92fc4	-0.11386064
84	0xbca3eea0	-0.020011246
85	0x3d1cc3d0	0.03827268
86	0xbe738cf8	-0.23784244
87	0x3e2c575c	0.168302
88	0xbc436ae0	-0.011927336
89	0xbe5ac504	-0.21364218
90	0xbe762c80	-0.24040413
91	0x3e1068ee	0.14102527
92	0x3dd9f0a4	0.10641602
93	0x3e413fb4	0.18871957
94	0x3e1f6b58	0.15568292
95	0x3db672a8	0.08908588
96	0x3d874bec	0.06606278
97	0x3dc16190	0.09442437
98	0x3e640d68	0.22270739
99	0x3d8039e0	0.06261039
100	0xbe6ce424	-0.23133904
101	0x3e0b27f4	0.1358946
102	0xbe212bee	-0.15739414
103	0x3e011f3e	0.12609574
104	0xbded1ac8	-0.11577374
105	0x3d5490ce	0.05189591
106	0x3e67438a	0.22584358
107	0x3dd8c10a	0.10583694
108	0x3cd79d8c	0.026320241
109	0x3df2d618	0.118572414
110	0x3e75f54e	0.24019358
111	0xbddb09b0	-0.10695207
112	0xbc917f10	-0.017760783
113	0xbe1b8c98	-0.15190351
114	0xbcc75700	-0.024333477
115	0x3e79f352	0.24409226
116	0xbe10ff18	-0.1415981
117	0xbd886804	-0.066604644
118	0xbe3ec836	-0.18631062
119	0x3e1ce496	0.15321574
120	0xbe0f39b4	-0.13986856
121	0x3cb04550	0.021517426
122	0xbe3bf2b0	-0.18354297
123	0xbcd7ee60	-0.026358783
124	0xbdb90858	-0.090347946
125	0xbe5db68a	-0.21651664
126	0x3dbe9a94	0.09306827
127	0x3e30da46	0.17270765
128	0xbe32033e	-0.1738405
129	0xbe3283e5	-0.17433126
130	0xbe1d4826	-0.15359554
131	0xbe3f6de2	-0.1869426
132	0x3caf29d0	0.021382242
133	0x3e45a06f	0.19299482
134	0x3d439391	0.047748152
135	0x3d6fe969	0.058572207
136	0xbe62ae4c	-0.22136801
137	0x3dfcc4cf	0.12342226
138	0xbe008a10	-0.12552667
139	0x3e3b3e23	0.18285422
140	0x3d271843	0.040794622
141	0x3e55e5d0	0.20888448
142	0x3dc687d8	0.09693879
143	0xbddd5828	-0.1080783
144	0x3e57e76e	0.21084377
145	0xbd9dd1aa	-0.07706006
146	0x3e16d75a	0.14730588
147	0xbd5a760b	-0.05333523
148	0x3e550c28	0.20805418
149	0x3e887ca8	0.26657605
150	0x3e3fa887	0.18716632
151	0xbe2acfe4	-0.16680866
152	0xbe3b96de	-0.1831927
153	0x3e872001	0.26391605
154	0xbd6b521f	-0.057451364
155	0xbc2804b0	-0.010255024
156	0x3cb879d3	0.022519028
157	0xbe734e0c	-0.23760241
158	0xbe0d92e2	-0.13825563
159	0xbe559e8a	-0.20861259
160	0x3e647610	0.22310662
161	0xbced0b10	-0.02893594
162	0x3e5d48de	0.21609828
163	0xbd10ff78	-0.035399884
164	0x3e116666	0.14199218
165	0x3da9d330	0.08292234
166	0xbdd74f60	-0.105131865
167	0xbe4ec51c	-0.20192379
168	0x3da80ba8	0.08205348
169	0x3d9038cc	0.07042083
170	0x3e17bfda	0.1481928
171	0xbe72b73a	-0.23702708
172	0x3c4314a0	0.011906773
173	0x3dbf5320	0.09342027
174	0x3e4a9c68	0.19786227
175	0x3e7b0d6c	0.24516839
176	0xbe2e9ee8	-0.17052805
177	0xbd6b50d4	-0.05745013
178	0x3dec88f7	0.115495615
179	0xbe30bec9	-0.17260279
180	0x3cbf8460	0.023378551
181	0x3e66a145	0.22522457
182	0xbdd32f90	-0.10311806
183	0xbe3dd170	-0.18536925
184	0x3e44aa7c	0.1920566
185	0x3ccab097	0.024742408
186	0x3e58cf0d	0.21172734
187	0xbda02e18	-0.07821292
188	0x3db422f0	0.08795726
189	0xbdd89354	-0.105749756
190	0x3cd09670	0.02546236
191	0xbe410090	-0.18847871
192	0x3e115c4c	0.14195365
193	0x3e39e33e	0.18153092
194	0x3df16a30	0.11787832
195	0x3e4c6075	0.1995867
196	0x3cb0d470	0.021585673
197	0x3b5d34ee	0.0033753472
198	0x3e2dda7a	0.16977873
199	0x3d85337f	0.06503963
200	0x3e2f2216	0.17102847
201	0xbe1c15bc	-0.15242666
202	0xbdc6046d	-0.09668813
203	0x3e79833f	0.24366473
204	0x3e53ade1	0.20671798
205	0x3e57faa4	0.21091706
206	0xbe7743de	-0.24146983
207	0x3d9df000	0.07711792
208	0xbe4fccee	-0.20293018
209	0xbdd4a895	-0.10383717
210	0xbdd337d2	-0.10313381
211	0xb89f7780	-7.6039694e-05
212	0xbe2316b2	-0.15926626
213	0x3e08a145	0.1334277
214	0xbe20e35f	-0.15711735
215	0xbe5d5455	-0.21614201
216	0x3dc595c0	0.09647703
217	0x3e8db70f	0.27678725
218	0x3e8b0c6b	0.27157912
219	0x3e6084af	0.21925615
220	0x3dafbd00	0.08580971
221	0xbdae2cac	-0.08504614
222	0xbe224514	-0.15846664
223	0xbe581f84	-0.21105772
224	0x3c826090	0.015915185
225	0x3dc5a68c	0.09650907
226	0x3d7af1a8	0.061265618
227	0xbe5824f0	-0.2110784
228	0x3bd1a500	0.0063978434
229	0x3dbd13d0	0.092322946
230	0xbe75bbe0	-0.2399745
231	0xbd9a3784	-0.0753012
232	0xbe2ac48a	-0.16676536
233	0xbe4aae0c	-0.19792956
234	0xbe5ffcae	-0.21873733
235	0x3e218fb4	0.15777475
236	0x3e70dc06	0.23521432
237	0xbda01530	-0.07816541
238	0xbe365fda	-0.17810002
239	0xbdfa190c	-0.122118086
240	0xbadfcc00	-0.0017074347
241	0x3e19bf80	0.15014458
242	0x3df3da2b	0.119068466
243	0x3e690275	0.22754844
244	0x3cf473a0	0.02984029
245	0xbdf17b73	-0.11791124
246	0x3a2e8dd0	0.0006658705
247	0x3e648308	0.2231561
248	0x3dce2140	0.10064936
249	0xbd945a59	-0.07243795
250	0x3d9f7f2b	0.07787927
251	0x3e829049	0.25500706
252	0xbe23a3a0	-0.15980387
253	0xbb053a80	-0.0020329058
254	0xbe5150b0	-0.20440936
255	0xbe2089e6	-0.15677604

encoder.2.bias f4 [32]
0	0x3e84c53a	0.25931722
1	0xbbb87440	-0.0056290925
2	0x3d95bf5f	0.07311892
3	0xbdea7d9a	-0.11449738
4	0x3d26dc0c	0.040737197
5	0x3db4eb44	0.08833936
6	0xbe0eda1f	-0.13950394
7	0x3e82b2ed	0.25527135
8	0x3d869dc4	0.0657306
9	0xbe0ff149	-0.14056887
10	0xbd6e06b0	-0.058111846
11	0x3e67ba3a	0.22629634
12	0x3e7da621	0.24770404
13	0x3e5ef9ec	0.21775025
14	0xbe2b0978	-0.16702831
15	0x3df96a0b	0.12178429
16	0x3de85d8b	0.11345967
17	0xbcaa95e0	-0.02082342
18	0xbd80ad24	-0.06283024
19	0xbe24978d	-0.16073437
20	0x3c47e2ec	0.0122000985
21	0xbd6ab0ed	-0.057297636
22	0x3de688ee	0.11256586
23	0xbe3bfbee	-0.18357822
24	0x3e7a2e97	0.24431835
25	0x3cf2724d	0.029595518
26	0xbe678e84	-0.22612959
27	0x3e2d352b	0.16914813
28	0xbda7bbdc	-0.08190128
29	0xbe65ee36	-0.22454152
30	0xbe6d3330	-0.23164058
31	0xbd986f71	-0.07443131

decoder.0.weight f4 [32, 16, 3, 3]
0	0xbc8ab8f0	-0.016933888
1	0x3b7a18d4	0.0038161771
2	0xbd312be6	-0.043254755
3	0x3b931e95	0.0044897296
4	0xbdb224c2	-0.08698417
5	0xbd5968d3	-0.053078484
6	0xbd8d34d4	-0.06894842
7	0x3be537d4	0.0069951806
8	0xbd7bd42b	-0.061481636
9	0xbcd1889b	-0.025577834
10	0xbcd83540	-0.02639258
11	0xbd5178a6	-0.05114045
12	0x3d85dc61	0.065361746
13	0x3dd2b912	0.102892056
14	0x3d33b6fe	0.043875687
15	0x3d3e3ab8	0.046442717
16	0x3d8a6170	0.06756866
17	0x3db46aa2	0.08809401
18	0xbd1b43a3	-0.0379063
19	0xbd9966f0	-0.07490337
20	0xbba596db	-0.0050533838
21	0xbd844d43	-0.06460049
22	0xbcd2e60c	-0.02574446
23	0x3d9adb51	0.075613625
24	0xbd39c865	-0.045357127
25	0x3cb98f54	0.022651352
26	0xbc9c73da	-0.019098211
27	0xbd2c3916	-0.04204663
28	0xbd067670	-0.032827795
29	0x3d6b6cce	0.05747681
30	0xbd1aeb16	-0.03782185
31	0xbda81b62	-0.08208348
32	0x3ccb7894	0.02483777
33	0x3c37a04e	0.011207653
34	0xbc6aa2c0	-0.014321029
35	0x3ab01305	0.0013433403
36	0x3cc0319c	0.023461156
37	0xbd5b88c0	-0.05359721
38	0xbd89237c	-0.06696221
39	0x3d8f3c31	0.069939025
40	0xbd4bf1e3	-0.049791228
41	0xbc8a5fcc	-0.016891383
42	0xbcb2ce8c	-0.021827005
43	0xbcbdd906	-0.023174774
44	0xbd9d64a3	-0.076852106
45	0xbc053d01	-0.00813222
46	0x3caa5591	0.020792754
47	0x3d6bfcc5	0.057614107
48	0x3d4b1537	0.04958078
49	0xbd41b6a4	-0.04729332
50	0xbd9bae27	-0.07601576
51	0xbd5a4415	-0.053287584
52	0x3b3a98b5	0.0028472368
53	0x3d6e393f	0.058160063
54	0xbdb237bf	-0.08702039
55	0xbdaada3f	-0.083424084
56	0x3cec6f09	0.02886154
57	0xbd3825cd	-0.044957925
58	0x3d1024a0	0.03519118
59	0x3d458f41	0.04823232
60	0x3d43e303	0.047823917
61	0xbd60c30d	-0.054873515
62	0xbc33332f	-0.010937496
63	0x3cfb5c54	0.030683674
64	0xbd5a62d0	-0.05331689
65	0x3d424672	0.047430463
66	0x3d80e9d7	0.062946014
67	0x3d6ef403	0.058338176
68	0x3d9c2c2a	0.07625611
69	0xbda11f7f	-0.078673355
70	0x3d7219a5	0.059106488
71	0x3bc32440	0.005955249
72	0xbd72d83e	-0.059288256
73	0x3ca1260a	0.019671459
74	0xbbb52630	-0.005528234
75	0x3cecb3e7	0.028894378
76	0xbc56f918	-0.013120912
77	0xba34efb6	-0.0006902175
78	0x3ce049bc	0.02737891
79	0x3d962f14	0.07333198
80	0x3ba5bc10	0.005057819
81	0x3d4ab871	0.049492303
82	0xbcfac751	-0.03061262
83	0xbd308214	-0.043092802
84	0xbc4f2217	-0.012642405
85	0x3d0a9cc6	0.033840917
86	0xbd397447	-0.045276906
87	0x3d9601c9	0.07324559
88	0x3cb8b774	0.022548415
89	0x3dc6b69e	0.097028
90	0xbd097af8	-0.033564538
91	0x3cd1ef90	0.025626928
92	0x3be06802	0.006848336
93	0xbbb073ae	-0.005384884
94	0x3d9cb1c6	0.07651095
95	0x3d9d2b62	0.0767429
96	0x3cb692f5	0.022286871
97	0xbd73ec7e	-0.05955171
98	0x3d6efb6c	0.058345243
99	0x3d4ca63a	0.049963214
100	0x3d7a6931	0.061135475
101	0x3d2d17fb	0.042259198
102	0x3cc1e215	0.023667375
103	0xbd12c798	-0.03583488
104	0xba0475a7	-0.0005052932
105	0xbd44f456	-0.04808458
106	0xbd23367d	-0.039846886
107	0x3cf685ab	0.030093035
108	0xbcc0b77c	-0.023524992
109	0xbda3482f	-0.07972752
110	0x3bf93bec	0.00760602
111	0x3cbbb560	0.022913635
112	0x3bd16310	0.006389983
113	0xbd852090	-0.065003514
114	0x3d8d5035	0.06900064
115	0x3d66fb92	0.05639226
116	0xbcde9b16	-0.02717356
117	0x3cf59118	0.029976413
118	0x3dd970dd	0.1061723
119	0x3dbe06f6	0.092786714
120	0x3db9c6dc	0.090711325
121	0xbd8fef9c	-0.07028124
122	0x3ca0ce07	0.019629491
123	0xbb1f8df7	-0.0024346092
124	0x3d7bff8b	0.061523
125	0x3d1ce0a6	0.03830018
126	0x3da6776d	0.081282474
127	0x3d910683	0.0708132
128	0xbcee200f	-0.029068021
129	0xbd635e38	-0.055509776
130	0xbd46b55b	-0.048512798
131	0xbd07ae24	-0.033125058
132	0x3d94bbe2	0.07262398
133	0x3ada009d	0.0016632263
134	0x3bc20ad4	0.005921701
135	0xbd641644	-0.055685297
136	0xbcf22a34	-0.02956114
137	0xbc76e958	-0.015070282
138	0x3d045c72	0.032314725
139	0x3d974ed9	0.07388086
140	0x3d890bbc	0.06691691
141	0xbda7f94d	-0.08201847
142	0xbbd32605	-0.0064437413
143	0xbd7d9c64	-0.061916724
144	0x3da400a3	0.08007934
145	0x3d1fb27a	0.038988568
146	0x3c83f334	0.01610718
147	0x3d5a44b6	0.053288184
148	0x3c62a128	0.013832368
149	0x3d60ab5a	0.054850914
150	0x3d140662	0.0361389
151	0xbcb1a0fc	-0.021683209
152	0x3da0bb05	0.07848171
153	0x3cc05cb4	0.023481704
154	0xbca02ce4	-0.019552656
155	0xbb00a7a0	-0.0019631162
156	0xbc2a4ec0	-0.010394752
157	0x3c95da70	0.018292636
158	0x3d98574d	0.07438526
159	0x3d9df2c1	0.07712317
160	0x3d49f202	0.049303062
161	0x3cd741c0	0.02627647
162	0xbd7874eb	-0.060658377
163	0xbce9a070	-0.028518885
164	0xbd917150	-0.07101691
165	0x3d3b89ca	0.045785703
166	0x3d0744ea	0.033024706
167	0xbd648400	-0.055789948
168	0xbd00b980	-0.031426907
169	0xbcdf4726	-0.027255606
170	0x3d9b4643	0.07581761
171	0x3d44613e	0.0479443
172	0x3d1b4ce6	0.037915133
173	0x3d86a5a9	0.06574566
174	0xbd9f413a	-0.07776113
175	0xbd5576c0	-0.052115202
176	0xbd160266	-0.03662338
177	0xbbb0bd80	-0.005393684
178	0x3d1647b6	0.036689483
179	0x3d4ea6aa	0.050451912
180	0x3d975605	0.07389454
181	0xbd03a906	-0.032143615
182	0x3d271a8e	0.04079681
183	0xbcedcaec	-0.029027425
184	0xbda26788	-0.07929903
185	0x3d4322ce	0.047640614
186	0xbda10756	-0.07862727
187	0xbda56027	-0.0807498
188	0xbda35e93	-0.07977023
189	0xbd9fa09a	-0.07794304
190	0xbb295300	-0.0025836825
191	0x3bbb01c0	0.0057069957
192	0x3d4449d2	0.047921963
193	0x3d7acab6	0.061228476
194	0x3d4550da	0.04817281
195	0x3da4ae39	0.08041043
196	0x3d823e25	0.063595094
197	0xbd66d2d3	-0.0563534
198	0x3d6554da	0.055989124
199	0x3be7e570	0.0070769116
200	0xbd920376	-0.07129566
201	0x3bc9b300	0.0061553717
202	0x3d1c625e	0.038179748
203	0xbca87c90	-0.020567209
204	0x3d4319c2	0.047631986
205	0xbc09f958	-0.008421265
206	0xbd4ebb7b	-0.050471764
207	0x3da2837f	0.07935237
208	0x3d6a0aa2	0.057139046
209	0xbd7fe548	-0.06247452
210	0x3bed9f10	0.0072516277
211	0x3c92f3fc	0.017938606
212	0xbce8e470	-0.02842924
213	0x3d844329	0.06458122
214	0x3d794036	0.060852252
215	0x3d639146	0.055558465
216	0x3d24065e	0.040045135
217	0x3da72f71	0.081633456
218	0xbcabae80	-0.020957232
219	0x3c08f378	0.008358829
220	0x3cc837c4	0.024440654
221	0x3c7a5fd8	0.01528164
222	0xbca9fc1c	-0.020750098
223	0x3ca611c0	0.020272136
224	0xbd260aee	-0.040537767
225	0xbd4c5a06	-0.04989054
226	0xbd65986e	-0.05605357
227	0xbc024bf8	-0.007952683
228	0x3d7ae6c6	0.06125524
229	0xbda7c5df	-0.08192038
230	0x3d42d12e	0.04756277
231	0xbd5f9913	-0.054589342
232	0xbd8944da	-0.067025855
233	0x3d9fd335	0.078039564
234	0xbd21af30	-0.039473712
235	0xbd49a808	-0.049232513
236	0x3d4a3cca	0.04937438
237	0xbd91269b	-0.070874415
238	0xbd00d600	-0.031454086
239	0x3d7f90e2	0.06239403
240	0x3d171310	0.036883414
241	0x3da15c31	0.07878912
242	0x3d954cab	0.07290014
243	0x3a97cfc0	0.00115823
244	0xbce2cc3c	-0.027685277
245	0xbd9264b7	-0.07148116
246	0x3cf2b54c	0.029627465
247	0x3d5955c6	0.053060316
248	0xbd5cb846	-0.053886674
249	0xbc629178	-0.013828628
250	0xbd72a2be	-0.059237234
251	0xbd2e7fbe	-0.042602293
252	0xbd5353b6	-0.051593505
253	0xbd9fd7a0	-0.07804799
254	0xbd6d3e3e	-0.057920687
255	0x3d01b21a	0.03166399

decoder.0.bias f4 [16]
0	0x3d87224f	0.06598341
1	0x3d408d0d	0.047009517
2	0xbd7e8236	-0.062135898
3	0xbd80d8bb	-0.06291338
4	0xbd578af8	-0.052622765
5	0xb98824b9	-0.00025967302
6	0x3d55facd	0.052241135
7	0xbbadb44b	-0.0053010336
8	0xbd29339b	-0.04130898
9	0x3d9b3630	0.07578695
10	0xbcac8d52	-0.02106348
11	0x3cfb7f67	0.030700399
12	0xbd0d3ded	-0.034482885
13	0x3d0661c0	0.032808065
14	0x3d516c7d	0.051128853
15	0xbc779792	-0.015111821

decoder.2.weight f4 [16, 1, 3, 3]
0	0x3e62df91	0.22155596
1	0x3d1ce450	0.038303673
2	0xbd90a971	-0.070635684
3	0xbe7fe185	-0.24988373
4	0x3e9b7fd1	0.30370954
5	0x3ea16ca8	0.3152821
6	0x3c42c004	0.0118866
7	0x3e8c1d6f	0.27366206
8	0xbd9655fa	-0.073406175
9	0x3e5c1b7c	0.2149486
10	0xbe88ffa1	-0.2675753
11	0xbdce90bb	-0.10086199
12	0xbe932341	-0.28737834
13	0xbc041e6a	-0.008063892
14	0xbd90bcaa	-0.07067235
15	0xbdc06544	-0.09394315
16	0xbe03eb8b	-0.12882821
17	0x3cba2cf6	0.022726517
18	0x3e739050	0.2378552
19	0x3e9832aa	0.29726154
20	0xbba78750	-0.005112566
21	0x3d4077d4	0.046989277
22	0x3d1e2f1e	0.038619153
23	0xbeb12863	-0.34601125
24	0xbe467280	-0.19379616
25	0x3cac9c26	0.021070551
26	0x3e19b6ab	0.15011089
27	0xbdea71b6	-0.1144747
28	0xbe08d9ce	-0.13364336
29	0x3e6d6dd5	0.23186429
30	0x3e0328bc	0.12808508
31	0xbd8dc118	-0.06921595
32	0x3ea1cd41	0.3160191
33	0x3db9036f	0.09033858
34	0x3e9b10d0	0.30286264
35	0xbe55b31c	-0.20869106
36	0xbe4fc23b	-0.20288937
37	0xbea9570b	-0.3307422
38	0x3e570dde	0.21001384
39	0x3dfc7b04	0.12328151
40	0xbe5b9b78	-0.21446025
41	0x3c8db9f0	0.017300576
42	0x3cbdb6d0	0.02315846
43	0xbe0fe436	-0.140519
44	0xbd2944d8	-0.04132542
45	0x3db19baa	0.08672269
46	0xbe9d26e8	-0.30693746
47	0x3aa85dcd	0.0012845338
48	0xbe123cad	-0.14280958
49	0x3e4d2942	0.2003527
50	0x3db027cb	0.0860134
51	0x3e9a59f8	0.30146766
52	0xbda7b692	-0.081891194
53	0xbdc8381f	-0.09776329
54	0x3bf335e6	0.0074221967
55	0x3dc856af	0.097821586
56	0xbe56917d	-0.20953937
57	0x3e3e8642	0.18605903
58	0xbd2cf9f0	-0.042230546
59	0x3e69ffc1	0.22851469
60	0xbe978f6a	-0.29601604
61	0x3de41e41	0.11138583
62	0x3d1b5dc0	0.037931204
63	0xbeb03ff2	-0.34423786
64	0x3db05675	0.0861024
65	0xbda9afd1	-0.082854874
66	0x3da04bc8	0.07826954
67	0xbd0f276a	-0.034949698
68	0x3e08d93d	0.1336412
69	0xbea65d30	-0.3249297
70	0xbdc77f11	-0.09741033
71	0xbe7d7ce1	-0.24754669
72	0xbe933f18	-0.28759074
73	0xbdacf23a	-0.084446386
74	0x3d840e52	0.06448044
75	0x3e58f7c4	0.21188265
76	0xbe8583f5	-0.26077238
77	0x3e1da567	0.15395127
78	0xbda54ce0	-0.08071303
79	0xbe85d007	-0.26135275
80	0x3cb7848b	0.022402069
81	0xbe8ceaff	-0.27523038
82	0xbe4c5a80	-0.19956398
83	0xbe8cbdef	-0.27488658
84	0x3e0f61c9	0.14002146
85	0xbde574ce	-0.11203919
86	0xbd84ec94	-0.06490436
87	0x3d8e5ae9	0.069509335
88	0xbdabb98b	-0.08384999
89	0x3dee14e4	0.11625078
90	0x3d5e5f3e	0.05429005
91	0xbdf18afd	-0.11794088
92	0xbe97f1c8	-0.29676652
93	0xbe5cd333	-0.21564941
94	0xbe3c86bd	-0.18410774
95	0xbd52756e	-0.05138152
96	0x3e734db8	0.23760116
97	0x3e2f8eda	0.17144337
98	0x3c8ce4c1	0.017198922
99	0x3d0c3281	0.03422785
100	0x3ea17ed0	0.31542063
101	0x3d735b39	0.05941317
102	0x3e7b503c	0.24542326
103	0xbde113df	-0.10990118
104	0xbe73d192	-0.23810413
105	0x3e08f775	0.13375647
106	0xbe3c49e6	-0.18387565
107	0xbe04690b	-0.12930696
108	0x3da776ce	0.08176957
109	0x3ea7c42e	0.3276686
110	0xbe601f68	-0.2188698
111	0x3ea0af00	0.31383514
112	0xbe818d95	-0.2530333
113	0x3e0bd721	0.13656284
114	0xbd72e24d	-0.05929785
115	0xbe56b1f7	-0.20966326
116	0x3e83ab86	0.257168
117	0xbd3dbc48	-0.046322137
118	0x3d331062	0.043716796
119	0xbdc37126	-0.09543066
120	0x3e064e2d	0.13115759
121	0xbe5ed082	-0.21759227
122	0xbe6c304d	-0.230653
123	0xbe90d57a	-0.2828787
124	0x3da46b2b	0.08028253
125	0x3e53b12c	0.20673054
126	0xbd9e4f09	-0.077299185
127	0xbc471fc5	-0.012153571
128	0xbdfb9042	-0.12283374
129	0xbde86d95	-0.11349026
130	0xbd13090f	-0.03589731
131	0xbe907677	-0.28215382
132	0xbe7db0f8	-0.2477454
133	0xbd54ee2b	-0.051984947
134	0xbd4b8d08	-0.049695045
135	0x3dd8ea8d	0.10591612
136	0x3e989c1f	0.2980661
137	0xbe9c53b7	-0.3053262
138	0x3e43c71d	0.19118924
139	0x3e9a6fe5	0.30163494
140	0xbd1a720e	-0.037706427
141	0xbe112480	-0.1417408
142	0x3df328ba	0.11873002
143	0xbd2ff53b	-0.04295848
