checkpoints/epoch_6.pth (torch, 24320 bytes, 7 tensors)

encoder.0.weight f4 [16, 1, 1, 1]
00000000: 3c0c b03e c099 353d b059 bc3e d636 cf3e
00000010: ddac 36bf 03b9 c9be a8d8 33bf 5352 25bf
00000020: 9f6b b53d 7db1 853e 8038 7ebf 9974 a73e
00000030: 32bc e5bd 929c bbbe 4560 5fbd d177 d93e
0.34384334 0.04433608 0.36787176 0.40471524 -0.7135752 -0.39398965 -0.70252466 -0.6457874
0.08858418 0.26111975 -0.9930496 0.32706144 -0.11217536 -0.3664289 -0.05453517 0.42474225

encoder.0.bias f4 [16]
00000000: 108d 5dbf cc69 dfbe 78f1 bbbe 0117 9b3e
00000010: 8a56 263f 2941 c53e fa15 183f e6ce 6b3d
00000020: 667c 1f3f 1754 363f 084c 94be 7e55 233f
00000030: e922 6c3f f693 c03e 230b 153f 3b22 5abd
-0.8654337 -0.43635404 -0.36707664 0.30290988 0.649758 0.38526276 0.59408534 0.05757036
0.6229919 0.7122206 -0.28964257 0.63802326 0.9224077 0.37612885 0.5822012 -0.0532553

encoder.2.weight f4 [32, 16, 1, 1]
00000000: d04f 73be 98f7 083e 00c6 4c3d f82e 053e
00000010: 0060 a3bc 483b 16bd 6cc0 593e e62a 5a3e
00000020: fc8a e1bd 9847 6bbe 60d8 fe3c 2e5e 1bbe
00000030: 00e2 f2bb a8bf 0dbd 8883 293e d02f 193d
00000040: 6086 a93d 5c88 12be 0ef6 77be 57a0 2f3e
00000050: 8c50 173e 8e5d 22be 58c5 0ebd d051 60bd
00000060: 0cb5 b23d a5d1 dbbd 26ff 143e 3d08 103d
00000070: 5473 edbb 9715 f6bd ec28 51be a3d7 4c3c
00000080: a075 f03d 3e72 6e3e 28c3 c2bd 2c60 2dbe
00000090: b892 f4bd 4418 fe3d c075 dc3c aca6 d1bd
000000a0: 48f8 56be c812 f1bd 009e 3cbc 5c3d 82bd
000000b0: dc7b 5d3e 6038 50bd 284f 72bd a090 3bbe
000000c0: f089 e8bd 70da d13c 3ad7 41be 87d8 2b3e
000000d0: ce3f 79be 8bec f13d ea61 9e3d 0cc9 8c3d
000000e0: cde7 393e 2437 47bc a802 e33d ece2 b43c
000000f0: be62 30be 05b5 ac3d fb59 353e e795 b53d
00000100: 28f6 7abe 90f6 2bbd 8893 38be 6d4b 6a3e
00000110: 159b 96bd 18b3 0f3e ef6a a23a 557f 203e
00000120: 3dc9 853e 5bb7 243e d685 4bbe 01ee 18be
00000130: 2dc3 5abe f14a b33d 6915 5fbe e21e a03d
00000140: e8ad 153e 263c 303e 188c aa3d acd1 653e
00000150: 46ff 3abe ec70 e93d bc51 90bd 98e6 1f3e
00000160: 0033 8dbd 0029 9d3c 4267 2dbe 800e 8fbd
00000170: 5a34 153e ccb1 62be 884f b7bd 8803 6cbd
00000180: 10ca 93bc 18c4 0e3d 9813 7cbd c033 763e
00000190: acbc b8bd be25 4d3e 5c68 dd3d d817 cb3d
000001a0: 2261 0fbe 6ac4 70be 8022 a53d 02be 51be
000001b0: 6056 3d3d 42b4 6abe 3a3c 6abe 4c8c 82bd
000001c0: 2c68 093e 3818 0f3e 00ee edba e5b4 bfbc
000001d0: 5098 913c 8649 9a3d 4895 a53c b4ba 46bd
000001e0: c313 3a3e 06a3 b8bd 948f 723e c1e5 043e
000001f0: b03f 3cbd 05f7 2c3e 4ad1 02be 09bc 4a3d
00000200: c6e7 643e 8e4c 133e b484 54be 363b b0bd
00000210: 057c 103e b9f7 643e 2f11 ab3d aabe ccbd
00000220: 93ef 16be 91db 82be 305a 0a3d 869b 5abe
00000230: 8d5e 513e 5f64 ed3d 5248 5d3e 5d36 26be
00000240: a8e1 37bd 9ce0 153e 3897 debd f38e 5f3e
00000250: bec9 f6bd 76e0 483e c6d3 4d3e 2a31 473c
00000260: 9758 41be 2d21 303e 60fb 4b3e 441d 303e
00000270: 7bd2 30be bfd7 5fbd ad2c e23d 24cc 1cbe
00000280: c806 e13d d052 f13d 2a99 193e 8219 3c3e
00000290: 5ac4 233c c54b 4bbe 2f5e 113e ff93 28be
000002a0: 2038 42be 2f73 253d ec9c 36be 62b8 733e
000002b0: 119b 5e3e 993d abbd 958f ddbd 92a2 2abe
000002c0: e845 da3d 586b 26be 0c64 c43d 7cde 0d3e
000002d0: a5ea 53bd 9df7 0ebe ecc1 0d3d 4099 ffbd
000002e0: 2dda 8ebc e18f 3dbe 40cf 95bd 99e4 d1bd
000002f0: 8bde 4b3e 3415 79bc 7b18 52be 163b 3cbe
00000300: d046 ad3d 0000 5f37 5872 a43d 4a52 4a3e
00000310: 3274 c53d 8bf7 cabd f782 513e 786b 2dbe
00000320: f9cf 72bc 1bc8 2d3e f462 3e3e 7d22 df3a
00000330: c028 bfbd fd63 163d bbdf 843e 107b 32be
00000340: 3ca3 78be 2aa9 3fbe bcf5 cd3d f83d 853d
00000350: b63a 74be a6b6 683d 7807 75bd cc2e 51be
00000360: ca71 31be dc4e 773e 60d7 033d 420d 133e
00000370: 7d23 5b3d 5b75 8c3c d59c b2bc 60ef 29be
00000380: e2d7 243e 40ea f93b 043a 8d3d 9fda 0dbe
00000390: 91e4 ef3d 0e57 4a3e 2554 efbc 00e6 8b3d
000003a0: 9121 5b3d 19c3 18be e26f 073e 0af5 55bd
000003b0: fe26 b63d 9910 c33d cf70 1ebe cfa8 8cbd
000003c0: 70da 983d 08a3 28bd 5c7a d43d 40e3 4dbd
000003d0: 4c9b 903d fa4c 09be fc61 c9bd f0b7 583e
000003e0: bce5 49be 5822 a73d e6fb 41be 32ea 4fbe
000003f0: ec4e 843d bc3d f9bd e060 183c 1e79 22be
-0.23760915 0.133757 0.049993515 0.13006198 -0.019943237 -0.03667763 0.2126481 0.21305427
-0.11012837 -0.2297653 0.031109035 -0.15172645 -0.007412195 -0.034606606 0.16554081 0.037399113
0.08277583 -0.1430983 -0.24214956 0.17151009 0.1477682 -0.15856001 -0.03485617 -0.054765522
0.08725938 -0.10733346 0.14550456 0.035164107 -0.007246414 -0.12015837 -0.20425767 0.012502584
0.11741185 0.23285767 -0.09509879 -0.16931218 -0.11942047 0.12406972 0.026911616 -0.10236868
-0.2099315 -0.1177116 -0.0115122795 -0.063593596 0.2162928 -0.050835013 -0.05915752 -0.18316889
-0.113544345 0.025616854 -0.18929759 0.16781817 -0.24340746 0.11812695 0.077335194 0.06874284
0.18154831 -0.012159143 0.11084491 0.022080861 -0.17225167 0.08432964 0.17710106 0.08866482
-0.24507964 -0.041983187 -0.18025029 0.22880335 -0.07353798 0.14033163 0.0012391488 0.15673573
0.26130095 0.1608557 -0.19875273 -0.14934541 -0.21363516 0.08754528 -0.21785511 0.078183904
0.14617121 0.17210445 0.08327502 0.22443265 -0.18261442 0.11398491 -0.070468396 0.15615308
-0.06894493 0.01918459 -0.16933921 -0.069851875 0.14570752 -0.22138137 -0.08950716 -0.057620555
-0.018040687 0.03485498 -0.061542124 0.24043179 -0.09020361 0.20033929 0.108109206 0.09916657
-0.14001897 -0.23512426 0.08063221 -0.20482638 0.04622495 -0.22920325 -0.22874537 -0.06374416
0.13418645 0.13974082 -0.0018152595 -0.023401687 0.017772824 0.07533555 0.020212784 -0.048517898
0.18171601 -0.09015469 0.23687583 0.12978269 -0.045959175 0.16891105 -0.1277515 0.04949573
0.2235404 0.14384672 -0.20753747 -0.086050436 0.1410981 0.22360124 0.08352887 -0.09997304
-0.14739828 -0.2555814 0.033777416 -0.2134839 0.20446225 0.1159141 0.2160962 -0.16231675
-0.044892937 0.14636463 -0.108686864 0.21831875 -0.12050198 0.19616875 0.20100316 0.012157718
-0.1888145 0.17200156 0.1992011 0.17198664 -0.17267792 -0.05464911 0.110436775 -0.15312248
0.109876215 0.11783373 0.14999834 0.18369105 0.009995544 -0.19853123 0.14196084 -0.16462706
-0.18966722 0.04039305 -0.17833298 0.23800805 0.2173884 -0.08361358 -0.10818402 -0.16663578
0.10657865 -0.16251886 0.09589395 0.13854402 -0.051737446 -0.13961644 0.034608766 -0.12480402
-0.017438019 -0.18511917 -0.073149204 -0.1024868 0.19909112 -0.015202809 -0.20517151 -0.18381914
0.08460772 1.3291836e-05 0.08029622 0.19757953 0.09641303 -0.09910496 0.20460115 -0.16935527
-0.014820092 0.16970865 0.18592435 0.0017023828 -0.09333944 0.03671645 0.25951943 -0.17429757
-0.24281019 -0.18716875 0.10056636 0.0650596 -0.23850521 0.056814812 -0.059821576 -0.20428008
-0.17328563 0.24151176 0.03218782 0.14360526 0.05350064 0.017145803 -0.021803299 -0.1659522
0.16097978 0.0076268017 0.06895831 -0.13852929 0.117135175 0.19759771 -0.029214928 0.068309784
0.05349881 -0.14918174 0.13226274 -0.05223564 0.08894156 0.0952465 -0.1547272 -0.06868135
0.07463539 -0.041171104 0.10374901 -0.05026555 0.070608705 -0.1340827 -0.09833142 0.21163917
-0.19716543 0.081608474 -0.18943748 -0.20304182 0.06460366 -0.12169978 0.009300441 -0.15866515

encoder.2.bias f4 [32]
00000000: 847b edbd 5a87 7cbb 8089 2cbd 2ddf 3c3e
00000010: f1b6 3e3e c05c 49be 05e0 0d3e 1080 1a3e
00000020: cfb0 a53d 485d e6bb e1e6 ddbd 251d 7b3e
00000030: 4063 20bd 52c7 8c3b 48c1 aa3d 0c5d 75be
00000040: 2cf2 d8bd 2ef9 7abe 78c2 823e d6f2 c03d
00000050: ae7b 433e 9419 0b3d fc70 2b3e faf8 22be
00000060: 9f3b 46be 9ebe ea3d 871b e83d bcfe 833c
00000070: 7f79 103e 7a60 f23d 74d9 893d 9020 0bbe
-0.11595824 -0.0038532824 -0.042123318 0.1844451 0.18624474 -0.19664288 0.13854988 0.15087914
0.08090364 -0.007030163 -0.10835052 0.24522837 -0.039157152 0.004296222 0.08337647 -0.23961276
-0.105930656 -0.24509117 0.25538993 0.09421317 0.19090149 0.03395994 0.16742319 -0.1591529
-0.19358681 0.114621386 0.113333754 0.016112678 0.14108847 0.11834808 0.06730929 -0.1358664

decoder.0.weight f4 [32, 16, 3, 3]
00000000: 384b 93bd 40f4 463c 6830 29bd b046 eb3c
00000010: 3a02 573d 601f 66bc 086f 57bd b8e6 4b3c
00000020: 69e2 803d 3a23 113d 4013 ffbb 68ff 453c
00000030: 20a2 77bc 36bf 273d 3f91 8abd 6c58 d53c
00000040: c6f3 363d 937b 973d 8e36 6cbd 5313 8bbd
00000050: 8035 3dbd 86bc 6d3d e69f d1bc 49ae 813d
00000060: 7701 863d 2bd3 05bd a064 a6bd 602c 4fbb
00000070: 001f 393c 5e50 673d 8774 9cbd 1897 183d
00000080: 4808 51bd f0f6 c2bc 0c97 a2bd 12f2 523d
00000090: 0bf5 18bd 3bb8 40bd 4bf5 62bd f6ba 7f3d
000000a0: b8e7 71bd 4d57 983d 9221 2b3d 5a04 453d
000000b0: 40a8 203c 6e77 29bd 1333 893d 0050 8237
000000c0: 4252 3a3d ec8c 8dbc 288b 10bc 380d 763c
000000d0: 8ce0 893c fcca 903c f85e 683c 662c 143d
000000e0: ee8f 82bd 5075 973c a41e 81bd f8d6 1d3d
000000f0: fa97 123d 22ed 463d d19f 843d 4e4a 683d
00000100: 00ab 833b 7030 9a3c a6a7 233d 005e 2b3b
00000110: da57 a7bd 42f3 463d 664d 603d 3e5c 773d
00000120: 10c0 ee3c 5cfd 9c3c c089 77bc ce7b 123d
00000130: 4247 a5bd afe8 98bd 5c4c ebbc 9b07 51bd
00000140: 8c9f dfbc 71f4 853d 6682 3cbd 635c 08bd
00000150: f2de 663d fa98 543d 7281 413d be74 4ebd
00000160: f068 b7bb a211 aabd e62b 11bd c09f ebba
00000170: a016 aa3c 30bb 68bd b701 a5bd 80c8 433c
00000180: 105e 66bd 40ea f13b c45b a9bd 32f3 263d
00000190: 2220 443d 48dd 1bbc 6aae 96bd bbc8 21bd
000001a0: 70b1 db3b 10cf f0bb cd5c 9b3d 145b 9bbc
000001b0: 241c a5bd 0a93 a4bd 7005 b7bc 26e7 733d
000001c0: 70e1 88bc e835 40bd 209a 003b e2bd 403d
000001d0: 40eb abba 4676 2ebd 74fa 98bc aa2b 90bd
000001e0: 80f1 e13c b864 5fbd 3d97 893d 026c 4d3d
000001f0: f2d0 6c3d 6e07 5c3d e0ed e5bc 0621 99bd
00000200: 81d4 a73d 50c6 d13b ffb7 853d 7afb 5d3d
00000210: eede 81bd 80bb 0b3b e240 173d 0ad6 313d
00000220: e032 413c f020 a7bd 50a9 fd3b 851f 953d
00000230: d0d1 cabb 3968 923d e2e8 3c3d 3ba3 87bd
00000240: 384b 32bd d02b c63b 83ae 94bd 26a4 d8bc
00000250: a327 6bbd 532a 64bd 3260 7b3d d029 e5bb
00000260: b966 8e3d ca0a 4b3d a204 773d c094 383c
00000270: 99f6 8ebd d0e3 b7bb 3dd1 76bd 4255 6dbd
00000280: f263 563d 8802 14bb 0dec 73bd 7002 5b3c
00000290: 5db4 89bd b114 54bd fa06 1abc c774 423d
000002a0: 071f 74bd 398f 8ebd c81e 623d 3334 13bd
000002b0: d7e7 493d 00a5 c9bb b7e6 86bc 008d 453d
000002c0: 343e 08bb 00c0 613c 285d 1cbd 9ee4 3bbd
000002d0: d7c3 693c b271 8b3d 1c35 e3ba 8e35 173d
000002e0: cb13 da3b b07c efbc d242 893d 0973 783d
000002f0: bec5 67bd 72a5 e3bc 2f33 b6bc 69ef 883d
00000300: 2a39 1dbd 53d2 ad3d 8c19 82bd c901 303c
00000310: 1685 6ebc a830 ad3c 9600 743d 8a2a 423d
00000320: e874 2c3c 58d2 113d 8a1e 623d b806 72bd
00000330: db25 a83d 08ac 293d f098 f5bc 758a 8f3d
00000340: 6a62 9bbd c44e 86bc 6b55 44bd 0890 673c
00000350: 6030 793b f29c 463d 400c 803b a481 a9bd
00000360: 1a05 393d 5abe 9a3d 5d34 983d fd7c 9a3d
00000370: 6ea8 aebc dfd7 1e3d 30f6 fabb 2715 3d3d
00000380: 90bf e13c aa23 2a3d 32da 5ebd 2049 22bb
00000390: 40ec e2bc 1661 88bd 1463 98bc e346 21bd
000003a0: 99ba ba3b ce91 703d e844 6fbc a9d2 78bd
000003b0: 84f7 d33c abdd 043d ea27 12bd 6056 293d
000003c0: 104d c43b 1352 46bd 60cc ab3c bda4 863d
000003d0: 2836 86bd d18a 3b3d f177 8b3d 942f 863d
000003e0: 0175 8bbd 4953 063c 5ec3 87bd dc65 d03c
000003f0: aadb 383d 0e6d 4c3d 0095 9fbc 4be2 8f3c
-0.07192081 0.012143195 -0.04130593 0.02872023 0.052492358 -0.014045566 -0.052596122 0.012445144
0.06293184 0.035433985 -0.007784277 0.012084819 -0.015114337 0.040953837 -0.06765985 0.02604314
0.044666074 0.07396617 -0.057669215 -0.06790795 -0.0461936 0.058041118 -0.02558894 0.063320704
0.06543248 -0.03267209 -0.081246614 -0.0031612143 0.011298895 0.05647313 -0.07639413 0.03725347
-0.05103329 -0.02379939 -0.07938966 0.051500387 -0.037343066 -0.047050696 -0.05540971 0.06243416
-0.059058875 0.07438526 0.041780062 0.048099853 0.009805739 -0.041373663 0.06699195 1.553446e-05
0.045488603 -0.01727911 -0.00882224 0.0150178 0.016830705 0.017674915 0.014182799 0.036175154
-0.06375109 0.018488556 -0.06304672 0.03853509 0.035789467 0.04856599 0.06475795 0.056711487
0.0040181875 0.018821925 0.039954804 0.0026148558 -0.08171053 0.048571832 0.054761313 0.060390703
0.029144317 0.01916378 -0.015108526 0.0357626 -0.08070232 -0.07466256 -0.028722934 -0.051032644
-0.027297758 0.06540764 -0.046022795 -0.03329123 0.05636496 0.051903702 0.04724259 -0.050404303
-0.0055972263 -0.083041444 -0.035442255 -0.0017976686 0.020762742 -0.05681914 -0.08056968 0.011949658
-0.05624205 0.007382661 -0.08269456 0.040759273 0.047882207 -0.009513207 -0.073574856 -0.039498072
0.006704502 -0.0073489025 0.0758606 -0.018964328 -0.08062008 -0.08035858 -0.02234146 0.059546612
-0.01670906 -0.04692641 0.0019623116 0.047056086 -0.0013116375 -0.042593263 -0.018674113 -0.07039578
0.027580976 -0.054539412 0.067182995 0.050151832 0.057816453 0.053718023 -0.02806753 -0.07477002
0.08194829 0.0064018145 0.06529235 0.054194905 -0.063413486 0.0021321476 0.03692711 0.043417014
0.011791915 -0.08160579 0.007741131 0.072814025 -0.0061895624 0.07148785 0.04612053 -0.066229306
-0.043528765 0.0060477033 -0.07259848 -0.02644546 -0.057410847 -0.055704426 0.061371036 -0.00699351
0.069531865 0.049570836 0.060307153 0.0112659335 -0.069806285 -0.005611874 -0.06025814 -0.057942636
0.05234141 -0.0022584517 -0.059551287 0.01336728 -0.06723855 -0.051777545 -0.009401077 0.04747465
-0.059599902 -0.06960911 0.055205137 -0.035938453 0.049293365 -0.0061537027 -0.016467435 0.04823017
-0.002078903 0.0137786865 -0.03817478 -0.045872323 0.014267883 0.06808795 -0.0017334553 0.036916308
0.0066551915 -0.02923426 0.06702198 0.06065658 -0.056585066 -0.027788851 -0.022241203 0.06686289
-0.038384594 0.08487382 -0.06352529 0.010742613 -0.014558097 0.021141365 0.05957087 0.04740385
0.0105259195 0.03560099 0.055204906 -0.05908844 0.08210345 0.041423827 -0.029980153 0.070088305
-0.0758713 -0.01639498 -0.047933023 0.014133461 0.0038023219 0.04848952 0.0039077103 -0.0827668
0.04517088 0.07555838 0.074318625 0.07543371 -0.021320548 0.03878009 -0.0076587424 0.04616275
0.027557164 0.04153792 -0.054407306 -0.0024762824 -0.027700543 -0.06659143 -0.018601932 -0.039374243
0.0056985137 0.0587328 -0.014603831 -0.060747776 0.02587486 0.03243796 -0.035682596 0.04134214
0.005990632 -0.048418116 0.020971477 0.0657439 -0.06553298 0.045786683 0.068099864 0.065520436
-0.06809426 0.008198568 -0.0662906 0.025439195 0.045131363 0.04990869 -0.019480228 0.01756396

decoder.0.bias f4 [16]
00000000: 20e0 f4bc 9575 9abc 042e d73c 4f83 c23d
00000010: be3a 59bd 78bb 853d f32e 58bd 68b1 9cbd
00000020: 5dbd a23b 760f 9fbc 5070 5b3d 07b6 c03d
00000030: 1456 8ebd c789 a43d e8f8 00bd e4ab 8ebd
-0.029892027 -0.018854896 0.02626706 0.094977014 -0.053034537 0.065298975 -0.05277915 -0.07651025
0.0049664215 -0.019416552 0.053573906 0.09409719 -0.06950012 0.080340914 -0.031487375 -0.06966379

decoder.2.weight f4 [16, 1, 3, 3]
00000000: fca2 de3d 5059 0d3e f43d 92bd 6814 5cbd
00000010: 4c27 c4bd 9012 b6bd c067 bc3c fb1c 09be
00000020: 3091 d53d 9cfd 97be 6de6 2dbe 1766 0e3e
00000030: 1a94 693e 1736 a63d cb6c a6bc 2488 833e
00000040: ce75 e43d bf69 a63d c5ae 62be dbc3 913e
00000050: e630 a4bc 2cad 7b3e 7623 ba3d ba0d 373e
00000060: 043a 52be e2d9 a2be d591 0e3e 02ae edbd
00000070: bf67 583e 3659 98be 19cf 443e b909 0cbe
00000080: 5835 91be 7e59 91be 56c9 92be 58cc 1a3e
00000090: e088 86bd 9825 55bd a588 9b3e eec3 923e
000000a0: bb89 48be 18da af3d 8ff0 40be 0f9d b23c
000000b0: 0616 b33d 1d32 1fbe 870e 58be dee4 743d
000000c0: 32f8 9dbe 2821 9ebd 5ae8 3a3d 2f73 3a3d
000000d0: 45f2 343e 95fc 95be 520e 353e aeda 713e
000000e0: b978 8c3e e059 3e3c 2e55 363e ce02 543e
000000f0: b300 8cbe 60c1 65bd a068 433d 3f61 3e3e
00000100: 50af 89be 663b a5be 470d a63e 82ea 46be
00000110: df09 3cbd 368d a33e 5f8c 43be 8980 a63e
00000120: fc65 9abc 74fb 92be 8408 9f3e f0a8 a43e
00000130: b6d7 89be fd39 3bbe 32ee 0bbe af19 983e
00000140: 2961 c5bd b81f aabe 8091 78be 162e f2bd
00000150: 6dfa adbe 3479 9cbe 3b4d a6be fade 76be
00000160: fd3e aabe 946a 553b cf75 e7bd 9ca4 a13e
00000170: c501 8ebe 57c9 39be a4a7 6cbe 807b 45be
00000180: 8046 68be 6b11 09be cd2c bebd 3123 5cbe
00000190: 879b 9abe 398d 6b3e 29ac b33d e273 793b
000001a0: bd04 9e3e 855e 82bd 0da8 81be 6df5 83be
000001b0: a932 a63e 6442 ce3c 181a db3b 7062 543e
000001c0: 4a50 5bbe 62e1 843d 469a 233e ec08 bfbd
000001d0: fd48 73bc 6317 8c3e 4253 1abe cfd4 a9be
000001e0: e566 14be f714 86bd d16f 6abe 79d5 9bbe
000001f0: 9a1a 8f3e 423a debd dae2 63be 4bd4 0d3d
00000200: 97f6 5bbe 09a8 85be 2c92 a13d ef80 94be
00000210: 03f1 0e3e 6f16 45be e858 86be 8187 19bd
00000220: 0837 063e ac82 adbc f1fe 92be 0ac0 833d
00000230: 39b7 ed3d 7226 fe3d f037 43be 8696 8d3e
0.108709306 0.13803601 -0.07140723 -0.0537304 -0.09577808 -0.08890259 0.02299869 -0.13389961
0.10428083 -0.29685676 -0.16982432 0.13906132 0.22810403 0.081157856 -0.020315548 0.25689805
0.11155282 0.08125638 -0.22136982 0.28469738 -0.020042848 0.24577779 0.09088795 0.1787633
-0.20529944 -0.31806856 0.13922818 -0.11605455 0.21133326 -0.29755563 0.19219626 -0.13675584
-0.2836101 -0.2838859 -0.28669232 0.15117013 -0.065690756 -0.052037805 0.3037769 0.28665107
-0.1958379 0.0858652 -0.18841766 0.021803407 0.08744435 -0.1554646 -0.21099292 0.059788577
-0.3085342 -0.07721168 0.045631744 0.045520004 0.17670543 -0.29294267 0.17681244 0.23618576
0.27435854 0.011618108 0.17805931 0.20704195 -0.27344283 -0.05609262 0.0477072 0.18591784
-0.26891565 -0.3227188 0.32432005 -0.19425395 -0.04590785 0.31943673 -0.19096516 0.3251994
-0.018847458 -0.28707469 0.31061184 0.3216014 -0.26922387 -0.1828384 -0.13665083 0.29707095
-0.096376725 -0.33227324 -0.24274254 -0.118251964 -0.33980122 -0.3056122 -0.32480797 -0.24108496
-0.3325118 0.0032564746 -0.11301767 0.315709 -0.27735725 -0.18143211 -0.23110825 -0.19285393
-0.22683144 -0.1338555 -0.09285889 -0.214978 -0.30196783 0.23003091 0.08773071 0.0038063456
0.3086299 -0.063656844 -0.25323525 -0.25773183 0.32460526 0.025178142 0.00668646 0.20740676
-0.21417347 0.06488301 0.1597682 -0.093278736 -0.014848945 0.27361593 -0.15070823 -0.33170173
-0.14492376 -0.065469675 -0.22894217 -0.30436304 0.27949983 -0.108509555 -0.22254506 0.034626286
-0.21480785 -0.26104763 0.07889208 -0.2900462 0.13959126 -0.19246839 -0.26239705 -0.037482742
0.1310693 -0.021180473 -0.2871013 0.06433113 0.116072126 0.124096766 -0.19064307 0.27653903
