checkpoints/epoch_14.pth (torch, 24780 bytes, 7 tensors)

encoder.0.weight f4 [16, 1, 1, 1]
0	0xbeff9014	-0.4991461
1	0x3f7cd326	0.98759687
2	0xbf78ff38	-0.9726443
3	0xbf660283	-0.8984758
4	0xbf39bff8	-0.72558546
5	0x3eb60a48	0.3555472
6	0x3d8cae4e	0.068691835
7	0x3f6c8674	0.9239266
8	0xbf2a31f4	-0.6648247
9	0x3ee0f640	0.43937874
10	0x3cfd619b	0.030930331
11	0x3f0ece78	0.55783796
12	0xbf72ab20	-0.94792366
13	0xbd217aa0	-0.039423585
14	0xbf29deea	-0.66355765
15	0xbed94728	-0.424371

encoder.0.bias f4 [16]
0	0xbf2cc1d2	-0.67483246
1	0x3f49c114	0.7881024
2	0x3ede6eba	0.43443853
3	0x3e07d90b	0.13266389
4	0xbe1527e0	-0.14565992
5	0x3f561a7a	0.8363415
6	0x3ef3419f	0.47511002
7	0xbf249126	-0.6428398
8	0xbf3f7aaa	-0.74796546
9	0x3f177cd8	0.5917487
10	0x3f195833	0.59900206
11	0x3f35cd33	0.71016234
12	0x3eefc067	0.4682648
13	0xbd0dc5c0	-0.034612417
14	0xbeac46a0	-0.33647633
15	0xbed47854	-0.41498053

encoder.2.weight f4 [32, 16, 1, 1]
0	0x3db77478	0.089577615
1	0xbdf51e14	-0.119686276
2	0xbced22cf	-0.028947262
3	0x3d14f80b	0.036369365
4	0xbc407a00	-0.011747837
5	0x3e5bb0a4	0.21454102
6	0xbe589b64	-0.21153027
7	0xbdd01a09	-0.10161216
8	0xbca85540	-0.020548463
9	0xbe02104f	-0.12701534
10	0x3c35b758	0.011091076
11	0x3e2e2991	0.17008044
12	0x3d158ffd	0.03651427
13	0x3d9eb9a0	0.07750249
14	0xbd597f40	-0.05309987
15	0x3c177a00	0.009245396
16	0xbe4193ea	-0.18904081
17	0x3e6d7136	0.23187718
18	0xbe7fb3a6	-0.24970874
19	0xbe3696f8	-0.17831028
20	0xbde1d7e0	-0.11027503
21	0xbe7fc92e	-0.24979088
22	0xbe61c96e	-0.22049496
23	0xbe57c846	-0.21072492
24	0x3d15e9a0	0.036599755
25	0xbd47a9c0	-0.04874587
26	0xbe44b90e	-0.19211218
27	0x3dcde8d8	0.10054177
28	0x3d847a5c	0.06468651
29	0x3dc7d0dc	0.09756634
30	0xbd853b6c	-0.065054744
31	0x3e12e85c	0.1434645
32	0x3e240a0e	0.1601946
33	0xbdbabd10	-0.09118092
34	0xbc8d2950	-0.017231613
35	0xbe46c532	-0.19411162
36	0x3dc31010	0.09524548
37	0x3c6fe120	0.014641076
38	0xbe297f3a	-0.1655244
39	0xbe172acc	-0.1476242
40	0xbe047654	-0.12935764
41	0x3c11db20	0.008902341
42	0xbe2a034e	-0.16602823
43	0x3d877c54	0.066155106
44	0xbe7bb628	-0.24581206
45	0xbc6bc8c0	-0.014391124
46	0xbe5e2058	-0.21692026
47	0xbe37b742	-0.17941001
48	0x3da61838	0.08110088
49	0x3cd571d4	0.026055254
50	0xbe3029f6	-0.17203507
51	0xbe2d221b	-0.16907541
52	0x3d590200	0.052980423
53	0x3dd0cb84	0.101950675
54	0x3e6b2dc4	0.22966677
55	0xbe13820d	-0.14405079
56	0x3cf78e00	0.030219078
57	0x3e38eba4	0.1805864
58	0x3e59df46	0.21276578
59	0x3cc4eb87	0.02403809
60	0x3d737f51	0.05944759
61	0xbde6144c	-0.1123434
62	0x3e77af3a	0.24187937
63	0x3d768a88	0.060190707
64	0xbb203d80	-0.002445072
65	0x3e2cd6a3	0.16878752
66	0x3cabe52f	0.020983307
67	0x3c95c284	0.018281229
68	0xbd909898	-0.07060355
69	0xbe3bbfb3	-0.18334846
70	0x3e7d1601	0.24715425
71	0xbe616817	-0.22012363
72	0xbe7bcd4e	-0.24590036
73	0x3e556938	0.20840919
74	0xbe293471	-0.16523911
75	0xbdca0700	-0.098646164
76	0x3e586c35	0.21135028
77	0x3c050d40	0.008120835
78	0x3daf52ec	0.08560738
79	0x3e2cfa7c	0.16892427
80	0xbc482040	-0.01221472
81	0xbdbd800c	-0.09252939
82	0xbe7eb6ca	-0.24874416
83	0xbde92fc4	-0.11386064
84	0xbca3eea0	-0.020011246
85	0x3d1cc3d0	0.03827268
86	0xbe738cf8	-0.23784244
87	0x3e2c575c	0.168302
88	0xbc436ae0	-0.011927336
89	0xbe5ac504	-0.21364218
90	0xbe762c80	-0.24040413
91	0x3e1068ee	0.14102527
92	0x3dd9f0a4	0.10641602
93	0x3e413fb4	0.18871957
94	0x3e1f6b58	0.15568292
95	0x3db672a8	0.08908588
96	0x3d874bec	0.06606278
97	0x3dc62ac8	0.096761286
98	0x3e667568	0.22505724
99	0x3d851abc	0.0649924
100	0xbe6ce424	-0.23133904
101	0x3e0d8e4c	0.13823813
102	0xbe1ec41f	-0.15504502
103	0x3e01e2e7	0.12684213
104	0xbded1ac8	-0.11577374
105	0x3d5e2d61	0.054242495
106	0x3e69aaac	0.22819012
107	0x3ddd8e0c	0.10818109
108	0x3ceadd84	0.02867008
109	0x3df2d618	0.118572414
110	0x3e75f54e	0.24019358
111	0xbddb09b0	-0.10695207
112	0xbc917f10	-0.017760783
113	0xbe1b8c98	-0.15190351
114	0xbcc75700	-0.024333477
115	0x3e79f352	0.24409226
116	0xbe10ff18	-0.1415981
117	0xbd886804	-0.066604644
118	0xbe3ec836	-0.18631062
119	0x3e1ce496	0.15321574
120	0xbe0f39b4	-0.13986856
121	0x3cb04550	0.021517426
122	0xbe3bf2b0	-0.18354297
123	0xbcd7ee60	-0.026358783
124	0xbdb90858	-0.090347946
125	0xbe5db68a	-0.21651664
126	0x3dbe9a94	0.09306827
127	0x3e30da46	0.17270765
128	0xbe32033e	-0.1738405
129	0xbe3008de	-0.17190883
130	0xbe1acb24	-0.15116554
131	0xbe3ceb7b	-0.18449204
132	0x3caf29d0	0.021382242
133	0x3e481c59	0.19542064
134	0x3d4d86f4	0.05017753
135	0x3d72f7b5	0.059318263
136	0xbe62ae4c	-0.22136801
137	0x3e00ded4	0.12585002
138	0xbdfc1b50	-0.12309897
139	0x3e3dba37	0.18528067
140	0x3d310bf5	0.043224294
141	0x3e55e5d0	0.20888448
142	0x3dc687d8	0.09693879
143	0xbddd5828	-0.1080783
144	0x3e57e76e	0.21084377
145	0xbd98ba04	-0.07457355
146	0x3e1963e1	0.14979507
147	0xbd503b4f	-0.05083781
148	0x3e550c28	0.20805418
149	0x3e89c2b0	0.26906347
150	0x3e4234fd	0.18965526
151	0xbe2a2eb6	-0.16619381
152	0xbe3b96de	-0.1831927
153	0x3e886625	0.2664043
154	0xbd61210e	-0.054963164
155	0xbbfe847c	-0.007767258
156	0x3cccdd8c	0.025007986
157	0xbe734e0c	-0.23760241
158	0xbe0d92e2	-0.13825563
159	0xbe559e8a	-0.20861259
160	0x3e647610	0.22310662
161	0xbced0b10	-0.02893594
162	0x3e5d48de	0.21609828
163	0xbd10ff78	-0.035399884
164	0x3e116666	0.14199218
165	0x3da9d330	0.08292234
166	0xbdd74f60	-0.105131865
167	0xbe4ec51c	-0.20192379
168	0x3da80ba8	0.08205348
169	0x3d9038cc	0.07042083
170	0x3e17bfda	0.1481928
171	0xbe72b73a	-0.23702708
172	0x3c4314a0	0.011906773
173	0x3dbf5320	0.09342027
174	0x3e4a9c68	0.19786227
175	0x3e7b0d6c	0.24516839
176	0xbe2e9ee8	-0.17052805
177	0xbd6184c6	-0.055058263
178	0x3df17429	0.11789734
179	0xbe2e4292	-0.17017582
180	0x3cbf8460	0.023378551
181	0x3e69158e	0.22762129
182	0xbdce44ae	-0.10071693
183	0xbe3d4442	-0.1848307
184	0x3e44aa7c	0.1920566
185	0x3cde57ec	0.027141534
186	0x3e5b43f4	0.21412641
187	0xbd9b4538	-0.07581562
188	0x3db90e0f	0.090358846
189	0xbdd89354	-0.105749756
190	0x3cd09670	0.02546236
191	0xbe410090	-0.18847871
192	0x3e115c4c	0.14195365
193	0x3e3c459d	0.1838593
194	0x3df634f6	0.1202182
195	0x3e4ecbd1	0.20194937
196	0x3cb0d470	0.021585673
197	0x3bbb2beb	0.0057120225
198	0x3e304072	0.17212084
199	0x3d868208	0.0656777
200	0x3e2f2216	0.17102847
201	0xbe19b065	-0.15008695
202	0xbdc139c8	-0.09434849
203	0x3e7be775	0.24600013
204	0x3e561406	0.20906076
205	0x3e57faa4	0.21091706
206	0xbe7743de	-0.24146983
207	0x3d9df000	0.07711792
208	0xbe4fccee	-0.20293018
209	0xbdcfaaae	-0.101399764
210	0xbdce36a1	-0.100690134
211	0x3b1c541c	0.0023853844
212	0xbe2316b2	-0.15926626
213	0x3e0b20ec	0.13586777
214	0xbe1e62e9	-0.15467419
215	0xbe5c9772	-0.21542147
216	0x3dc595c0	0.09647703
217	0x3e8ef71b	0.27922902
218	0x3e8c4c75	0.27402082
219	0x3e63047d	0.22169681
220	0x3db4be05	0.08825306
221	0xbdae2cac	-0.08504614
222	0xbe224514	-0.15846664
223	0xbe581f84	-0.21105772
224	0x3c826090	0.015915185
225	0x3dc5a68c	0.09650907
226	0x3d7af1a8	0.061265618
227	0xbe5824f0	-0.2110784
228	0x3bd1a500	0.0063978434
229	0x3dbd13d0	0.092322946
230	0xbe75bbe0	-0.2399745
231	0xbd9a3784	-0.0753012
232	0xbe2ac48a	-0.16676536
233	0xbe4aae0c	-0.19792956
234	0xbe5ffcae	-0.21873733
235	0x3e218fb4	0.15777475
236	0x3e70dc06	0.23521432
237	0xbda01530	-0.07816541
238	0xbe365fda	-0.17810002
239	0xbdfa190c	-0.122118086
240	0xbadfcc00	-0.0017074347
241	0x3e1c2500	0.1524849
242	0x3df8aaec	0.12141976
243	0x3e6b70cc	0.22992247
244	0x3cf473a0	0.02984029
245	0xbdecac29	-0.115562744
246	0x3b45ea0c	0.0030199317
247	0x3e6513e7	0.22370873
248	0x3dce2140	0.10064936
249	0xbd8f896a	-0.070086315
250	0x3da45007	0.080230765
251	0x3e83c3ef	0.25735423
252	0xbe213a6b	-0.15744941
253	0xbb053a80	-0.0020329058
254	0xbe5150b0	-0.20440936
255	0xbe2089e6	-0.15677604

encoder.2.bias f4 [32]
0	0x3e860671	0.2617679
1	0xbbb87440	-0.0056290925
2	0x3d9a900a	0.075470045
3	0xbde5c832	-0.11219825
4	0x3d305908	0.043053657
5	0x3db94b94	0.090476185
6	0xbe0c75d7	-0.13716827
7	0x3e83f57c	0.25773227
8	0x3d8b932b	0.068151794
9	0xbe0d65c8	-0.13808358
10	0xbd6e06b0	-0.058111846
11	0x3e6a2cf3	0.2286871
12	0x3e800456	0.25003308
13	0x3e61787d	0.22018619
14	0xbe2b0978	-0.16702831
15	0x3dfe359c	0.12412569
16	0x3ded5840	0.11589098
17	0xbcaa95e0	-0.02082342
18	0xbd80ad24	-0.06283024
19	0xbe221dd7	-0.15831695
20	0x3c6c6fe8	0.014430977
21	0xbd608d0b	-0.05482201
22	0x3deb74ba	0.11496873
23	0xbe3bfbee	-0.18357822
24	0x3e7cab6e	0.2467477
25	0x3d036bc6	0.032085203
26	0xbe678e84	-0.22612959
27	0x3e2f87d7	0.17141663
28	0xbda7bbdc	-0.08190128
29	0xbe65ee36	-0.22454152
30	0xbe6d3330	-0.23164058
31	0xbd93b028	-0.072113335

decoder.0.weight f4 [32, 16, 3, 3]
0	0xbc8ab8f0	-0.016933888
1	0x3b6d12b4	0.0036174478
2	0xbd312be6	-0.043254755
3	0x3b8837dd	0.00415705
4	0xbdb2bb70	-0.08727157
5	0xbd5ac5ae	-0.05341118
6	0xbd8d34d4	-0.06894842
7	0x3bdea80b	0.0067949346
8	0xbd7bd42b	-0.061481636
9	0xbcbe3528	-0.023218706
10	0xbcc4d4ef	-0.024027316
11	0xbd47cef4	-0.04878135
12	0x3d8ab200	0.06772232
13	0x3dd7766f	0.10520636
14	0x3d3d6230	0.046236217
15	0x3d47e3e5	0.04880132
16	0x3d8f3934	0.069933325
17	0x3db93f34	0.09045258
18	0xbd1c8ffb	-0.038223248
19	0xbd9966f0	-0.07490337
20	0xbbaff987	-0.005370322
21	0xbd844d43	-0.06460049
22	0xbcd2e60c	-0.02574446
23	0x3d9adb51	0.075613625
24	0xbd3b14b8	-0.045674056
25	0x3cb98f54	0.022651352
26	0xbc9f0c7b	-0.01941513
27	0xbd2cc2f5	-0.042178113
28	0xbd067670	-0.032827795
29	0x3d6ae2f0	0.05734533
30	0xbd1aeb16	-0.03782185
31	0xbda81b62	-0.08208348
32	0x3ccb7894	0.02483777
33	0x3c3578d4	0.011076171
34	0xbc6aa2c0	-0.014321029
35	0x3a9ed744	0.0012118598
36	0x3cc0319c	0.023461156
37	0xbd5b88c0	-0.05359721
38	0xbd89237c	-0.06696221
39	0x3d8f3c31	0.069939025
40	0xbd4bf1e3	-0.049791228
41	0xbc8a5fcc	-0.016891383
42	0xbcb2ce8c	-0.021827005
43	0xbcbdd906	-0.023174774
44	0xbd9d64a3	-0.076852106
45	0xbc0764c7	-0.008263773
46	0x3ca9168a	0.02064063
47	0x3d6b72c8	0.05748251
48	0x3d4a1682	0.04933787
49	0xbd433231	-0.047655288
50	0xbd9c2d80	-0.07625866
51	0xbd5acdfa	-0.05341909
52	0x3b30957e	0.0026944573
53	0x3d6daf4e	0.05802851
54	0xbdb30ced	-0.087427
55	0xbdab0273	-0.083500765
56	0x3ce91a55	0.028454939
57	0xbd3bedfe	-0.045881264
58	0x3d0be0e7	0.03415003
59	0x3d41c71e	0.047309034
60	0x3d4237eb	0.04741661
61	0xbd611676	-0.05495306
62	0xbc39df82	-0.011344792
63	0x3cfb5c54	0.030683674
64	0xbd519380	-0.051166058
65	0x3d424672	0.047430463
66	0x3d8536f0	0.06504619
67	0x3d77c2c4	0.060488477
68	0x3da0792d	0.078356124
69	0xbda11f7f	-0.078673355
70	0x3d7ae714	0.06125553
71	0x3bc32440	0.005955249
72	0xbd72d83e	-0.059288256
73	0x3cb46705	0.02202178
74	0xbbb52630	-0.005528234
75	0x3cff7c71	0.031187268
76	0xbc56f918	-0.013120912
77	0x3ad20e0d	0.0016025916
78	0x3ce049bc	0.02737891
79	0x3d9aff12	0.07568182
80	0x3ba5bc10	0.005057819
81	0x3d53e409	0.051731143
82	0xbce84c0e	-0.028356578
83	0xbd27569c	-0.04085408
84	0xbc4902f8	-0.012268774
85	0x3d08cce2	0.033398516
86	0xbd37dc28	-0.04488769
87	0x3d9a96d2	0.07548298
88	0x3ccb2f50	0.024802834
89	0x3dcb4b96	0.09926526
90	0xbcffa242	-0.0312053
91	0x3cd1ef90	0.025626928
92	0x3c16db48	0.009207554
93	0xbb3f5f5a	-0.002920112
94	0x3da1b8d9	0.07896585
95	0x3da2379c	0.07920763
96	0x3cc9e66d	0.024646008
97	0xbd73ec7e	-0.05955171
98	0x3d78a523	0.06070436
99	0x3d4ba42e	0.04971712
100	0x3d7a220c	0.061067626
101	0x3d2c15f1	0.042013112
102	0x3cc08e8d	0.023505474
103	0xbd12c798	-0.03583488
104	0xba2eee8b	-0.0006673119
105	0xbd45f643	-0.048330557
106	0xbd237ddb	-0.039914947
107	0x3cf481d2	0.02984706
108	0xbcc0b595	-0.023524085
109	0xbda3482f	-0.07972752
110	0x3bf94a24	0.007607715
111	0x3cbbb560	0.022913635
112	0x3bd16310	0.006389983
113	0xbd852090	-0.065003514
114	0x3d8d511c	0.06900236
115	0x3d66fb92	0.05639226
116	0xbcde9778	-0.027171835
117	0x3d04435c	0.0322908
118	0x3dde5df1	0.10857762
119	0x3dc2c44f	0.09510099
120	0x3dbebbd1	0.09313167
121	0xbd8fef9c	-0.07028124
122	0x3cb4a1d0	0.022049814
123	0xb8fedb00	-0.00012152456
124	0x3d82ec56	0.06392734
125	0x3d2659fc	0.04061316
126	0x3daafdc0	0.0834918
127	0x3d959e75	0.07305614
128	0xbcdc070c	-0.026858829
129	0xbd5a2f63	-0.053267848
130	0xbd3d8751	-0.046271626
131	0xbcfcfedd	-0.030883247
132	0x3d99419c	0.07483217
133	0x3b7fe3c9	0.0039045683
134	0x3c0532a7	0.008129752
135	0xbd651e97	-0.055937376
136	0xbcf37d74	-0.029722907
137	0xbc7b0ab9	-0.015322381
138	0x3d0394f8	0.03212449
139	0x3d974ed9	0.07388086
140	0x3d88a7ff	0.06672668
141	0xbda87d71	-0.08227051
142	0xbbd87306	-0.0066055087
143	0xbd7ea4b1	-0.06216878
144	0x3da400a3	0.08007934
145	0x3d1fb27a	0.038988568
146	0x3c83f334	0.01610718
147	0x3d5a44b6	0.053288184
148	0x3c62a128	0.013832368
149	0x3d60ab5a	0.054850914
150	0x3d140662	0.0361389
151	0xbcb1a0fc	-0.021683209
152	0x3da0bb05	0.07848171
153	0x3cc05cb4	0.023481704
154	0xbca02ce4	-0.019552656
155	0xbb00a7a0	-0.0019631162
156	0xbc2a4ec0	-0.010394752
157	0x3c95da70	0.018292636
158	0x3d98574d	0.07438526
159	0x3d9df2c1	0.07712317
160	0x3d49f202	0.049303062
161	0x3cd741c0	0.02627647
162	0xbd7874eb	-0.060658377
163	0xbce9a070	-0.028518885
164	0xbd917150	-0.07101691
165	0x3d3b89ca	0.045785703
166	0x3d0744ea	0.033024706
167	0xbd648400	-0.055789948
168	0xbd00b980	-0.031426907
169	0xbcdf4726	-0.027255606
170	0x3d9b4643	0.07581761
171	0x3d44613e	0.0479443
172	0x3d1b4ce6	0.037915133
173	0x3d86a5a9	0.06574566
174	0xbd9f413a	-0.07776113
175	0xbd5576c0	-0.052115202
176	0xbd160266	-0.03662338
177	0xbbb0bd80	-0.005393684
178	0x3d1647b6	0.036689483
179	0x3d4ea6aa	0.050451912
180	0x3d975605	0.07389454
181	0xbd03a906	-0.032143615
182	0x3d271a8e	0.04079681
183	0xbcedcaec	-0.029027425
184	0xbda26788	-0.07929903
185	0x3d4322ce	0.047640614
186	0xbda10756	-0.07862727
187	0xbda56027	-0.0807498
188	0xbda35e93	-0.07977023
189	0xbd9fa09a	-0.07794304
190	0xbb295300	-0.0025836825
191	0x3bbb01c0	0.0057069957
192	0x3d4449d2	0.047921963
193	0x3d7acab6	0.061228476
194	0x3d4550da	0.04817281
195	0x3da4ae39	0.08041043
196	0x3d823e25	0.063595094
197	0xbd66d2d3	-0.0563534
198	0x3d6554da	0.055989124
199	0x3be7e570	0.0070769116
200	0xbd920376	-0.07129566
201	0x3bc9b300	0.0061553717
202	0x3d1c625e	0.038179748
203	0xbca87c90	-0.020567209
204	0x3d4319c2	0.047631986
205	0xbc09f958	-0.008421265
206	0xbd4ebb7b	-0.050471764
207	0x3da2837f	0.07935237
208	0x3d6a0aa2	0.057139046
209	0xbd7fe548	-0.06247452
210	0x3bed9f10	0.0072516277
211	0x3c92f3fc	0.017938606
212	0xbce8e470	-0.02842924
213	0x3d844329	0.06458122
214	0x3d794036	0.060852252
215	0x3d639146	0.055558465
216	0x3d24065e	0.040045135
217	0x3da72f71	0.081633456
218	0xbcabae80	-0.020957232
219	0x3c08f378	0.008358829
220	0x3cc837c4	0.024440654
221	0x3c7a5fd8	0.01528164
222	0xbca9fc1c	-0.020750098
223	0x3ca611c0	0.020272136
224	0xbd260aee	-0.040537767
225	0xbd4c5a06	-0.04989054
226	0xbd65986e	-0.05605357
227	0xbc024bf8	-0.007952683
228	0x3d7ae6c6	0.06125524
229	0xbda7c5df	-0.08192038
230	0x3d42d12e	0.04756277
231	0xbd5f9913	-0.054589342
232	0xbd8944da	-0.067025855
233	0x3d9fd335	0.078039564
234	0xbd21af30	-0.039473712
235	0xbd49a808	-0.049232513
236	0x3d4a3cca	0.04937438
237	0xbd91269b	-0.070874415
238	0xbd00d600	-0.031454086
239	0x3d7f90e2	0.06239403
240	0x3d171310	0.036883414
241	0x3da15c31	0.07878912
242	0x3d954cab	0.07290014
243	0x3a97cfc0	0.00115823
244	0xbce2cc3c	-0.027685277
245	0xbd9264b7	-0.07148116
246	0x3cf2b54c	0.029627465
247	0x3d5955c6	0.053060316
248	0xbd5cb846	-0.053886674
249	0xbc629178	-0.013828628
250	0xbd72a2be	-0.059237234
251	0xbd2e7fbe	-0.042602293
252	0xbd5353b6	-0.051593505
253	0xbd9fd7a0	-0.07804799
254	0xbd6d3e3e	-0.057920687
255	0x3d01b21a	0.03166399

decoder.0.bias f4 [16]
0	0x3d868b99	0.06569595
1	0x3d49841a	0.049198247
2	0xbd7fcba4	-0.062450066
3	0xbd811dfd	-0.06304548
4	0xbd578af8	-0.052622765
5	0xba05dd2a	-0.00051065034
6	0x3d52d513	0.051472735
7	0xbb638579	-0.0034717007
8	0xbd207e07	-0.03918269
9	0x3d9f5a6f	0.07780921
10	0xbc98fae2	-0.018674318
11	0x3cf9b819	0.030483292
12	0xbd0d340d	-0.034473468
13	0x3d0fcd86	0.03510811
14	0x3d598675	0.053106744
15	0xbc7bb6b8	-0.015363388

decoder.2.weight f4 [16, 1, 3, 3]
0	0x3e62a8d4	0.22134715
1	0x3d1c0728	0.038092762
2	0xbd9117a4	-0.07084587
3	0xbe800d36	-0.2501008
4	0x3e9b6343	0.30349168
5	0x3ea15024	0.31506455
6	0x3c3f3c35	0.011672069
7	0x3e8c00f1	0.27344468
8	0xbd96c71a	-0.07362194
9	0x3e59932d	0.2124755
10	0xbe8a48c1	-0.27008632
11	0xbdd39f7c	-0.103331536
12	0xbe946c82	-0.28989035
13	0xbc2d4dd3	-0.010577637
14	0xbd95e14e	-0.07318364
15	0xbdc575fd	-0.09641645
16	0xbe067e5c	-0.1313414
17	0x3ca5e229	0.020249443
18	0x3e735443	0.23762612
19	0x3e98147c	0.29703128
20	0xbbaf12b7	-0.005342807
21	0x3d3f866e	0.04675906
22	0x3d1d3c9b	0.038387876
23	0xbeb146d1	-0.3462434
24	0xbe46aec3	-0.19402604
25	0x3caab688	0.02083899
26	0x3e197a1e	0.1498799
27	0xbdeaa50f	-0.11457264
28	0xbe08f380	-0.13374138
29	0x3e6d5423	0.23176627
30	0x3e030f1d	0.12798734
31	0xbd8df480	-0.069314
32	0x3ea1c066	0.315921
33	0x3db8d01c	0.09024069
34	0x3e9b03fb	0.30276474
35	0xbe55ccce	-0.20878908
36	0xbe4fc23b	-0.20288937
37	0xbea9570b	-0.3307422
38	0x3e570dde	0.21001384
39	0x3dfc7b04	0.12328151
40	0xbe5b9b78	-0.21446025
41	0x3c8db9f0	0.017300576
42	0x3cbdb6d0	0.02315846
43	0xbe0fe436	-0.140519
44	0xbd2944d8	-0.04132542
45	0x3db1333b	0.086523496
46	0xbe9d40f0	-0.30713606
47	0x3a8e4427	0.0010854051
48	0xbe127119	-0.14300956
49	0x3e4cf4e1	0.20015289
50	0x3dafbe47	0.085812144
51	0x3e9a3ffe	0.30126947
52	0xbda81ee4	-0.08209017
53	0xbdc8a019	-0.09796161
54	0x3be378df	0.006941899
55	0x3dc7557d	0.097331025
56	0xbe5710b7	-0.2100247
57	0x3e3e03a9	0.18556084
58	0xbd2f0410	-0.042728484
59	0x3e697d35	0.22801669
60	0xbe97cdc2	-0.29649168
61	0x3de31b6a	0.11089213
62	0x3d1969fc	0.03745459
63	0xbeb175ce	-0.3466019
64	0x3dab4b80	0.0836401
65	0xbdae9902	-0.08525278
66	0x3d9b450c	0.07581529
67	0xbd193c03	-0.037410747
68	0x3e065541	0.1311846
69	0xbea79502	-0.3273087
70	0xbdcc8361	-0.09985996
71	0xbe7fe31c	-0.24988979
72	0xbe94790f	-0.2899861
73	0xbdb20cd0	-0.0869385
74	0x3d7e1660	0.062033057
75	0x3e566d0d	0.20940037
76	0xbe86c9bf	-0.26325795
77	0x3e1b19f9	0.15146627
78	0xbdaa4bc8	-0.083152354
79	0xbe87141d	-0.26382533
80	0x3ca3fd5c	0.020018272
81	0xbe8e290f	-0.277657
82	0xbe4ee8a2	-0.2020593
83	0xbe8dfa4a	-0.27730018
84	0x3e0cd434	0.13752824
85	0xbdea9247	-0.114536814
86	0xbd8a0790	-0.06739724
87	0x3d894d4e	0.06704198
88	0xbdb0daf8	-0.08635515
89	0x3de901df	0.1137731
90	0x3d542867	0.051796343
91	0xbdf6b3f6	-0.120460436
92	0xbe9937d0	-0.29925394
93	0xbe5f6847	-0.21817122
94	0xbe3f1be5	-0.18662985
95	0xbd5cc727	-0.053900864
96	0x3e70c5a0	0.23512888
97	0x3e2cfa2b	0.16892307
98	0x3c71180f	0.014715209
99	0x3d0b6f3f	0.03404164
100	0x3ea16628	0.31523252
101	0x3d729674	0.059225515
102	0x3e7b1b62	0.24522164
103	0xbde17dbe	-0.110103115
104	0xbe74068e	-0.23830625
105	0x3e08c33a	0.13355723
106	0xbe3c7e9a	-0.1840767
107	0xbe049d27	-0.12950574
108	0x3da776df	0.0817697
109	0x3ea7c432	0.32766873
110	0xbe601f64	-0.21886975
111	0x3ea0af00	0.31383514
112	0xbe818d97	-0.25303337
113	0x3e0bd71c	0.13656276
114	0xbd72e26d	-0.059297968
115	0xbe56b201	-0.2096634
116	0x3e83ab82	0.25716788
117	0xbd4751de	-0.04866206
118	0x3d290999	0.04126892
119	0xbdc83aee	-0.09776865
120	0x3e03cc88	0.12870991
121	0xbe615207	-0.22003947
122	0xbe6eb01d	-0.2330937
123	0xbe920ef5	-0.28527036
124	0x3d9f6248	0.077824175
125	0x3e513c9b	0.20433275
126	0xbda3217f	-0.07965373
127	0xbc6f4d4d	-0.014605832
128	0xbe003026	-0.12518367
129	0xbded71b5	-0.115939535
130	0xbd1d1227	-0.03834739
131	0xbe91b657	-0.28459427
132	0xbe80109e	-0.25012678
133	0xbd5ef960	-0.05443704
134	0xbd55520b	-0.052080195
135	0x3dd887c1	0.10572768
136	0x3e988350	0.29787683
137	0xbe9c6c86	-0.30551547
138	0x3e439597	0.19100033
139	0x3e9a5705	0.30144516
140	0xbd1b3997	-0.03789672
141	0xbe1155f7	-0.14192949
142	0x3df2c507	0.11853986
143	0xbd30bc02	-0.04314805
