checkpoints/epoch_2.pth (torch, 24320 bytes, 7 tensors)

encoder.0.weight f4 [16, 1, 1, 1]
-0.72116816 0.006669879 0.62772113 0.21750225 -0.87134886 0.8904116 -0.82249165 0.77230364
0.27124295 0.54129523 -0.86094713 0.61376065 -0.6047492 -0.570673 -0.32872164 -0.5989948
00000000: 7a9e 38bf 008f da3b 55b2 203f e9b8 5e3e
00000010: b810 5fbf 04f2 633f d08e 52bf b1b5 453f
00000020: 5be0 8a3e 5392 0a3f 0867 5cbf 6b1f 1d3f
00000030: d8d0 1abf a017 12bf 344e a8be b957 19bf

encoder.0.bias f4 [16]
-0.7249266 -0.70742166 -0.4347504 0.9823316 -0.73790634 0.03302829 -0.27415347 -0.28996825
0.64557946 -0.087091655 0.54000175 0.85503095 -0.3648888 -0.39771044 -0.31396592 0.49630654
00000000: ca94 39bf 9619 35bf 9b97 debe 157a 7b3f
00000010: 6ee7 3cbf ac48 073d d85d 8cbe b876 94be
00000020: b244 253f 1c5d b2bd 8e3d 0a3f 4fe3 5a3f
00000030: b4d2 babe b4a0 cbbe 24c0 a0be e41b fe3e

encoder.2.weight f4 [32, 16, 1, 1]
0.068062425 -0.17291433 0.057792723 -0.20577013 0.01962927 0.13737598 0.10905653 -0.11100277
-0.10534653 0.11459258 0.061252177 -0.17762008 0.026655644 0.15618092 -0.19202116 0.044554293
0.14166203 0.23120332 0.069037974 -0.16455224 0.2049165 -0.13024256 -0.1094825 0.11742157
-0.15250504 0.073910624 -0.16808352 -0.15970582 -0.08070305 0.028308213 -0.035516202 -0.14316675
-0.042739034 -0.24546227 -0.08868009 0.001355797 -0.19564044 0.17850351 0.06798923 -0.105941325
-0.21795511 0.22010282 -0.14415836 -0.053788662 -0.14481184 0.11683494 -0.027861893 0.06721115
0.22043237 -0.056322813 -0.032155573 0.006175846 -0.17384407 -0.02884999 0.053735137 0.23553017
0.23792389 0.06943926 -0.09025478 -0.23279628 -0.18910798 -0.17474237 0.095074564 0.07796726
0.22699773 -0.24128425 0.13937491 -0.09394166 -0.1691527 -0.15734246 -0.04664889 -0.08326578
-0.06371978 0.13683075 0.235966 -0.14405778 0.24315208 -0.19710946 0.07364583 -0.14223921
0.047119766 0.018585533 0.13261503 -0.11778295 -0.20918146 -0.15575153 0.11793092 -0.21836883
-0.026429474 0.07111767 0.20946726 0.15955904 0.0011065304 -0.19938901 -0.2254945 -0.2427355
0.0057935417 0.09872392 0.085366674 0.019806277 0.2181409 -0.034693003 0.08924812 0.015605973
0.121961705 -0.026367992 -0.18960702 -0.07653418 0.12558314 -0.15534732 -0.12801066 -0.13958935
0.09072772 -0.01554054 -0.2222754 -0.07319209 -0.046188086 -0.1576555 0.15909201 -0.18384096
-0.22099355 0.10114336 0.20134997 -0.12396747 -0.1868571 -0.066527456 0.17427999 0.18626648
0.18291992 0.02317664 0.19538346 -0.043684155 0.1680224 -0.18412042 0.09004092 -0.24223775
-0.2172437 0.11530024 -0.21284193 -0.157446 -0.037191898 0.10506135 0.12742993 -0.15773574
-0.01956153 -0.1471042 0.045914322 -0.057156444 -0.21794891 0.01487869 0.07879943 0.22719583
-0.23761237 0.16003096 0.046304435 -0.1987086 -0.10033992 -0.036715478 0.015685141 0.06157899
0.08845654 0.012567997 0.13978942 -0.036380205 0.19897553 0.15329161 -0.22718987 0.23948792
0.026196284 0.22163557 0.028499687 0.1086621 0.077383846 -0.24610174 -0.19326049 -0.04282905
-0.088727385 -0.061206132 -0.025143757 0.018334147 0.14449194 -0.10148718 -0.19000566 0.21652038
-0.23013675 0.22450814 -0.12741007 0.1542977 0.13278544 0.13729379 0.15229616 -0.12485461
-0.10142416 -0.016774118 0.24727754 -0.010735503 -0.19367996 -0.20057316 -0.21083641 0.15683974
-0.10189805 0.22644703 0.056907162 0.09603126 0.06161931 -0.016878247 0.16643769 0.041713223
0.2262946 -0.14330411 0.15487382 -0.13279724 0.07971582 -0.01813361 0.14352116 -0.015470237
-0.027079701 0.017946184 0.20622307 -0.07386032 -0.033100516 0.012914717 -0.09743968 -0.17124894
0.23827171 0.14703944 0.05940796 -0.104633376 0.07836741 0.033756964 -0.23301914 -0.19686389
0.21123667 0.10066863 -0.22665137 0.20179886 0.12132549 -0.12659502 0.100177854 -0.01916449
-0.08848351 -0.06428206 0.06900698 -0.08737108 0.12719274 -0.008529514 -0.0033060312 0.11465973
0.12784666 0.14848247 0.055743247 -0.20326614 0.13770604 -0.039374918 0.06700143 0.06370661
00000000: 5064 8b3d 7410 31be 10b8 6c3d 68b5 52be
00000010: 90cd a03c 4aac 0c3e 0859 df3d 6c55 e3bd
00000020: ecbf d7bd 84af ea3d 90e3 7a3d 0ae2 35be
00000030: f05c da3c e4ed 1f3e 32a1 44be 907e 363d
00000040: da0f 113e 90c0 6c3e c863 8d3d 6280 28be
00000050: a2d5 513e 4e5e 05be 5c38 e0bd b87a f03d
00000060: 482a 1cbe 745e 973d 161e 2cbe ec89 23be
00000070: a447 a5bd a0e6 e73c 7079 11bd 4e9a 12be
00000080: 200f 2fbd 765a 7bbe e89d b5bd 00b5 b13a
00000090: f855 48be a0c9 363e f03d 8b3d c4f7 d8bd
000000a0: a02f 5fbe a262 613e 409e 13be 8051 5cbd
000000b0: 8e49 14be 2847 ef3d a03e e4bc 00a6 893d
000000c0: 06b9 613e c0b2 66bd 90b5 03bd c05e ca3b
000000d0: 2e04 32be d056 ecbc 6019 5c3d d22e 713e
000000e0: 52a2 733e 2c36 8e3d 80d7 b8bd 2662 6ebe
000000f0: 86a5 41be aaef 32be 74b6 c23d 4cad 9f3d
00000100: 1872 683e 3813 77be 4cb8 0e3e 7c64 c0bd
00000110: 5e36 2dbe 621e 21be e812 3fbd 4087 aabd
00000120: 847f 82bd 5c1d 0c3e 12a1 713e e283 13be
00000130: dcfc 783e 10d7 49be a0d3 963d 28a7 11be
00000140: a800 413d b040 983c 3ccc 073e 3038 f1bd
00000150: aa33 56be 547d 1fbe c485 f13d 149c 5fbe
00000160: a082 d8bc 24a6 913d 967e 563e 7263 233e
00000170: 0009 913a a22c 4cbe 08e8 66be a88f 78be
00000180: c0d7 bd3b c42f ca3d b9d4 ae3d c640 a23c
00000190: 5460 5f3e 401a 0ebd b8c7 b63d 32b0 7f3c
000001a0: 0fc7 f93d b001 d8bc 5828 42be f4bd 9cbd
000001b0: de98 003e 5e13 1fbe 3a15 03be 83f0 0ebe
000001c0: 74cf b93d c09d 7ebc 2a9c 63be bce5 95bd
000001d0: b82f 3dbd 7270 21be 04e9 223e ce40 3cbe
000001e0: 224c 62be 4024 cf3d b02e 4e3e a8e2 fdbd
000001f0: 7857 3fbe 8c3f 88bd 7476 323e a4bc 3e3e
00000200: 5c4f 3b3e f0dc bd3c 9a12 483e 28ee 32bd
00000210: 100e 2c3e 108a 3cbe 6067 b83d 2c0d 78be
00000220: 2275 5ebe 8822 ec3d 3cf3 59be 8639 21be
00000230: 8856 18bd 682a d73d fe7c 023e 7a85 21be
00000240: 803f a0bc 7ca2 16be a810 3c3d e01c 6abd
00000250: 002e 5fbe c0c5 733c 9861 a13d 06a6 683e
00000260: a850 73be 28df 233e b8a9 3d3d 447a 4bbe
00000270: 047f cdbd f862 16bd 207e 803c 403a 7c3d
00000280: b428 b53d 00ea 4d3c f524 0f3e 6903 15bd
00000290: 3ec0 4b3e 7af8 1c3e 76a4 68be 523c 753e
000002a0: 9799 d63c 6ff4 623e 2d78 e93c 3c8a de3d
000002b0: 6c7b 9e3d 1802 7cbe 14e6 45be 846d 2fbd
000002c0: b4b6 b5bd 48b3 7abd 48fa cdbc 7e31 963c
000002d0: b2f5 133e 83d8 cfbd d890 42be 85b7 5d3e
000002e0: f8a8 6bbe 76e5 653e c977 02be 3700 1e3e
000002f0: e8f8 073e be96 0c3e 86f3 1b3e c6b3 ffbd
00000300: 78b7 cfbd e069 89bc 5336 7d3e f7e3 2fbc
00000310: 0a54 46be 0d63 4dbe 80e5 57be 999a 203e
00000320: edaf d0bd bbe1 673e 7c17 693d 0aac c43d
00000330: 8864 7c3d 4044 8abc a46e 2a3e 7cdb 2a3d
00000340: c6b9 673e 50be 12be 3e97 1e3e 00fc 07be
00000350: 0c42 a33d f08c 94bc 36f7 123e e076 7dbc
00000360: 40d6 ddbc e003 933c 242c 533e 1444 97bd
00000370: 6894 07bd 4098 533c 748e c7bd e25b 2fbe
00000380: 80fd 733e 8291 163e c355 733d 064a d6bd
00000390: 187f a03d be44 0a3d 929c 6ebe b096 49be
000003a0: 6d4e 583e 5b2b ce3d 4c17 68be 5ca4 4e3e
000003b0: 8079 f83d 20a2 01be 0c2a cd3d d9fe 9cbc
000003c0: d836 b5bd 50a6 83bd 8853 8d3d 9cef b2bd
000003d0: d03e 023e 60bf 0bbc 00aa 58bb b8d2 ea3d
000003e0: 3cea 023e ca0b 183e 0853 643d 0025 50be
000003f0: d002 0d3e 9847 21bd 0c38 893d 9c78 823d

encoder.2.bias f4 [32]
0.12431179 -0.23808485 -0.08362195 -0.043650478 0.031005563 -0.128842 0.18156062 0.05131665
-0.11105695 -0.14023662 0.0062788595 0.24296802 0.062733255 -0.086575866 0.018999357 -0.06986186
0.22175752 0.13956149 0.0929596 0.0061759376 -0.15032172 0.072697505 -0.11986518 0.16854891
0.117103666 0.098664016 0.15224402 -0.054841936 0.02279731 0.1781277 -0.08703703 -0.18561298
00000000: 2e97 fe3d 84cc 73be fc41 abbd d8ca 32bd
00000010: 61ff fd3c 28ef 03be 07eb 393e 6831 523d
00000020: d471 e3bd 309a 0fbe e4be cd3b 9ccc 783e
00000030: 4b7a 803d b04e b1bd 8aa4 9b3c bc13 8fbd
00000040: 6714 633e 35e9 0e3e 9a61 be3d 855f ca3b
00000050: f0ed 19be 6ee2 943d e07b f5bd 1698 2c3e
00000060: 0cd4 ef3d 5c10 ca3d dbe5 1b3e f0a1 60bd
00000070: 6dc1 ba3c 1c67 363e 7840 b2bd 5411 3ebe

decoder.0.weight f4 [32, 16, 3, 3]
-0.013754524 0.0021787253 0.023965683 -0.02724278 0.0069946945 0.060748376 0.050642695 -0.05240476
-0.076092854 -0.054654263 0.07326306 0.03859543 0.01877044 0.04321753 -0.0018612907 -0.060143635
-0.03575817 -0.029301135 0.051169716 -0.019100307 0.039252836 -0.077543914 -0.02172491 0.025010563
-0.071896285 0.026522724 -0.012406926 -0.07438748 0.028431505 -0.0008120313 0.0097697005 -0.026076723
0.0052138423 0.022875793 -0.030630888 -0.030095499 0.046855442 0.07250181 -0.08231231 0.033646293
0.009188019 -0.04231305 0.06368334 -0.045001082 -0.07985625 -0.073146865 0.039948903 0.008110566
0.061453834 0.07592829 0.03493802 0.017516566 -0.055619795 -0.05882914 0.07316498 -0.03856697
-0.050406035 0.010926306 -0.015047401 -0.046369843 -0.050180476 -0.049318668 -0.040380772 -0.06472008
0.029720224 0.04096182 0.028166587 0.041392844 0.032615114 0.07330675 -0.07013946 -0.044980694
0.031229317 -0.04745371 0.04924485 -0.018611707 0.02613256 -0.0033555734 0.049323976 -0.048095133
-0.026470155 -0.081682794 -0.045060325 0.057607684 -0.061382428 -0.003583684 -0.00015302969 0.047680877
-0.0035924544 0.03940417 -0.06875396 0.041379962 0.005147898 0.04174481 0.053828925 0.014610698
0.051391788 -0.03450735 -0.028480476 -0.047148596 -0.009445913 0.03182485 0.06764511 -0.031590175
0.07753425 0.04908731 -0.040290147 0.073891975 0.043967463 -0.070632845 0.04079819 0.019902837
0.071555994 0.056241214 0.004747548 0.044237114 -0.04586558 -0.0028419718 -0.079847634 0.050944723
-0.060541302 0.0032417998 0.028382957 -0.053524952 -0.01836466 -0.015249885 -0.041369736 -0.03078983
-0.07409509 0.020859323 -0.035757314 -0.072678104 -0.04464261 0.05347177 -0.02604897 0.014899544
-0.06544685 -0.0073184147 0.08510049 0.03175228 0.08284959 0.026051395 -0.07715267 -0.039362483
-0.045413118 -0.008574598 0.06465662 0.061438 -0.047278196 0.07339897 -0.07984133 0.08205069
0.06858624 -0.031579375 -0.05070902 0.067916326 0.042626 -0.0022080243 -0.014700942 -0.05060069
-0.016750075 0.058825783 -0.043892603 0.027415663 0.049881615 -0.046901286 -0.055082135 0.022284329
-0.023167145 -0.06901487 0.076803066 0.08154435 0.08274371 -0.0031525418 -0.04453227 0.07901042
-0.015274666 0.08003918 -0.06509997 -0.0014905259 0.082882054 0.06695665 0.043388672 -0.062216245
-0.07988133 -0.07521947 0.06269934 -0.0038789734 0.0031082109 -0.06436675 0.0400664 0.07750297
-0.031603675 -0.051728636 0.007824443 -0.000228405 -0.0643747 -0.018961363 0.07846197 -0.07684445
0.051507704 0.0074419454 -0.02001626 -0.014538936 0.043936037 0.060506456 0.008735128 -0.03054738
0.017380327 0.04729662 -0.0006303787 0.008196175 0.06358371 0.015524335 -0.0122953355 0.052848555
0.04556606 -0.058614306 -0.061900966 -0.046520196 -0.07821284 -0.01848913 -0.02872178 0.0077858493
-0.07056295 0.03942872 0.028124206 -0.028377812 -0.063012175 0.046481557 -0.041003726 -0.058980376
0.04013177 0.080900855 -0.059386443 -0.07029177 0.080108516 0.040352114 -0.019822925 0.007139258
0.0276981 -0.05845692 -0.069826886 -0.019938506 -0.049672842 0.031530023 0.054724865 0.038176633
-0.027982205 0.008040369 0.050665848 -0.07383054 0.03162133 -0.018252172 0.005614482 -0.040523212
00000000: a85a 61bc f2c8 0e3b ae53 c43c 402c dfbc
00000010: c033 e53b 4ad3 783d b76e 4f3d 60a6 56bd
00000020: 92d6 9bbd 26dd 5fbd f10a 963d 3e16 1e3d
00000030: 77c4 993c dd04 313d 8df6 f3ba 2c59 76bd
00000040: 2977 12bd ef08 f0bc 5697 513d 3f78 9cbc
00000050: 95c7 203d 58cf 9ebd 70f8 b1bc f4e2 cc3c
00000060: 5c3e 93bd 2f46 d93c 6b46 4bbc 7758 98bd
00000070: 30e9 e83c 80de 54ba 1811 203c da9e d5bc
00000080: e1d8 aa3b 0466 bb3c a1ed fabc d68a f6bc
00000090: 7eeb 3f3d d47b 943d 5b93 a8bd b2d0 093d
000000a0: 5889 163c 7350 2dbd 696c 823d 0e53 38bd
000000b0: ac8b a3bd 06ce 95bd 76a1 233d 2ee2 043c
000000c0: 04b7 7b3d 4b80 9b3d 2b1b 0f3d e77e 8f3c
000000d0: 95d1 63bd d3f6 70bd 85d7 953d 66f8 1dbd
000000e0: 8f76 4ebd 4004 333c 6089 76bc 4eee 3dbd
000000f0: 0b8a 4dbd 5f02 4abd 4f66 25bd f68b 84bd
00000100: d477 f33c 95c7 273d 9dbd e63c 8b8b 293d
00000110: 6d97 053d d921 963d 47a5 8fbd ad3d 38bd
00000120: a0d4 ff3c d25e 42bd f8b4 493d 9477 98bc
00000130: f313 d63c 2ee9 5bbb f007 4a3d 67ff 44bd
00000140: f0d7 d8bc 4f49 a7bd 2d91 38bd 09f6 6b3d
00000150: 246c 7bbd 3edc 6abb 9876 20b9 064d 433d
00000160: 626f 6bbb 4466 213d e0ce 8cbd 097e 293d
00000170: b3af a83b 9bfc 2a3d b87b 5c3d b661 6f3c
00000180: 3280 523d 9457 0dbd e34f e9bc e31e 41bd
00000190: 08c3 1abc c65a 023d 8589 8a3d b364 01bd
000001a0: 47ca 9e3d c60f 493d 4807 25bd ad54 973d
000001b0: 3a17 343d f4a7 90bd 011c 273d 460b a33c
000001c0: f38b 923d 305d 663d 5291 9b3b fa31 353d
000001d0: 8cdd 3bbd 6040 3abb 2887 a3bd 6aab 503d
000001e0: 28fa 77bd 6074 543b 6083 e83c fb3c 5bbd
000001f0: 7c71 96bc a7da 79bc 5073 29bd f43a fcbc
00000200: 2bbf 97bd 2ce1 aa3c 4376 12bd 42d8 94bd
00000210: 2bdb 36bd 3705 5b3d a664 d5bc 381d 743c
00000220: 0009 86bd 50cf efbb 2a49 ae3d ae0e 023d
00000230: 0cad a93d bc69 d53c 3802 9ebd 8e3a 21bd
00000240: 1b03 3abd 787c 0cbc b16a 843d 6aa6 7b3d
00000250: c8a6 41bd 3352 963d da83 a3bd 310a a83d
00000260: f176 8c3d 6059 01bd 43b4 4fbd b717 8b3d
00000270: 9a98 2e3d 80b4 10bb 38dc 70bc ab42 4fbd
00000280: 7437 89bc 4ef3 703d bbc8 33bd d096 e03c
00000290: aa50 4c3d 901b 40bd ce9d 61bd a08d b63c
000002a0: 06c9 bdbc ab57 8dbd ed4a 9d3d b900 a73d
000002b0: 8975 a93d e09a 4ebb 7867 36bd 37d0 a13d
000002c0: 9842 7abc 95eb a33d 2253 85bd c05d c3ba
000002d0: 11be a93d 9120 893d 52b8 313d 76d6 7ebd
000002e0: d398 a3bd aa0c 9abd 8368 803d 6036 7ebb
000002f0: 20b3 4b3b b7d2 83bd aa1c 243d e1b9 9e3d
00000300: db72 01bd 68e1 53bd 1832 003c 0080 6fb9
00000310: e2d6 83bd dc54 9bbc abb0 a03d 9f60 9dbd
00000320: bef9 523d 90db f33b 24f9 a3bc b834 6ebc
00000330: 46f6 333d 9ed5 773d c81d 0f3c 803e fabc
00000340: 3061 8e3c 1aba 413d 0040 25ba 4049 063c
00000350: 2d38 823d c859 7e3c 6072 49bc ba77 583d
00000360: 7aa3 3a3d 8e15 70bd de8b 7dbd f68b 3ebd
00000370: 0e2e a0bd 8476 97bc f049 ebbc 7020 ff3b
00000380: 4f83 90bd 0280 213d bc64 e63c 9678 e8bc
00000390: 870c 81bd 7263 3e3d 86f3 27bd 6895 71bd
000003a0: 3661 243d 59af a53d 333f 73bd 22f5 8fbd
000003b0: ef0f a43d 4248 253d b063 a2bc 70f0 e93b
000003c0: 20e7 e23c 8670 6fbd 6601 8fbd 1456 a3bc
000003d0: c075 4bbd a025 013d 2e27 603d 1a5f 1c3d
000003e0: f03a e5bc c0bb 033c fe86 4f3d 7734 97bd
000003f0: 5e85 013d 9485 95bc b0f9 b73b abfb 25bd

decoder.0.bias f4 [16]
-0.042620055 0.05058783 0.04479127 -0.0011724175 -0.035102963 -0.024554256 -0.019747566 0.044654988
0.055076044 0.032370076 0.0614582 -0.08542118 0.02599458 -0.053074062 -0.034215175 -0.0017729818
00000000: 5e92 2ebd 2f35 4f3d 0d77 373d ceab 99ba
00000010: 20c8 0fbd 0226 c9bc a6c5 a1bc 26e8 363d
00000020: 6b97 613d 7c96 043d 98bb 7b3d 4df1 aebd
00000030: 96f2 d43c 3064 59bd 3625 0cbd 6663 e8ba

decoder.2.weight f4 [16, 1, 3, 3]
0.2569606 -0.14762701 0.29371226 -0.08588413 0.25677896 -0.16089636 0.048105218 -0.26647562
0.24546656 0.11031564 0.11166788 0.08693805 0.09800393 0.07695191 -0.055066258 0.25669506
-0.3038619 0.0052573993 0.020113997 0.1670432 -0.30636746 -0.3040717 -0.13394578 0.32140425
0.03135964 -0.2077689 -0.17257798 -0.29705596 -0.0684842 0.15090439 -0.22596632 -0.027782677
0.29709312 0.31465015 0.13826126 0.25987855 0.026733667 -0.116882116 -0.12487635 -0.31505662
0.32919052 -0.27264628 -0.09555638 0.13407987 -0.17361169 0.22810723 -0.31329957 0.018948827
-0.18510666 -0.28623873 0.15434493 0.004256346 -0.23508309 -0.23548763 -0.28214625 -0.019228134
-0.2633938 -0.028847035 0.13717917 -0.15108255 0.11491401 -0.31765985 0.11859196 -0.2963465
0.16901428 -0.18886077 -0.33320105 -0.26721978 0.08921808 0.15410167 -0.12341925 0.19890971
-0.076731004 0.11488675 -0.22345538 -0.042349044 0.10359413 0.12085178 -0.30948988 0.049537033
0.06625924 -0.26532742 -0.015812647 -0.26784074 0.29910523 0.04643734 -0.05185285 0.11883852
-0.32218572 0.17852113 0.29894862 0.2560813 0.013696853 0.054788735 -0.022450315 -0.21928164
-0.27599242 -0.120835945 -0.11719992 0.16885155 0.011249864 0.10368428 0.10510661 0.03243518
-0.23668449 -0.098703556 0.32766533 0.17055036 -0.022043202 0.24939217 -0.20438445 -0.24603508
0.052241553 -0.060392693 0.20792268 -0.090007976 0.17870304 -0.30149725 0.027973404 -0.29932368
0.016689211 -0.009097757 -0.044375733 0.27773958 -0.14435242 -0.16085064 -0.26732087 -0.11925427
0.09353453 -0.26121017 -0.003653045 -0.06299695 0.14556617 0.10922757 -0.20962936 -0.1737194
-0.10588561 -0.14698413 0.12048421 0.07896918 -0.12123728 -0.31187335 0.25024506 -0.24289039
00000000: 5790 833e 892b 17be 7461 963e 05e4 afbd
00000010: 8878 833e 04c2 24be fa09 453d 7e6f 88be
00000020: 965b 7b3e 2bed e13d 21b2 e43d 940c b23d
00000030: 49b6 c83d f798 9d3d 288d 61bd 896d 833e
00000040: c993 9bbe 4346 ac3b 1cc6 a43c 5f0d 2b3e
00000050: 32dc 9cbe 49af 9bbe 1529 09be 198f a43e
00000060: f772 003d 5fc1 54be 48b8 30be b817 98be
00000070: 7241 8cbd ae86 1a3e b763 67be 7f98 e3bc
00000080: 971c 983e d319 a13e 5c94 0d3e cd0e 853e
00000090: 9000 db3c e45f efbd 2cbf ffbd 1a4f a1be
000000a0: a98b a83e 4b98 8bbe 10b3 c3bd 3c4c 093e
000000b0: 43c7 31be f194 693e cd68 a0be 923a 9b3c
000000c0: 9a8c 3dbe e28d 92be 990c 1e3e d178 8b3b
000000d0: 9fb9 70be ab23 71be 7975 90be 5284 9dbc
000000e0: 8ddb 86be 9e50 ecbc b278 0c3e 62b5 1abe
000000f0: 0958 eb3d 50a4 a2be 57e0 f23d baba 97be
00000100: 1412 2d3e b864 41be 5499 aabe 08d1 88be
00000110: f8b7 b63d d4cc 1d3e 3bc3 fcbd fdae 4b3e
00000120: 2525 9dbd bf49 eb3d 7dd1 64be 3176 2dbd
00000130: 2929 d43d 2381 f73d 7575 9ebe 58e7 4a3d
00000140: edb2 873d ffd8 87be 8689 81bc 6c22 89be
00000150: 5224 993e 1535 3e3d a763 54bd 9c61 f33d
00000160: 87f5 a4be 3ece 363e cb0f 993e 171d 833e
00000170: c468 603c 276a 603d b9e9 b7bc 5e8b 60be
00000180: e14e 8dbe d678 f7bd 8306 f0bd 6ce7 2c3e
00000190: 5951 383c 6c58 d43d 2242 d73d c0da 043d
000001a0: 6b5d 72be 1725 cabd c0c3 a73e c1a4 2e3e
000001b0: f293 b4bc a960 7f3e 284a 51be 9ff0 7bbe
000001c0: 3dfb 553d 545e 77bd afe9 543e 1a56 b8bd
000001d0: eefd 363e d95d 9abe 7b28 e53c f440 99be
000001e0: d0b7 883c c20e 15bc 54c3 35bd e233 8e3e
000001f0: 1fd1 13be 08b6 24be 48de 88be 953b f4bd
00000200: 088f bf3d 57bd 85be ed67 6fbb 8b04 81bd
00000210: 4c0f 153e b4b2 df3d 14a9 56be 80e3 31be
00000220: 8eda d8bd 0283 16be 6dc0 f63d 98ba a13d
00000230: 404b f8bd ddad 9fbe 1f20 803e 42b8 78be
