checkpoints/epoch_17.pth (torch, 24780 bytes, 7 tensors)

encoder.0.weight f4 [16, 1, 1, 1]
-0.4991461 0.9936107 -0.9666286 -0.8924188 -0.72558546 0.36153615 0.074732 0.92436737
-0.6648247 0.44523248 0.03676335 0.56383 -0.942005 -0.039423585 -0.66355765 -0.424371
00000000: 1490 ffbe 455d 7e3f f974 77bf 8f75 64bf
00000010: f8bf 39bf 441b b93e 170d 993d 57a3 6c3f
00000020: f431 2abf 83f5 e33e 2b95 163d 2a57 103f
00000030: 3d27 71bf a07a 21bd eade 29bf 2847 d9be

encoder.0.bias f4 [16]
-0.67483246 0.79557115 0.4421304 0.14040159 -0.14565992 0.84403723 0.48286393 -0.6424012
-0.74796546 0.5993494 0.60660064 0.7178278 0.4758639 -0.034612417 -0.33647633 -0.41498053
00000000: d2c1 2cbf 8daa 4b3f ea5e e23e 6fc5 0f3e
00000010: e027 15be d312 583f f139 f73e 6874 24bf
00000020: aa7a 3fbf f66e 193f 2e4a 1b3f 90c3 373f
00000030: 6fa4 f33e c0c5 0dbd a046 acbe 5478 d4be

encoder.2.weight f4 [32, 16, 1, 1]
0.089577615 -0.11213455 -0.021367148 0.044032082 -0.011747837 0.22210363 -0.20395246 -0.099760465
-0.020548463 -0.11944462 0.018661633 0.17764536 0.04409326 0.07750249 -0.05309987 0.009245396
-0.18904081 0.23187718 -0.24970874 -0.17831028 -0.11027503 -0.24979088 -0.22049496 -0.21072492
0.036599755 -0.04874587 -0.19211218 0.10054177 0.06468651 0.09756634 -0.065054744 0.1434645
0.1601946 -0.09118092 -0.017231613 -0.19411162 0.09524548 0.014641076 -0.1655244 -0.1476242
-0.12935764 0.008902341 -0.16602823 0.066155106 -0.24581206 -0.014391124 -0.21692026 -0.17941001
0.08110088 0.03332308 -0.16471301 -0.16163349 0.052980423 0.10925179 0.23699427 -0.14273082
0.030219078 0.18790191 0.22008121 0.03133611 0.066778466 -0.1123434 0.24187937 0.060190707
-0.002445072 0.17585681 0.028107222 0.025552562 -0.07060355 -0.17625393 0.25427562 -0.218388
-0.24590036 0.21551809 -0.15813035 -0.09154922 0.21847466 0.008120835 0.08560738 0.16892427
-0.01221472 -0.09252939 -0.24874416 -0.11386064 -0.020011246 0.03827268 -0.23784244 0.168302
-0.011927336 -0.21364218 -0.24040413 0.14102527 0.10641602 0.18871957 0.15568292 0.08908588
0.06606278 0.10386313 0.23220888 0.07228549 -0.23133904 0.14536068 -0.14789774 0.12856062
-0.11577374 0.061378215 0.2353257 0.115307234 0.035820033 0.118572414 0.24019358 -0.10695207
-0.017760783 -0.15190351 -0.024333477 0.24409226 -0.1415981 -0.066604644 -0.18631062 0.15321574
-0.13986856 0.021517426 -0.18354297 -0.026358783 -0.090347946 -0.21651664 0.09306827 0.17270765
-0.1738405 -0.16451111 -0.14373517 -0.17696048 0.021382242 0.2028296 0.05760424 0.061049744
-0.22136801 0.13326839 -0.11568079 0.19269298 0.050652385 0.20888448 0.09693879 -0.1080783
0.21084377 -0.06689165 0.15749311 -0.04308413 0.20805418 0.2767493 0.19735123 -0.16474277
-0.1831927 0.27409545 -0.047272153 -7.924123e-05 0.032704365 -0.23760241 -0.13825563 -0.20861259
0.22310662 -0.02893594 0.21609828 -0.035399884 0.14199218 0.08292234 -0.105131865 -0.20192379
0.08205348 0.07042083 0.1481928 -0.23702708 0.011906773 0.09342027 0.19786227 0.24516839
-0.17052805 -0.04773317 0.12526132 -0.16269746 0.023378551 0.23496138 -0.09335668 -0.18357038
0.1920566 0.034492347 0.22147702 -0.06847218 0.097720906 -0.105749756 0.02546236 -0.18847871
0.14195365 0.19121532 0.12761095 0.20943576 0.021585673 0.013087685 0.17951609 0.06716169
0.17102847 -0.14270072 -0.08696242 0.25337496 0.21645795 0.21091706 -0.24146983 0.07711792
-0.20293018 -0.09394642 -0.093208075 0.009959119 -0.15926626 0.14333043 -0.14719541 -0.2137379
0.09647703 0.2867002 0.28149182 0.22916259 0.09573291 -0.08504614 -0.15846664 -0.21105772
0.015915185 0.09650907 0.061265618 -0.2110784 0.0063978434 0.092322946 -0.2399745 -0.0753012
-0.16676536 -0.19792956 -0.21873733 0.15777475 0.23521432 -0.07816541 -0.17810002 -0.122118086
-0.0017074347 0.15980555 0.12877835 0.23738112 0.02984029 -0.10822157 0.010382141 0.22500576
0.10064936 -0.0627337 0.087583035 0.26469454 -0.15008573 -0.0020329058 -0.20440936 -0.15677604
00000000: 7874 b73d cda6 e5bd 280a afbc fc5a 343d
00000010: 007a 40bc 226f 633e ead8 50be 374f ccbd
00000020: 4055 a8bc 629f f4bd 48e0 983c aae8 353e
00000030: 229b 343d a0b9 9e3d 407f 59bd 007a 173c
00000040: ea93 41be 3671 6d3e a6b3 7fbe f896 36be
00000050: e0d7 e1bd 2ec9 7fbe 6ec9 61be 46c8 57be
00000060: a0e9 153d c0a9 47bd 0eb9 44be d8e8 cd3d
00000070: 5c7a 843d dcd0 c73d 6c3b 85bd 5ce8 123e
00000080: 0e0a 243e 10bd babd 5029 8dbc 32c5 46be
00000090: 1010 c33d 20e1 6f3c 3a7f 29be cc2a 17be
000000a0: 5476 04be 20db 113c 4e03 2abe 547c 873d
000000b0: 28b6 7bbe c0c8 6bbc 5820 5ebe 42b7 37be
000000c0: 3818 a63d c87d 083d 87aa 28be 4083 25be
000000d0: 0002 593d 67bf df3d a0ae 723e 0728 12be
000000e0: 008e f73c 5c69 403e f85c 613e 4b5a 003d
000000f0: 26c3 883d 4c14 e6bd 3aaf 773e 888a 763d
00000100: 803d 20bb cf13 343e 1e41 e63c 9b53 d13c
00000110: 9898 90bd e97b 34be 6a30 823e 1ba1 5fbe
00000120: 4ecd 7bbe c6b0 5c3e ecec 21be 287e bbbd
00000130: d2b7 5f3e 400d 053c ec52 af3d 7cfa 2c3e
00000140: 4020 48bc 0c80 bdbd cab6 7ebe c42f e9bd
00000150: a0ee a3bc d0c3 1c3d f88c 73be 5c57 2c3e
00000160: e06a 43bc 04c5 5abe 802c 76be ee68 103e
00000170: a4f0 d93d b43f 413e 586b 1f3e a872 b63d
00000180: ec4b 873d 31b6 d43d 2ac8 6d3e 6a0a 943d
00000190: 24e4 6cbe 6ed9 143e 8172 17be 65a5 033e
000001a0: c81a edbd b967 7b3d 38f9 703e 3326 ec3d
000001b0: 07b8 123d 18d6 f23d 4ef5 753e b009 dbbd
000001c0: 107f 91bc 988c 1bbe 0057 c7bc 52f3 793e
000001d0: 18ff 10be 0468 88bd 36c8 3ebe 96e4 1c3e
000001e0: b439 0fbe 5045 b03c b0f2 3bbe 60ee d7bc
000001f0: 5808 b9bd 8ab6 5dbe 949a be3d 46da 303e
00000200: 3e03 32be 9a75 28be 502f 13be 2135 35be
00000210: d029 af3c 90b2 4f3e 6cf2 6b3d 4c0f 7a3d
00000220: 4cae 62be 8277 083e 0dea ecbd 4f51 453e
00000230: e078 4f3d d0e5 553e d887 c63d 2858 ddbd
00000240: 6ee7 573e 7dfe 88bd e045 213e fc78 30bd
00000250: 280c 553e 16b2 8d3e 7116 4a3e 54b2 28be
00000260: de96 3bbe 3d56 8c3e 72a0 41bd 502e a6b8
00000270: 03f5 053d 0c4e 73be e292 0dbe 8a9e 55be
00000280: 1076 643e 100b edbc de48 5d3e 78ff 10bd
00000290: 6666 113e 30d3 a93d 604f d7bd 1cc5 4ebe
000002a0: a80b a83d cc38 903d dabf 173e 3ab7 72be
000002b0: a014 433c 2053 bf3d 689c 4a3e 6c0d 7b3e
000002c0: e89e 2ebe db83 43bd 8144 003e 2a9a 26be
000002d0: 6084 bf3c b799 703e c931 bfbd e0f9 3bbe
000002e0: 7caa 443e d947 0d3d dfca 623e 243b 8cbd
000002f0: e621 c83d 5493 d8bd 7096 d03c 9000 41be
00000300: 4c5c 113e f3cd 433e 72ac 023e 5476 563e
00000310: 70d4 b03c bb6d 563c 11d3 373e 118c 893d
00000320: 1622 2f3e 2320 12be 5a19 b2bd 5dba 813e
00000330: 27a7 5d3e a4fa 573e de43 77be 00f0 9d3d
00000340: eecc 4fbe fb66 c0bd e0e3 bebd 932b 233c
00000350: b216 23be 36c5 123e 65ba 16be 1cde 5abe
00000360: c095 c53d 5eca 923e b21f 903e 99a9 6a3e
00000370: 9e0f c43d ac2c aebd 1445 22be 841f 58be
00000380: 9060 823c 8ca6 c53d a8f1 7a3d f024 58be
00000390: 00a5 d13b d013 bd3d e0bb 75be 8437 9abd
000003a0: 8ac4 2abe 0cae 4abe aefc 5fbe b48f 213e
000003b0: 06dc 703e 3015 a0bd da5f 36be 0c19 fabd
000003c0: 00cc dfba 11a4 233e 79de 033e 0914 733e
000003d0: a073 f43c 45a3 ddbd db19 2a3c e967 663e
000003e0: 4021 ce3d 877a 80bd bc5e b33d 0b86 873e
000003f0: 13b0 19be 803a 05bb b050 51be e689 20be

encoder.2.bias f4 [32]
0.26930955 -0.0056290925 0.08271107 -0.10493452 0.050113298 0.09759878 -0.1300798 0.26539332
0.07553803 -0.13041154 -0.058111846 0.23600043 0.25738245 0.2276274 -0.16702831 0.13144007
0.123350136 -0.02082342 -0.06283024 -0.15093215 0.02145646 -0.047180947 0.12229313 -0.18357822
0.2541855 0.039855614 -0.22612959 0.17828265 -0.08190128 -0.22454152 -0.23164058 -0.06501485
00000000: f1e2 893e 4074 b8bb 6c64 a93d e9e7 d6bd
00000010: 9a43 4d3d dfe1 c73d a433 05be a2e1 873e
00000020: afb3 9a3d 9a8a 05be b006 6ebd 19aa 713e
00000030: a2c7 833e 2817 693e 7809 2bbe 3a98 063e
00000040: ff9e fc3d e095 aabc 24ad 80bd f58d 1abe
00000050: 75c5 af3c cf40 41bd d274 fa3d eefb 3bbe
00000060: 9a24 823e a43f 233d 848e 67be ba8f 363e
00000070: dcbb a7bd 36ee 65be 3033 6dbe 8126 85bd

decoder.0.weight f4 [32, 16, 3, 3]
-0.016933888 0.0031964632 -0.043254755 0.0034614166 -0.08791477 -0.054106846 -0.06894842 0.0063707978
-0.061481636 -0.016019244 -0.016744751 -0.0415821 0.07499925 0.11232178 0.05351291 0.055998404
0.077213235 0.097649455 -0.03888599 -0.07490337 -0.00603304 -0.06460049 -0.02574446 0.075613625
-0.046336755 0.022651352 -0.020077812 -0.04245304 -0.032827795 0.057070404 -0.03782185 -0.08208348
0.02483777 0.010801241 -0.014321029 0.00093693414 0.023461156 -0.05359721 -0.06696221 0.069939025
-0.049791228 -0.016891383 -0.021827005 -0.023174774 -0.076852106 -0.008538849 0.020330757 0.05720735
0.048829958 -0.048412155 -0.07676655 -0.05369407 0.0023831853 0.057753436 -0.08827722 -0.08366111
0.02760474 -0.04781518 0.03193828 0.045375224 0.046564933 -0.0551194 -0.012196449 0.030683674
-0.04487417 0.047430463 0.07103617 0.06676098 0.08434543 -0.078673355 0.06754068 0.005955249
-0.059288256 0.029195335 -0.005528234 0.03808106 -0.013120912 0.008495976 0.02737891 0.08285289
0.005057819 0.05839769 -0.021545133 -0.03418804 -0.009958898 0.03424015 -0.042687934 0.08214341
0.031608153 0.105925165 -0.023876484 0.025626928 0.016536197 0.0047394526 0.086594254 0.08686703
0.031973 -0.05955171 0.06803118 0.049202546 0.06092585 0.041498546 0.023227535 -0.03583488
-0.00094551203 -0.048844896 -0.04005719 0.029332727 -0.023522306 -0.07972752 0.0076110438 0.022913635
0.006389983 -0.065003514 0.06900576 0.05639226 -0.027168447 0.03921501 0.11596499 0.102024704
0.1006397 -0.07028124 0.029557679 0.0067974958 0.07131114 0.04753169 0.09010732 0.07982913
-0.020243859 -0.046481036 -0.03947953 -0.024096908 0.08144308 0.010671744 0.01474011 -0.05646447
-0.030060818 -0.015849518 0.03172675 0.07388086 0.06632894 -0.08279751 -0.006943421 -0.06269583
0.08007934 0.038988568 0.01610718 0.053288184 0.013832368 0.054850914 0.0361389 -0.021683209
0.07848171 0.023481704 -0.019552656 -0.0019631162 -0.010394752 0.018292636 0.07438526 0.07712317
0.049303062 0.02627647 -0.060658377 -0.028518885 -0.07101691 0.045785703 0.033024706 -0.055789948
-0.031426907 -0.027255606 0.07581761 0.0479443 0.037915133 0.06574566 -0.07776113 -0.052115202
-0.03662338 -0.005393684 0.036689483 0.050451912 0.07389454 -0.032143615 0.04079681 -0.029027425
-0.07929903 0.047640614 -0.07862727 -0.0807498 -0.07977023 -0.07794304 -0.0025836825 0.0057069957
0.047921963 0.061228476 0.04817281 0.08041043 0.063595094 -0.0563534 0.055989124 0.0070769116
-0.07129566 0.0061553717 0.038179748 -0.020567209 0.047631986 -0.008421265 -0.050471764 0.07935237
0.057139046 -0.06247452 0.0072516277 0.017938606 -0.02842924 0.06458122 0.060852252 0.055558465
0.040045135 0.081633456 -0.020957232 0.008358829 0.024440654 0.01528164 -0.020750098 0.020272136
-0.040537767 -0.04989054 -0.05605357 -0.007952683 0.06125524 -0.08192038 0.04756277 -0.054589342
-0.067025855 0.078039564 -0.039473712 -0.049232513 0.04937438 -0.070874415 -0.031454086 0.06239403
0.036883414 0.07878912 0.07290014 0.00115823 -0.027685277 -0.07148116 0.029627465 0.053060316
-0.053886674 -0.013828628 -0.059237234 -0.042602293 -0.051593505 -0.07804799 -0.057920687 0.03166399
00000000: f0b8 8abc c17b 513b e62b 31bd efd8 623b
00000010: a90c b4bd 249f 5dbd d434 8dbd 20c2 d03b
00000020: 2bd4 7bbd ca3a 83bc 4a2c 89bc fe51 2abd
00000030: 3599 993d f608 e63d 5a30 5b3d 955e 653d
00000040: f921 9e3d 70fc c73d ea46 1fbd f066 99bd
00000050: cfb0 c5bb 434d 84bd 0ce6 d2bc 51db 9a3d
00000060: 9ccb 3dbd 548f b93c 397a a4bc 3de3 2dbd
00000070: 7076 06bd a8c2 693d 16eb 1abd 621b a8bd
00000080: 9478 cb3c b0f7 303c c0a2 6abc 969c 753a
00000090: 9c31 c03c c088 5bbd 7c23 89bd 313c 8f3d
000000a0: e3f1 4bbd cc5f 8abc 8cce b2bc 06d9 bdbc
000000b0: a364 9dbd 87e6 0bbc b08c a63c 4152 6a3d
000000c0: ec01 483d d34b 46bd c837 9dbd 50ee 5bbd
000000d0: 372f 1c3b de8e 6c3d b0ca b4bd 8456 abbd
000000e0: 5623 e23c dad9 43bd b7d1 023d 5fdb 393d
000000f0: dfba 3e3d e1c4 61bd 9dd3 47bc 545c fb3c
00000100: facd 37bd 7246 423d 697b 913d fbb9 883d
00000110: 4cbd ac3d 7f1f a1bd c552 8a3d 4024 c33b
00000120: 3ed8 72bd 0e2b ef3c 3026 b5bb e3fa 1b3d
00000130: 18f9 56bc b532 0b3c bc49 e03c c7ae a93d
00000140: 10bc a53b 6b32 6f3d 6b7f b0bc c208 0cbd
00000150: a52a 23bc 663f 0c3d 8bd9 2ebd ce3a a83d
00000160: 8d77 013d 4bef d83d 9e98 c3bc 90ef d13c
00000170: eb76 873c 694d 9b3b 5458 b13d 57e7 b13d
00000180: 1ff6 023d 7eec 73bd ee53 8b3d 9c88 493d
00000190: 628d 793d 61fa 293d ac47 be3c 98c7 12bd
000001a0: 3ddc 77ba 9611 48bd 0213 24bd 304b f03c
000001b0: dab1 c0bc 2f48 a3bd 1066 f93b 60b5 bb3c
000001c0: 1063 d13b 9020 85bd e452 8d3d 92fb 663d
000001d0: 5d90 debc eb9f 203d 0d7f ed3d 54f2 d03d
000001e0: 301c ce3d 9cef 8fbd f222 f23c 87bd de3b
000001f0: 930b 923d 97b0 423d 308a b83d 747d a33d
00000200: 73d6 a5bc e662 3ebd 4ab5 21bd e166 c5bc
00000210: a1cb a63d 8ad8 2e3c 8180 713c 4a47 67bd
00000220: 1b42 f6bc d9d6 81bc e9f3 013d d94e 973d
00000230: 78d7 873d be91 a9bd a385 e3bb ac66 80bd
00000240: a300 a43d 7ab2 1f3d 34f3 833c b644 5a3d
00000250: 28a1 623c 5aab 603d 6206 143d fca0 b1bc
00000260: 05bb a03d b45c c03c e42c a0bc a0a7 00bb
00000270: c04e 2abc 70da 953c 4d57 983d c1f2 9d3d
00000280: 02f2 493d c041 d73c eb74 78bd 70a0 e9bc
00000290: 5071 91bd ca89 3b3d ea44 073d 0084 64bd
000002a0: 80b9 00bd 2647 dfbc 4346 9b3d 3e61 443d
000002b0: e64c 1b3d a9a5 863d 3a41 9fbd c076 55bd
000002c0: 6602 16bd 80bd b0bb b647 163d aaa6 4e3d
000002d0: 0556 973d 06a9 03bd 8e1a 273d ecca edbc
000002e0: 8867 a2bd ce22 433d 5607 a1bd 2760 a5bd
000002f0: 935e a3bd 9aa0 9fbd 0053 29bb c001 bb3b
00000300: d249 443d b6ca 7a3d da50 453d 39ae a43d
00000310: 253e 823d d3d2 66bd da54 653d 70e5 e73b
00000320: 7603 92bd 00b3 c93b 5e62 1c3d 907c a8bc
00000330: c219 433d 58f9 09bc 7bbb 4ebd 7f83 a23d
00000340: a20a 6a3d 48e5 7fbd 109f ed3b fcf3 923c
00000350: 70e4 e8bc 2943 843d 3640 793d 4691 633d
00000360: 5e06 243d 712f a73d 80ae abbc 78f3 083c
00000370: c437 c83c d85f 7a3c 1cfc a9bc c011 a63c
00000380: ee0a 26bd 065a 4cbd 6e98 65bd f84b 02bc
00000390: c6e6 7a3d dfc5 a7bd 2ed1 423d 1399 5fbd
000003a0: da44 89bd 35d3 9f3d 30af 21bd 08a8 49bd
000003b0: ca3c 4a3d 9b26 91bd 00d6 00bd e290 7f3d
000003c0: 1013 173d 315c a13d ab4c 953d c0cf 973a
000003d0: 3ccc e2bc b764 92bd 4cb5 f23c c655 593d
000003e0: 46b8 5cbd 7891 62bc bea2 72bd be7f 2ebd
000003f0: b653 53bd a0d7 9fbd 3e3e 6dbd 1ab2 013d

decoder.0.bias f4 [16]
0.06508445 0.055751815 -0.06310699 -0.06332169 -0.052622765 -0.0010340504 0.049855858 0.0016015099
-0.03291659 0.083652265 -0.01143822 0.03004715 -0.034454864 0.041967258 0.058923025 -0.015889414
00000000: ff4a 853d 045c 643d 3d3e 81bd cdae 81bd
00000010: f88a 57bd f988 87ba a835 4c3d c1e9 d13a
00000020: 8cd3 06bd e151 ab3d 5f67 3bbc 7125 f63c
00000030: 8b20 0dbd dce5 2b3d 4559 713d 842a 82bc

decoder.2.weight f4 [16, 1, 3, 3]
0.22091053 0.037651036 -0.071285896 -0.2505566 0.30303338 0.31460693 0.011222328 0.2729876
-0.07407513 0.20498733 -0.27790412 -0.110801876 -0.29770917 -0.018402971 -0.08098368 -0.10393357
-0.13917169 0.012700858 0.23714714 0.2965498 -0.0058242404 0.046277687 0.037904285 -0.34672886
-0.19450672 0.020354798 0.14939691 -0.11477742 -0.13394633 0.23156132 0.12778296 -0.06951903
0.31571588 0.09003599 0.30256003 -0.20899403 -0.20288937 -0.3307422 0.21001384 0.12328151
-0.21446025 0.017300576 0.02315846 -0.140519 -0.04132542 0.086106986 -0.30755144 0.0006689906
-0.1434277 0.19973503 0.08539125 0.30085507 -0.08250628 -0.09837633 0.0059375963 0.09630514
-0.21103962 0.18451776 -0.04377131 0.22697377 -0.29748714 0.10985833 0.036456835 -0.3536493
0.07601418 -0.09248016 0.06823661 -0.045031354 0.12359444 -0.3344413 -0.10741115 -0.2568072
-0.29711226 -0.094686344 0.054596666 0.20171337 -0.2709639 0.14377046 -0.09055491 -0.27145863
0.012957622 -0.28490606 -0.20978254 -0.28444284 0.1298186 -0.122278616 -0.075084105 0.059520867
-0.09414627 0.10618411 0.04414255 -0.12832052 -0.30686325 -0.22605167 -0.19450888 -0.06176626
0.22760305 0.16105348 0.0070947744 0.033652265 0.31483915 0.05883313 0.24478288 -0.110542476
-0.23874564 0.13312802 -0.18451141 -0.12993094 0.08176994 0.3276689 -0.21886961 0.31383514
-0.25303343 0.13656262 -0.059298202 -0.20966369 0.25716764 -0.0556141 0.033702064 -0.104686975
0.121149324 -0.22760615 -0.24060605 -0.29250076 0.07020962 0.19706747 -0.086667985 -0.022163976
-0.13217288 -0.12348394 -0.045905523 -0.29211637 -0.25728625 -0.062013015 -0.059261534 0.10533365
0.29748103 -0.30591127 0.19060531 0.30104837 -0.038294613 -0.14232403 0.11814225 -0.043544438
00000000: 5f36 623e f937 1a3d 57fe 91bd f448 80be
00000010: 3127 9b3e 2914 a13e dbdd 373c 08c5 8b3e
00000020: b4b4 97bd 33e8 513e 7349 8ebe 18ec e2bd
00000030: 566d 98be d4c1 96bc c6da a5bd 20db d4bd
00000040: 0683 0ebe 4217 503c b3d6 723e 60d5 973e
00000050: 45d9 bebb ac8d 3d3d 8641 1b3d 7286 b1be
00000060: c52c 47be 1bbf a63c 81fb 183e 6d10 ebbd
00000070: 3a29 09be 691e 6d3e 89d9 023e fe5f 8ebd
00000080: 83a5 a13e ca64 b83d 26e9 9a3e 8802 56be
00000090: 3bc2 4fbe 0b57 a9be de0d 573e 047b fc3d
000000a0: 789b 5bbe f0b9 8d3c d0b6 bd3c 36e4 0fbe
000000b0: d844 29bd dc58 b03d 6277 9dbe 335f 2f3a
000000c0: b6de 12be 5787 4c3e 9ce1 ae3d ad09 9a3e
000000d0: 0df9 a8bd 8879 c9bd 2b90 c23b a13b c53d
000000e0: c51a 58be 39f2 3c3e 8c49 33bd d06b 683e
000000f0: 3c50 98be 67fd e03d c353 153d 8511 b5be
00000100: 53ad 9b3d 3d66 bdbd a3bf 8b3d cc72 38bd
00000110: 151f fd3d e43b abbe 61fa dbbd 3c7c 83be
00000120: 191f 98be eaea c1bd c1a0 5f3d f38d 4e3e
00000130: c8bb 8abe 9038 133e da74 b9bd a0fc 8abe
00000140: 354c 543c 35df 91be 3cd1 56be 7ea2 91be
00000150: 2bef 043e 366d fabd b2c5 99bd 27cc 733d
00000160: c2cf c0bd 0e77 d93d d2ce 343d 7466 03be
00000170: 2e1d 9dbe 177a 67be 562d 47be 9efe 7cbd
00000180: c610 693e 34eb 243e 487b e83b f5d6 093d
00000190: 9932 a13e 02fb 703d 5da8 7a3e 1864 e2bd
000001a0: bd79 74be b652 083e 8ff0 3cbe 9e0c 05be
000001b0: 0077 a73d 38c4 a73e 5b1f 60be 00af a03e
000001c0: 998d 81be 12d7 0b3e ace2 72bd 14b2 56be
000001d0: 7aab 833e 9ccb 63bd 2d0b 0a3d 2066 d6bd
000001e0: 231d f83d 9611 69be 6f61 76be a9c2 95be
000001f0: 10ca 8f3d 0ecc 493e fc7e b1bd 3a91 b5bc
00000200: 5458 07be 26e5 fcbd 6e07 3cbd 4790 95be
00000210: 06bb 83be 5c01 7ebd 39bc 72bd 2bb9 d73d
00000220: 6f4f 983e 67a0 9cbe 0a2e 433e 0323 9a3e
00000230: d0da 1cbd 64bd 11be 90f4 f13d a75b 32bd
