checkpoints/epoch_7.pth (torch, 24320 bytes, 7 tensors)

encoder.0.weight f4 [16, 1, 1, 1]
000000 7a 9e 38 bf 00 8f da 3b 5c b9 21 3f 35 46 66 3e
       -0.72116816 0.006669879 0.6317346 0.2248772
000010 b8 10 5f bf 26 de 65 3f d0 8e 52 bf 0c 01 47 3f
       -0.87134886 0.89792097 -0.82249165 0.7773597
000020 05 cd 8e 3e f3 26 0c 3f 91 bb 5c bf 3a c6 1e 3f
       0.27890792 0.5474693 -0.86223704 0.6202122
000030 d8 d0 1a bf a0 17 12 bf 34 4e a8 be d7 d6 1a bf
       -0.6047492 -0.570673 -0.32872164 -0.6048407

encoder.0.bias f4 [16]
000000 ca 94 39 bf 96 19 35 bf e1 75 dc be f6 1e 7e 3f
       -0.7249266 -0.70742166 -0.43058684 0.9926599
000010 6e e7 3c bf b6 02 31 3d d8 5d 8c be 46 c0 91 be
       -0.73790634 0.043215476 -0.27415347 -0.28467005
000020 6c ed 27 3f bc 5a a5 bd 56 59 0a 3f ce af 5c 3f
       0.6559665 -0.08073947 0.54042566 0.86205757
000030 b4 d2 ba be b4 a0 cb be 24 c0 a0 be 60 34 fc 3e
       -0.3648888 -0.39771044 -0.31396592 0.4925871

encoder.2.weight f4 [32, 16, 1, 1]
000000 50 64 8b 3d 74 10 31 be 10 b8 6c 3d 68 b5 52 be
       0.068062425 -0.17291433 0.057792723 -0.20577013
000010 90 cd a0 3c 4a ac 0c 3e 08 59 df 3d 6c 55 e3 bd
       0.01962927 0.13737598 0.10905653 -0.11100277
000020 ec bf d7 bd 84 af ea 3d 90 e3 7a 3d 0a e2 35 be
       -0.10534653 0.11459258 0.061252177 -0.17762008
000030 f0 5c da 3c e4 ed 1f 3e 32 a1 44 be 90 7e 36 3d
       0.026655644 0.15618092 -0.19202116 0.044554293
000040 da 0f 11 3e 90 c0 6c 3e c8 63 8d 3d 62 80 28 be
       0.14166203 0.23120332 0.069037974 -0.16455224
000050 a2 d5 51 3e 4e 5e 05 be 5c 38 e0 bd b8 7a f0 3d
       0.2049165 -0.13024256 -0.1094825 0.11742157
000060 48 2a 1c be 74 5e 97 3d 16 1e 2c be ec 89 23 be
       -0.15250504 0.073910624 -0.16808352 -0.15970582
000070 a4 47 a5 bd a0 e6 e7 3c 70 79 11 bd 4e 9a 12 be
       -0.08070305 0.028308213 -0.035516202 -0.14316675
000080 20 0f 2f bd 76 5a 7b be e8 9d b5 bd 00 b5 b1 3a
       -0.042739034 -0.24546227 -0.08868009 0.001355797
000090 f8 55 48 be a0 c9 36 3e f0 3d 8b 3d c4 f7 d8 bd
       -0.19564044 0.17850351 0.06798923 -0.105941325
0000a0 a0 2f 5f be a2 62 61 3e 40 9e 13 be 80 51 5c bd
       -0.21795511 0.22010282 -0.14415836 -0.053788662
0000b0 8e 49 14 be 28 47 ef 3d a0 3e e4 bc 00 a6 89 3d
       -0.14481184 0.11683494 -0.027861893 0.06721115
0000c0 06 b9 61 3e c0 b2 66 bd 90 b5 03 bd c0 5e ca 3b
       0.22043237 -0.056322813 -0.032155573 0.006175846
0000d0 2e 04 32 be d0 56 ec bc 60 19 5c 3d d2 2e 71 3e
       -0.17384407 -0.02884999 0.053735137 0.23553017
0000e0 52 a2 73 3e 2c 36 8e 3d 80 d7 b8 bd 26 62 6e be
       0.23792389 0.06943926 -0.09025478 -0.23279628
0000f0 86 a5 41 be aa ef 32 be 74 b6 c2 3d 4c ad 9f 3d
       -0.18910798 -0.17474237 0.095074564 0.07796726
000100 18 72 68 3e 38 13 77 be 4c b8 0e 3e 7c 64 c0 bd
       0.22699773 -0.24128425 0.13937491 -0.09394166
000110 5e 36 2d be 62 1e 21 be e8 12 3f bd 40 87 aa bd
       -0.1691527 -0.15734246 -0.04664889 -0.08326578
000120 84 7f 82 bd 5c 1d 0c 3e 12 a1 71 3e e2 83 13 be
       -0.06371978 0.13683075 0.235966 -0.14405778
000130 dc fc 78 3e 10 d7 49 be a0 d3 96 3d 28 a7 11 be
       0.24315208 -0.19710946 0.07364583 -0.14223921
000140 a8 00 41 3d b0 40 98 3c 3c cc 07 3e 30 38 f1 bd
       0.047119766 0.018585533 0.13261503 -0.11778295
000150 aa 33 56 be 54 7d 1f be c4 85 f1 3d 14 9c 5f be
       -0.20918146 -0.15575153 0.11793092 -0.21836883
000160 a0 82 d8 bc 24 a6 91 3d 96 7e 56 3e 72 63 23 3e
       -0.026429474 0.07111767 0.20946726 0.15955904
000170 00 09 91 3a a2 2c 4c be 08 e8 66 be a8 8f 78 be
       0.0011065304 -0.19938901 -0.2254945 -0.2427355
000180 c0 d7 bd 3b c4 2f ca 3d d8 9d b2 3d 97 67 f5 3c
       0.0057935417 0.09872392 0.087215126 0.029956622
000190 54 60 5f 3e 53 71 c9 bc b8 c7 b6 3d 49 0f a6 3c
       0.2181409 -0.02459017 0.08924812 0.02027096
0001a0 41 48 07 3e ab b2 a6 bc ec c3 37 be 1a f3 87 bd
       0.13211156 -0.020348867 -0.17945832 -0.06638165
0001b0 de 98 00 3e 5e 13 1f be 3a 15 03 be 13 8c 04 be
       0.12558314 -0.15534732 -0.12801066 -0.12944059
0001c0 74 cf b9 3d c0 9d 7e bc 2a 9c 63 be bc e5 95 bd
       0.09072772 -0.01554054 -0.2222754 -0.07319209
0001d0 b8 2f 3d bd 72 70 21 be 04 e9 22 3e ce 40 3c be
       -0.046188086 -0.1576555 0.15909201 -0.18384096
0001e0 22 4c 62 be 40 24 cf 3d b0 2e 4e 3e a8 e2 fd bd
       -0.22099355 0.10114336 0.20134997 -0.12396747
0001f0 78 57 3f be 8c 3f 88 bd 74 76 32 3e a4 bc 3e 3e
       -0.1868571 -0.066527456 0.17427999 0.18626648
000200 5c 4f 3b 3e f0 dc bd 3c 9a 12 48 3e 28 ee 32 bd
       0.18291992 0.02317664 0.19538346 -0.043684155
000210 10 0e 2c 3e 10 8a 3c be 60 67 b8 3d 2c 0d 78 be
       0.1680224 -0.18412042 0.09004092 -0.24223775
000220 22 75 5e be 88 22 ec 3d 3c f3 59 be 86 39 21 be
       -0.2172437 0.11530024 -0.21284193 -0.157446
000230 88 56 18 bd 68 2a d7 3d fe 7c 02 3e 7a 85 21 be
       -0.037191898 0.10506135 0.12742993 -0.15773574
000240 80 3f a0 bc 7c a2 16 be a8 10 3c 3d e0 1c 6a bd
       -0.01956153 -0.1471042 0.045914322 -0.057156444
000250 00 2e 5f be c0 c5 73 3c 98 61 a1 3d 06 a6 68 3e
       -0.21794891 0.01487869 0.07879943 0.22719583
000260 a8 50 73 be 28 df 23 3e b8 a9 3d 3d 44 7a 4b be
       -0.23761237 0.16003096 0.046304435 -0.1987086
000270 04 7f cd bd f8 62 16 bd 20 7e 80 3c 40 3a 7c 3d
       -0.10033992 -0.036715478 0.015685141 0.06157899
000280 b4 28 b5 3d 00 ea 4d 3c 01 25 11 3e d7 cf d6 bc
       0.08845654 0.012567997 0.14174272 -0.026222153
000290 3e c0 4b 3e 71 62 27 3e 76 a4 68 be d3 81 7a 3e
       0.19897553 0.16346146 -0.22718987 0.24463587
0002a0 d8 e8 14 3d c2 a2 69 3e c1 57 1e 3d ef 56 f3 3d
       0.03635487 0.22815993 0.038657907 0.11881816
0002b0 6c 7b 9e 3d 18 02 7c be 14 e6 45 be 59 d1 05 bd
       0.077383846 -0.24610174 -0.19326049 -0.032670353
0002c0 b4 b6 b5 bd 48 b3 7a bd 03 8a c4 bc 6b b5 b1 3c
       -0.088727385 -0.061206132 -0.02399159 0.021692952
0002d0 b2 f5 13 3e 4f 07 c8 bd d8 90 42 be 66 84 61 3e
       0.14449194 -0.09767019 -0.19000566 0.22023162
0002e0 27 36 68 be 10 fe 6a 3e 15 0e fe bd f0 6b 21 3e
       -0.22676907 0.2294848 -0.1240503 0.15763831
0002f0 e8 f8 07 3e be 96 0c 3e 86 f3 1b 3e b2 d5 f8 bd
       0.13278544 0.13729379 0.15229616 -0.12150134
000300 78 b7 cf bd e0 69 89 bc e9 46 7e 3e fa 07 4d ba
       -0.10142416 -0.016774118 0.24831738 -0.0007821318
000310 0a 54 46 be 1b 3d 43 be 80 e5 57 be 5d 54 25 3e
       -0.19367996 -0.19066279 -0.21083641 0.16145463
000320 ac 4d bc bd 87 ba 6d 3e e9 ed 88 3d 13 0f d9 3d
       -0.09194502 0.23215686 0.06686003 0.10598578
000330 88 64 7c 3d 40 44 8a bc a4 6e 2a 3e ca 9f 53 3d
       0.06161931 -0.016878247 0.16643769 0.05166606
000340 c6 b9 67 3e 50 be 12 be 3e 97 1e 3e 00 fc 07 be
       0.2262946 -0.14330411 0.15487382 -0.13279724
000350 0c 42 a3 3d f0 8c 94 bc 36 f7 12 3e e0 76 7d bc
       0.07971582 -0.01813361 0.14352116 -0.015470237
000360 40 d6 dd bc e0 03 93 3c 24 2c 53 3e 14 44 97 bd
       -0.027079701 0.017946184 0.20622307 -0.07386032
000370 68 94 07 bd 40 98 53 3c 74 8e c7 bd e2 5b 2f be
       -0.033100516 0.012914717 -0.09743968 -0.17124894
000380 80 fd 73 3e 82 91 16 3e 04 a8 7a 3d ba 17 c1 bd
       0.23827171 0.14703944 0.06119539 -0.094283536
000390 18 7f a0 3d 87 84 34 3d 92 9c 6e be 8c 74 44 be
       0.07836741 0.0440717 -0.23301914 -0.19185084
0003a0 8f e7 62 3e 2d e6 da 3d 40 7e 5d be a2 3d 59 3e
       0.22158645 0.10688434 -0.21630192 0.21214917
0003b0 80 79 f8 3d 20 a2 01 be 0c 2a cd 3d c5 6e 10 bc
       0.12132549 -0.12659502 0.100177854 -0.008815472
0003c0 d8 36 b5 bd 50 a6 83 bd 88 53 8d 3d 9c ef b2 bd
       -0.08848351 -0.06428206 0.06900698 -0.08737108
0003d0 d0 3e 02 3e 60 bf 0b bc 00 aa 58 bb b8 d2 ea 3d
       0.12719274 -0.008529514 -0.0033060312 0.11465973
0003e0 3c ea 02 3e ca 0b 18 3e 08 53 64 3d 00 25 50 be
       0.12784666 0.14848247 0.055743247 -0.20326614
0003f0 d0 02 0d 3e 98 47 21 bd 0c 38 89 3d 9c 78 82 3d
       0.13770604 -0.039374918 0.06700143 0.06370661

encoder.2.bias f4 [32]
000000 8f 04 09 3e 84 cc 73 be fc 41 ab bd d8 ca 32 bd
       0.13380645 -0.23808485 -0.08362195 -0.043650478
000010 8e d3 28 3d 28 ef 03 be 36 50 44 3e 9f 1d 7c 3d
       0.04121738 -0.128842 0.19171223 0.061551686
000020 d4 71 e3 bd 30 9a 0f be 3b ad 86 3c 4f 4b 7c 3e
       -0.11105695 -0.14023662 0.016440025 0.24638103
000030 e5 d8 94 3d b0 4e b1 bd 57 6d f0 3c bc 13 8f bd
       0.07267932 -0.086575866 0.029349012 -0.06986186
000040 ce df 61 3e 2d 23 17 3e f1 1b c2 3d 96 69 87 3c
       0.22058031 0.14759512 0.09477986 0.01652984
000050 f0 ed 19 be d8 c8 a9 3d e0 7b f5 bd 8c 75 23 3e
       -0.15032172 0.08290261 -0.11986518 0.1596281
000060 d4 69 02 3e 93 87 dd 3d a2 96 21 3e f0 a1 60 bd
       0.12735683 0.10816874 0.15780118 -0.054841936
000070 59 cf 07 3d d8 e7 38 3e 78 40 b2 bd 54 11 3e be
       0.033156727 0.18057191 -0.08703703 -0.18561298

decoder.0.weight f4 [32, 16, 3, 3]
000000 a8 5a 61 bc 65 94 70 ba 70 ee bf 3c 40 2c df bc
       -0.013754524 -0.0009177386 0.023429126 -0.02724278
000010 c0 33 e5 3b 4a d3 78 3d 1b 34 31 3d 04 48 6b bd
       0.0069946945 0.060748376 0.043262582 -0.057441726
000020 de f3 aa bd 26 dd 5f bd b1 de a4 3d 2f 7b 0a 3d
       -0.08347295 -0.054654263 0.080502875 0.033808883
000030 bd f0 39 3c 07 6f 15 3d 1e 3d 13 bc 55 2f 7f bd
       0.0113489 0.036482837 -0.008986739 -0.062301
000040 5b 1d 3a bd 2d 2b 03 bd 56 97 51 3d 78 14 3c bc
       -0.04543815 -0.032023598 0.051169716 -0.0114794895
000050 4d eb 3c 3d 1b 29 8a bd 4e 10 3e bc 17 c2 0f 3d
       0.046122838 -0.067461215 -0.011600567 0.035097208
000060 4c 8b 7d bd 68 f8 15 3d 4e 9d 19 bb 77 58 98 bd
       -0.061900422 0.03661385 -0.0023439708 -0.07438748
000070 30 e9 e8 3c 80 de 54 ba 18 11 20 3c 26 54 13 bd
       0.028431505 -0.0008120313 0.0097697005 -0.035968922
000080 ab 77 22 3b 04 66 bb 3c 61 a4 06 bd d6 8a f6 bc
       0.0024790566 0.022875793 -0.032871608 -0.030095499
000090 7e eb 3f 3d c5 e0 a3 3d 5b 93 a8 bd b2 d0 09 3d
       0.046855442 0.08001856 -0.08231231 0.033646293
0000a0 58 89 16 3c 73 50 2d bd 69 6c 82 3d 77 87 19 bd
       0.009188019 -0.04231305 0.06368334 -0.037482705
0000b0 ac 8b a3 bd 06 ce 95 bd 0f 2e 2a 3d 3f 8a 81 3c
       -0.07985625 -0.073146865 0.04154783 0.015812991
0000c0 21 71 92 3d 5c 0d a1 3d 1b 4f 38 3d 88 06 e2 3c
       0.07150484 0.07863876 0.044997316 0.027591005
0000d0 46 ce 4e bd b5 94 47 bd 85 d7 95 3d 3a 9a 0e bd
       -0.050489686 -0.048725802 0.07316498 -0.03481505
0000e0 d9 17 2f bd 40 04 33 3c a6 db 3b bc 37 26 31 bd
       -0.042747352 0.010926306 -0.0114659425 -0.043249335
0000f0 9b d3 2c bd d9 ab 20 bd 44 39 02 bd f6 8b 84 bd
       -0.04219399 -0.039226387 -0.031792894 -0.06472008
000100 68 8c 10 3d 8e 20 47 3d 51 50 1d 3d 7f 8b 53 3d
       0.03529015 0.04861503 0.038406674 0.051646706
000110 fb 94 2f 3d 50 be aa 3d 64 e6 7b bd 26 fb 0e bd
       0.04286669 0.083370805 -0.061499014 -0.034907483
000120 a0 d4 ff 3c be f8 60 bd c4 57 68 3d cd 10 8e bc
       0.031229317 -0.05492472 0.056724325 -0.017341996
000130 cc 14 97 3c 78 e8 72 3b d5 49 73 3d 53 99 63 bd
       0.018442534 0.0037064832 0.059396584 -0.055566143
000140 10 0b 86 bc 4f 49 a7 bd 31 3c 19 bd 46 a6 81 3d
       -0.016362697 -0.081682794 -0.03741092 0.06330542
000150 9c d4 8c bd d8 88 54 bc 51 ec f6 bb 54 da 6b 3d
       -0.068764895 -0.012972079 -0.0075354953 0.05758126
000160 28 1e d5 3b fc 08 4a 3d e0 ce 8c bd 7d 6b 48 3d
       0.006503839 0.049324974 -0.06875396 0.048930634
000170 f8 43 4f 3c bd 29 54 3d 87 d0 82 3d bc 20 ca 3c
       0.012650482 0.051797617 0.0638743 0.024673812
000180 fb c6 7a 3d 06 bd c7 bc 49 00 97 bc e3 1e 41 bd
       0.06122492 -0.024382126 -0.018432753 -0.047148596
000190 08 c3 1a bc c6 5a 02 3d 85 89 8a 3d b3 64 01 bd
       -0.009445913 0.03182485 0.06764511 -0.031590175
0001a0 47 ca 9e 3d c6 0f 49 3d 48 07 25 bd ad 54 97 3d
       0.07753425 0.04908731 -0.040290147 0.073891975
0001b0 3a 17 34 3d f4 a7 90 bd 8c e4 11 3d cd 91 82 3c
       0.043967463 -0.070632845 0.03561835 0.015938664
0001c0 f3 8b 92 3d cb 2e 56 3d a6 5d 0f bb 8c 04 24 3d
       0.071555994 0.05229072 -0.0021875887 0.0400434
0001d0 f4 be 58 bd 60 40 3a bb 28 87 a3 bd 89 6e 6a 3d
       -0.052916482 -0.0028419718 -0.079847634 0.05723432
0001e0 28 fa 77 bd 60 74 54 3b ea 29 0e 3d a1 2d 32 bd
       -0.060541302 0.0032417998 0.03470794 -0.043500546
0001f0 7c 71 96 bc 32 6f a9 bb 50 73 29 bd 90 47 be bc
       -0.01836466 -0.005170726 -0.041369736 -0.023227483
000200 2b bf 97 bd d8 26 e0 3c 43 76 12 bd f1 90 82 bd
       -0.07409509 0.027362272 -0.035757314 -0.06375302
000210 eb af 34 bd ca 33 82 3d 27 0e d1 bc 38 1d 74 3c
       -0.04411308 0.06357534 -0.025519444 0.014899544
000220 c1 a9 7f bd 0e 42 2d bb 98 9e c2 3d aa a7 10 3d
       -0.06241775 -0.0026437077 0.095029056 0.035316147
000230 35 ed bd 3d 46 d0 13 3d 92 78 89 bd bc d7 ef bc
       0.09273759 0.036087297 -0.0671245 -0.029277675
000240 1b 03 3a bd 78 7c 0c bc b1 6a 84 3d 6a a6 7b 3d
       -0.045413118 -0.008574598 0.06465662 0.061438
000250 c8 a6 41 bd 33 52 96 3d da 83 a3 bd 31 0a a8 3d
       -0.047278196 0.07339897 -0.07984133 0.08205069
000260 f1 76 8c 3d 60 59 01 bd 43 b4 4f bd b7 17 8b 3d
       0.06858624 -0.031579375 -0.05070902 0.067916326
000270 9a 98 2e 3d 80 b4 10 bb 38 dc 70 bc ab 42 4f bd
       0.042626 -0.0022080243 -0.014700942 -0.05060069
000280 74 37 89 bc 4e f3 70 3d bb c8 33 bd d0 96 e0 3c
       -0.016750075 0.058825783 -0.043892603 0.027415663
000290 aa 50 4c 3d 90 1b 40 bd ce 9d 61 bd a0 8d b6 3c
       0.049881615 -0.046901286 -0.055082135 0.022284329
0002a0 06 c9 bd bc ab 57 8d bd ed 4a 9d 3d b9 00 a7 3d
       -0.023167145 -0.06901487 0.076803066 0.08154435
0002b0 89 75 a9 3d e0 9a 4e bb 78 67 36 bd 37 d0 a1 3d
       0.08274371 -0.0031525418 -0.04453227 0.07901042
0002c0 98 42 7a bc 95 eb a3 3d 22 53 85 bd c0 5d c3 ba
       -0.015274666 0.08003918 -0.06509997 -0.0014905259
0002d0 11 be a9 3d 91 20 89 3d 52 b8 31 3d 76 d6 7e bd
       0.082882054 0.06695665 0.043388672 -0.062216245
0002e0 d3 98 a3 bd aa 0c 9a bd 83 68 80 3d 60 36 7e bb
       -0.07988133 -0.07521947 0.06269934 -0.0038789734
0002f0 20 b3 4b 3b b7 d2 83 bd aa 1c 24 3d e1 b9 9e 3d
       0.0031082109 -0.06436675 0.0400664 0.07750297
000300 db 72 01 bd 68 e1 53 bd 18 32 00 3c 00 80 6f b9
       -0.031603675 -0.051728636 0.007824443 -0.000228405
000310 e2 d6 83 bd dc 54 9b bc ab b0 a0 3d 9f 60 9d bd
       -0.0643747 -0.018961363 0.07846197 -0.07684445
000320 be f9 52 3d 90 db f3 3b 24 f9 a3 bc b8 34 6e bc
       0.051507704 0.0074419454 -0.02001626 -0.014538936
000330 46 f6 33 3d 9e d5 77 3d c8 1d 0f 3c 80 3e fa bc
       0.043936037 0.060506456 0.008735128 -0.03054738
000340 30 61 8e 3c 1a ba 41 3d 00 40 25 ba 40 49 06 3c
       0.017380327 0.04729662 -0.0006303787 0.008196175
000350 2d 38 82 3d c8 59 7e 3c 60 72 49 bc ba 77 58 3d
       0.06358371 0.015524335 -0.0122953355 0.052848555
000360 7a a3 3a 3d 8e 15 70 bd de 8b 7d bd f6 8b 3e bd
       0.04556606 -0.058614306 -0.061900966 -0.046520196
000370 0e 2e a0 bd 84 76 97 bc f0 49 eb bc 70 20 ff 3b
       -0.07821284 -0.01848913 -0.02872178 0.0077858493
000380 4f 83 90 bd 02 80 21 3d bc 64 e6 3c 96 78 e8 bc
       -0.07056295 0.03942872 0.028124206 -0.028377812
000390 87 0c 81 bd 72 63 3e 3d 86 f3 27 bd 68 95 71 bd
       -0.063012175 0.046481557 -0.041003726 -0.058980376
0003a0 36 61 24 3d 59 af a5 3d 33 3f 73 bd 22 f5 8f bd
       0.04013177 0.080900855 -0.059386443 -0.07029177
0003b0 ef 0f a4 3d 42 48 25 3d b0 63 a2 bc 70 f0 e9 3b
       0.080108516 0.040352114 -0.019822925 0.007139258
0003c0 20 e7 e2 3c 86 70 6f bd 66 01 8f bd 14 56 a3 bc
       0.0276981 -0.05845692 -0.069826886 -0.019938506
0003d0 c0 75 4b bd a0 25 01 3d 2e 27 60 3d 1a 5f 1c 3d
       -0.049672842 0.031530023 0.054724865 0.038176633
0003e0 f0 3a e5 bc c0 bb 03 3c fe 86 4f 3d 77 34 97 bd
       -0.027982205 0.008040369 0.050665848 -0.07383054
0003f0 5e 85 01 3d 94 85 95 bc b0 f9 b7 3b ab fb 25 bd
       0.03162133 -0.018252172 0.005614482 -0.040523212

decoder.0.bias f4 [16]
000000 09 03 47 bd 9b ea 29 3d 6b 3f 61 3d d8 73 13 bc
       -0.04858688 0.041483503 0.05499212 -0.008999787
000010 ae 30 e0 bc 12 5b 6f bc fa 1f 1c bc a5 05 60 3d
       -0.027366962 -0.014609115 -0.009529108 0.054692883
000020 99 66 85 3d 9f 4b 2e 3d 6a 08 93 3d 95 61 ba bd
       0.065137096 0.042552587 0.07179339 -0.091006435
000030 21 97 a3 3c 7a 36 31 bd b9 1e c4 bc 47 e3 09 3c
       0.019969525 -0.043264844 -0.023940431 0.008416004

decoder.2.weight f4 [16, 1, 3, 3]
000000 30 12 81 3e de 2d 1c be e6 e3 93 3e b3 f4 b9 bd
       0.25209188 -0.15251872 0.2888481 -0.09079876
000010 44 f7 80 3e 0e c9 29 be ab 05 31 3d b1 f2 8a be
       0.2518865 -0.16580603 0.043218296 -0.27138284
000020 41 5b 76 3e bb 0d cf 3d b1 75 d1 3d fb 20 9f 3d
       0.24058248 0.10110041 0.10227526 0.077699624
000030 b4 76 b5 3d ff 5e 8a 3d fd eb 83 bd 3f 6f 7d 3e
       0.088605314 0.067564 -0.064414956 0.24749468
000040 a3 5f a0 be 80 07 83 bb f8 29 20 3c 2f 6d 20 3e
       -0.31322965 -0.003998697 0.009775631 0.1566665
000050 c9 27 a2 be 51 ff a0 be 57 c8 13 be 5c 3f 9f 3e
       -0.3167098 -0.3144479 -0.14431892 0.31103027
000060 fc 45 ac 3c f2 61 5f be a1 4e 3b be 09 d6 9b be
       0.021029465 -0.21814707 -0.18291713 -0.30436733
000070 d9 43 9b bd d8 17 13 3e 9d fb 6e be 67 15 10 bd
       -0.075813 0.14364564 -0.2333817 -0.03517666
000080 e2 56 94 3e 34 73 9d 3e a0 03 06 3e 65 5c 81 3e
       0.28972536 0.30751956 0.1308732 0.25265804
000090 06 cf dc 3c bc 85 fe bd f0 6a 07 be 96 77 a1 be
       0.026954185 -0.124278516 -0.13224387 -0.3153655
0000a0 0b c2 a4 3e a7 5f 8f be 76 1a c5 bd a0 ba 01 3e
       0.32179293 -0.28002664 -0.09624188 0.12668848
0000b0 51 57 39 be 67 e8 5f 3e 4f 3b a5 be ec 53 1b 3c
       -0.18099715 0.21865998 -0.3227181 0.009480458
0000c0 f4 37 47 be cd 62 97 be 62 63 14 3e 6b b0 aa bb
       -0.19454938 -0.29567567 0.14491037 -0.005209019
0000d0 55 64 7a be 80 d7 7a be 73 c5 95 be 17 3d f2 bc
       -0.24452336 -0.24496269 -0.29252204 -0.029570146
0000e0 50 2b 8c be 89 8e 20 bd 89 df 01 3e 45 4e 25 be
       -0.27376795 -0.039198432 0.12682928 -0.16143139
0000f0 09 1c d6 3d 54 f0 a7 be 2b a8 dd 3d f5 08 9d be
       0.10454566 -0.32800543 0.10823091 -0.30670896
000100 3b 6c 22 3e ae fe 4b be 50 eb af be 61 23 8e be
       0.15861599 -0.19921371 -0.34359217 -0.27761367
000110 5b 6e a1 3d 7b 2d 13 3e 9b 05 09 be a2 0e 41 3e
       0.07882377 0.14372818 -0.13381045 0.18853238
000120 62 6e b2 bd 53 fa d5 3d a2 73 6f be c4 12 58 bd
       -0.0871246 0.10448136 -0.23383954 -0.05275227
000130 56 da be 3d b6 31 e2 3d 6b c7 a3 be 20 49 20 3d
       0.09318988 0.11044638 -0.3198808 0.039132237
000140 6b d7 64 3d 80 16 8d be 7c 08 d6 bc ff 63 8e be
       0.0558695 -0.2755623 -0.026127093 -0.27810666
000150 bd db 93 3e 42 f2 13 3d e9 9c 7e bd 15 5c de 3d
       0.28878585 0.036119707 -0.06216136 0.10857407
000160 09 3e aa be d0 48 2c 3e 74 c8 93 3e 75 9e 7b 3e
       -0.33250454 0.16824651 0.2886387 0.24572165
000170 80 d6 5e 3b ce 08 36 3d 54 5b 06 bd f4 24 6b be
       0.0034002364 0.04444199 -0.03280194 -0.22963315
000180 b7 96 92 be 68 55 06 be 95 92 02 be 80 94 2c 3e
       -0.2863061 -0.13118517 -0.12751229 0.16853523
000190 db cb 1c 3c 2e 05 d1 3d 5b 14 d2 3d 45 9d f3 3c
       0.009570087 0.10206066 0.10257789 0.029738078
0001a0 1e 1a 75 be 39 87 d1 bd 44 f7 a5 3e 0f f9 2a 3e
       -0.23935744 -0.1023087 0.3241521 0.16696571
0001b0 7e cc dc bc e0 4a 7a 3e fd 4a 56 be a5 7e 80 be
       -0.026952978 0.24442625 -0.20927043 -0.25096622
0001c0 61 d5 41 3d 80 cd 85 bd e9 e3 4f 3e 32 72 c2 bd
       0.047322635 -0.06533337 0.20301785 -0.09494437
0001d0 ba f0 31 3e 62 64 9f be a5 06 95 3c 70 49 9e be
       0.17376986 -0.31131274 0.018191645 -0.30915403
0001e0 57 1f e2 3b b8 ac 9a bc 96 d1 5d bd bf 2d 89 3e
       0.0069007087 -0.018881187 -0.054154955 0.26792714
0001f0 2e d6 1d be 55 c4 2e be 0e 33 8e be 7d c5 04 be
       -0.15413734 -0.17067082 -0.27773327 -0.12965961
000200 f2 3c aa 3d 1a 11 8b be 2f 4c 66 bc 60 53 96 bd
       0.08312406 -0.27161485 -0.0140562495 -0.07340121
000210 27 65 0a 3e 0f 65 ca 3d 28 53 61 be c3 81 3c be
       0.13515149 0.09882557 -0.22004378 -0.18408875
000220 06 0a ee bd df 20 21 be 5b 8f e1 3d 18 88 8c 3d
       -0.116230056 -0.15735196 0.11013671 0.06861895
000230 9a bd 06 be 2e fd a4 be 2a a9 75 3e 95 aa 81 be
       -0.13158265 -0.3222441 0.23990312 -0.25325456
