checkpoints/epoch_4.pth (torch, 24320 bytes, 7 tensors)

encoder.0.weight f4 [16, 1, 1, 1]
-0.72116816 0.006669879 0.62913364 0.22042231 -0.87134886 0.89328253 -0.82249165 0.7735657
0.27424744 0.5438098 -0.8593703 0.6156265 -0.6047492 -0.570673 -0.32872164 -0.60046154
00000000: 7a9e 38bf 008f da3b e70e 213f 63b6 613e
00000010: b810 5fbf 2aae 643f d08e 52bf 6708 463f
00000020: 296a 8c3e 1e37 0b3f b1ff 5bbf b399 1d3f
00000030: d8d0 1abf a017 12bf 344e a8be d9b7 19bf

encoder.0.bias f4 [16]
-0.7249266 -0.70742166 -0.43326983 0.9863631 -0.73790634 0.036966104 -0.27415347 -0.28869194
0.6496397 -0.08448247 0.542296 0.8566035 -0.3648888 -0.39771044 -0.31396592 0.49655125
00000000: ca94 39bf 9619 35bf 8bd5 ddbe 4b82 7c3f
00000010: 6ee7 3cbf c569 173d d85d 8cbe 6ecf 93be
00000020: ca4e 263f 2505 adbd e9d3 0a3f 5e4a 5b3f
00000030: b4d2 babe b4a0 cbbe 24c0 a0be f73b fe3e

encoder.2.weight f4 [32, 16, 1, 1]
0.068062425 -0.17291433 0.057792723 -0.20577013 0.01962927 0.13737598 0.10905653 -0.11100277
-0.10534653 0.11459258 0.061252177 -0.17762008 0.026655644 0.15618092 -0.19202116 0.044554293
0.14166203 0.23120332 0.069037974 -0.16455224 0.2049165 -0.13024256 -0.1094825 0.11742157
-0.15250504 0.073910624 -0.16808352 -0.15970582 -0.08070305 0.028308213 -0.035516202 -0.14316675
-0.042739034 -0.24546227 -0.08868009 0.001355797 -0.19564044 0.17850351 0.06798923 -0.105941325
-0.21795511 0.22010282 -0.14415836 -0.053788662 -0.14481184 0.11683494 -0.027861893 0.06721115
0.22043237 -0.056322813 -0.032155573 0.006175846 -0.17384407 -0.02884999 0.053735137 0.23553017
0.23792389 0.06943926 -0.09025478 -0.23279628 -0.18910798 -0.17474237 0.095074564 0.07796726
0.22699773 -0.24128425 0.13937491 -0.09394166 -0.1691527 -0.15734246 -0.04664889 -0.08326578
-0.06371978 0.13683075 0.235966 -0.14405778 0.24315208 -0.19710946 0.07364583 -0.14223921
0.047119766 0.018585533 0.13261503 -0.11778295 -0.20918146 -0.15575153 0.11793092 -0.21836883
-0.026429474 0.07111767 0.20946726 0.15955904 0.0011065304 -0.19938901 -0.2254945 -0.2427355
0.0057935417 0.09872392 0.085957676 0.023723189 0.2181409 -0.03080994 0.08924812 0.017196618
0.12587811 -0.023977779 -0.18569064 -0.07261583 0.12558314 -0.15534732 -0.12801066 -0.13567266
0.09072772 -0.01554054 -0.2222754 -0.07319209 -0.046188086 -0.1576555 0.15909201 -0.18384096
-0.22099355 0.10114336 0.20134997 -0.12396747 -0.1868571 -0.066527456 0.17427999 0.18626648
0.18291992 0.02317664 0.19538346 -0.043684155 0.1680224 -0.18412042 0.09004092 -0.24223775
-0.2172437 0.11530024 -0.21284193 -0.157446 -0.037191898 0.10506135 0.12742993 -0.15773574
-0.01956153 -0.1471042 0.045914322 -0.057156444 -0.21794891 0.01487869 0.07879943 0.22719583
-0.23761237 0.16003096 0.046304435 -0.1987086 -0.10033992 -0.036715478 0.015685141 0.06157899
0.08845654 0.012567997 0.14046885 -0.03245752 0.19897553 0.15724619 -0.22718987 0.2414479
0.030119693 0.22426395 0.032422334 0.112583116 0.077383846 -0.24610174 -0.19326049 -0.038906727
-0.088727385 -0.061206132 -0.024853626 0.017634189 0.14449194 -0.10202513 -0.19000566 0.2174411
-0.23083411 0.22546017 -0.12811005 0.1535919 0.13278544 0.13729379 0.15229616 -0.12555555
-0.10142416 -0.016774118 0.24762323 -0.006968994 -0.19367996 -0.19683541 -0.21083641 0.158438
-0.09813192 0.2287935 0.060673628 0.099798575 0.06161931 -0.016878247 0.16643769 0.04547994
0.2262946 -0.14330411 0.15487382 -0.13279724 0.07971582 -0.01813361 0.14352116 -0.015470237
-0.027079701 0.017946184 0.20622307 -0.07386032 -0.033100516 0.012914717 -0.09743968 -0.17124894
0.23827171 0.14703944 0.06003219 -0.10058665 0.07836741 0.03778109 -0.23301914 -0.19500345
0.21528322 0.10323626 -0.22260436 0.20584582 0.12132549 -0.12659502 0.100177854 -0.015117546
-0.08848351 -0.06428206 0.06900698 -0.08737108 0.12719274 -0.008529514 -0.0033060312 0.11465973
0.12784666 0.14848247 0.055743247 -0.20326614 0.13770604 -0.039374918 0.06700143 0.06370661
00000000: 5064 8b3d 7410 31be 10b8 6c3d 68b5 52be
00000010: 90cd a03c 4aac 0c3e 0859 df3d 6c55 e3bd
00000020: ecbf d7bd 84af ea3d 90e3 7a3d 0ae2 35be
00000030: f05c da3c e4ed 1f3e 32a1 44be 907e 363d
00000040: da0f 113e 90c0 6c3e c863 8d3d 6280 28be
00000050: a2d5 513e 4e5e 05be 5c38 e0bd b87a f03d
00000060: 482a 1cbe 745e 973d 161e 2cbe ec89 23be
00000070: a447 a5bd a0e6 e73c 7079 11bd 4e9a 12be
00000080: 200f 2fbd 765a 7bbe e89d b5bd 00b5 b13a
00000090: f855 48be a0c9 363e f03d 8b3d c4f7 d8bd
000000a0: a02f 5fbe a262 613e 409e 13be 8051 5cbd
000000b0: 8e49 14be 2847 ef3d a03e e4bc 00a6 893d
000000c0: 06b9 613e c0b2 66bd 90b5 03bd c05e ca3b
000000d0: 2e04 32be d056 ecbc 6019 5c3d d22e 713e
000000e0: 52a2 733e 2c36 8e3d 80d7 b8bd 2662 6ebe
000000f0: 86a5 41be aaef 32be 74b6 c23d 4cad 9f3d
00000100: 1872 683e 3813 77be 4cb8 0e3e 7c64 c0bd
00000110: 5e36 2dbe 621e 21be e812 3fbd 4087 aabd
00000120: 847f 82bd 5c1d 0c3e 12a1 713e e283 13be
00000130: dcfc 783e 10d7 49be a0d3 963d 28a7 11be
00000140: a800 413d b040 983c 3ccc 073e 3038 f1bd
00000150: aa33 56be 547d 1fbe c485 f13d 149c 5fbe
00000160: a082 d8bc 24a6 913d 967e 563e 7263 233e
00000170: 0009 913a a22c 4cbe 08e8 66be a88f 78be
00000180: c0d7 bd3b c42f ca3d 940a b03d 2257 c23c
00000190: 5460 5f3e 2165 fcbc b8c7 b63d ecdf 8c3c
000001a0: 31e6 003e 0c6d c4bc b025 3ebe 9cb7 94bd
000001b0: de98 003e 5e13 1fbe 3a15 03be c6ed 0abe
000001c0: 74cf b93d c09d 7ebc 2a9c 63be bce5 95bd
000001d0: b82f 3dbd 7270 21be 04e9 223e ce40 3cbe
000001e0: 224c 62be 4024 cf3d b02e 4e3e a8e2 fdbd
000001f0: 7857 3fbe 8c3f 88bd 7476 323e a4bc 3e3e
00000200: 5c4f 3b3e f0dc bd3c 9a12 483e 28ee 32bd
00000210: 100e 2c3e 108a 3cbe 6067 b83d 2c0d 78be
00000220: 2275 5ebe 8822 ec3d 3cf3 59be 8639 21be
00000230: 8856 18bd 682a d73d fe7c 023e 7a85 21be
00000240: 803f a0bc 7ca2 16be a810 3c3d e01c 6abd
00000250: 002e 5fbe c0c5 733c 9861 a13d 06a6 683e
00000260: a850 73be 28df 233e b8a9 3d3d 447a 4bbe
00000270: 047f cdbd f862 16bd 207e 803c 403a 7c3d
00000280: b428 b53d 00ea 4d3c 11d7 0f3e 2df2 04bd
00000290: 3ec0 4b3e 2505 213e 76a4 68be 1e3e 773e
000002a0: 93bd f63c 73a5 653e 48cd 043d fa91 e63d
000002b0: 6c7b 9e3d 1802 7cbe 14e6 45be a95c 1fbd
000002c0: b4b6 b5bd 48b3 7abd d599 cbbc 9375 903c
000002d0: b2f5 133e 8df2 d0bd d890 42be e1a8 5e3e
000002e0: c75f 6cbe 08df 663e 482f 03be 3247 1d3e
000002f0: e8f8 073e be96 0c3e 86f3 1b3e a291 00be
00000300: 78b7 cfbd e069 89bc f290 7d3e 295c e4bb
00000310: 0a54 46be 398f 49be 80e5 57be 923d 223e
00000320: 63f9 c8bd d848 6a3e e984 783d 3263 cc3d
00000330: 8864 7c3d 4044 8abc a46e 2a3e 2c49 3a3d
00000340: c6b9 673e 50be 12be 3e97 1e3e 00fc 07be
00000350: 0c42 a33d f08c 94bc 36f7 123e e076 7dbc
00000360: 40d6 ddbc e003 933c 242c 533e 1444 97bd
00000370: 6894 07bd 4098 533c 748e c7bd e25b 2fbe
00000380: 80fd 733e 8291 163e 50e4 753d 6000 cebd
00000390: 187f a03d 58c0 1a3d 929c 6ebe fcae 47be
000003a0: 3473 5c3e 886d d33d 66f2 63be 3fc9 523e
000003b0: 8079 f83d 20a2 01be 0c2a cd3d 95af 77bc
000003c0: d836 b5bd 50a6 83bd 8853 8d3d 9cef b2bd
000003d0: d03e 023e 60bf 0bbc 00aa 58bb b8d2 ea3d
000003e0: 3cea 023e ca0b 183e 0853 643d 0025 50be
000003f0: d002 0d3e 9847 21bd 0c38 893d 9c78 823d

encoder.2.bias f4 [32]
0.12809756 -0.23808485 -0.08362195 -0.043650478 0.0350247 -0.128842 0.18547873 0.05527794
-0.11105695 -0.14023662 0.010202608 0.24229883 0.06649482 -0.086575866 0.02304601 -0.06986186
0.2208176 0.14191258 0.0917661 0.010214157 -0.15032172 0.07667608 -0.11986518 0.1646707
0.12110428 0.10212939 0.1526794 -0.054841936 0.026858404 0.17683981 -0.08703703 -0.18561298
00000000: 022c 033e 84cc 73be fc41 abbd d8ca 32bd
00000010: 0f76 0f3d 28ef 03be 23ee 3d3e 1f6b 623d
00000020: d471 e3bd 309a 0fbe d728 273c 2f1d 783e
00000030: 702e 883d b04e b1bd fcca bc3c bc13 8fbd
00000040: 021e 623e 8851 113e ddef bb3d 4859 273c
00000050: f0ed 19be 5908 9d3d e07b f5bd 709f 283e
00000060: 8505 f83d 3729 d13d fd57 1c3e f0a1 60bd
00000070: 2806 dc3c 7f15 353e 7840 b2bd 5411 3ebe

decoder.0.weight f4 [32, 16, 3, 3]
-0.013754524 0.00047479474 0.023641428 -0.02724278 0.0069946945 0.060748376 0.04682494 -0.055150818
-0.079910606 -0.054654263 0.07606349 0.035979178 0.015097408 0.0396535 -0.0054250015 -0.061319638
-0.039698757 -0.03078531 0.051169716 -0.016022148 0.041850656 -0.07353026 -0.01769847 0.029033395
-0.06789861 0.030544499 -0.008378961 -0.07438748 0.028431505 -0.0008120313 0.0097697005 -0.03007035
0.0037167023 0.022875793 -0.031895746 -0.030095499 0.046855442 0.07554798 -0.08231231 0.033646293
0.009188019 -0.04231305 0.06368334 -0.041954916 -0.07985625 -0.073146865 0.039948903 0.011232422
0.0654626 0.07592829 0.03895704 0.021527687 -0.05417214 -0.054800753 0.07316498 -0.03856697
-0.047290508 0.010926306 -0.015047401 -0.046369843 -0.047759578 -0.045306765 -0.037426796 -0.06472008
0.031299707 0.04407044 0.032205034 0.04543633 0.03665356 0.077322446 -0.067241766 -0.040955834
0.031229317 -0.05053324 0.052252777 -0.020301888 0.022749972 -0.0013363968 0.053328574 -0.051174663
-0.022446107 -0.081682794 -0.0419668 0.059356336 -0.065202504 -0.00743194 -0.003973107 0.0515379
0.00043045974 0.043270137 -0.06875396 0.044407096 0.008092944 0.045754246 0.057841375 0.018624367
0.055301055 -0.030484548 -0.024482906 -0.047148596 -0.009445913 0.03182485 0.06764511 -0.031590175
0.07753425 0.04908731 -0.040290147 0.073891975 0.043967463 -0.070632845 0.03802638 0.017736154
0.071555994 0.0540821 0.001137803 0.04194786 -0.049532183 -0.0028419718 -0.079847634 0.053168174
-0.060541302 0.0032417998 0.030609004 -0.049519334 -0.01836466 -0.011222953 -0.041369736 -0.027765092
-0.07409509 0.022026215 -0.035757314 -0.06949522 -0.04464261 0.057495628 -0.02604897 0.014899544
-0.06544685 -0.0065133376 0.089090474 0.03175228 0.08683689 0.030055149 -0.073154874 -0.035358727
-0.045413118 -0.008574598 0.06465662 0.061438 -0.047278196 0.07339897 -0.07984133 0.08205069
0.06858624 -0.031579375 -0.05070902 0.067916326 0.042626 -0.0022080243 -0.014700942 -0.05060069
-0.016750075 0.058825783 -0.043892603 0.027415663 0.049881615 -0.046901286 -0.055082135 0.022284329
-0.023167145 -0.06901487 0.076803066 0.08154435 0.08274371 -0.0031525418 -0.04453227 0.07901042
-0.015274666 0.08003918 -0.06509997 -0.0014905259 0.082882054 0.06695665 0.043388672 -0.062216245
-0.07988133 -0.07521947 0.06269934 -0.0038789734 0.0031082109 -0.06436675 0.0400664 0.07750297
-0.031603675 -0.051728636 0.007824443 -0.000228405 -0.0643747 -0.018961363 0.07846197 -0.07684445
0.051507704 0.0074419454 -0.02001626 -0.014538936 0.043936037 0.060506456 0.008735128 -0.03054738
0.017380327 0.04729662 -0.0006303787 0.008196175 0.06358371 0.015524335 -0.0122953355 0.052848555
0.04556606 -0.058614306 -0.061900966 -0.046520196 -0.07821284 -0.01848913 -0.02872178 0.0077858493
-0.07056295 0.03942872 0.028124206 -0.028377812 -0.063012175 0.046481557 -0.041003726 -0.058980376
0.04013177 0.080900855 -0.059386443 -0.07029177 0.080108516 0.040352114 -0.019822925 0.007139258
0.0276981 -0.05845692 -0.069826886 -0.019938506 -0.049672842 0.031530023 0.054724865 0.038176633
-0.027982205 0.008040369 0.050665848 -0.07383054 0.03162133 -0.018252172 0.005614482 -0.040523212
00000000: a85a 61bc dfed f839 abab c13c 402c dfbc
00000010: c033 e53b 4ad3 783d 82cb 3f3d d3e5 61bd
00000020: 2ca8 a3bd 26dd 5fbd 2dc7 9b3d e75e 133d
00000030: 1e5b 773c b56b 223d 36c4 b1bb 4d2a 7bbd
00000040: 2a9b 22bd 7931 fcbc 5697 513d e140 83bc
00000050: 986b 2b3d 0897 96bd 62fc 90bc 71d7 ed3c
00000060: 6d0e 8bbd 7538 fa3c e947 09bc 7758 98bd
00000070: 30e9 e83c 80de 54ba 1811 203c 1856 f6bc
00000080: eb93 733b 0466 bb3c 1da5 02bd d68a f6bc
00000090: 7eeb 3f3d e6b8 9a3d 5b93 a8bd b2d0 093d
000000a0: 5889 163c 7350 2dbd 696c 823d ebd8 2bbd
000000b0: ac8b a3bd 06ce 95bd 76a1 233d 3108 383c
000000c0: 4111 863d 4b80 9b3d 6b91 1f3d d55a b03c
000000d0: 9be3 5dbd c176 60bd 85d7 953d 66f8 1dbd
000000e0: b1b3 41bd 4004 333c 6089 76bc 4eee 3dbd
000000f0: 8c9f 43bd 9693 39bd d74c 19bd f68b 84bd
00000100: 1f34 003d 3583 343d 6de9 033d 721b 3a3d
00000110: 0b22 163d 3b5b 9e3d 0db6 89bd 4ec1 27bd
00000120: a0d4 ff3c f1fb 4ebd 0207 563d 2550 a6bc
00000130: 265e ba3c 092a afba 106f 5a3d 869c 51bd
00000140: e6e0 b7bc 4f49 a7bd 61e5 2bbd a11f 733d
00000150: e488 85bd a287 f3bb d630 82bb 6819 533d
00000160: 54af e139 073c 313d e0ce 8cbd 37e4 353d
00000170: 4498 043c ce68 3b3d 14eb 6c3d 2192 983c
00000180: 5c83 623d bbba f9bc 6090 c8bc e31e 41bd
00000190: 08c3 1abc c65a 023d 8589 8a3d b364 01bd
000001a0: 47ca 9e3d c60f 493d 4807 25bd ad54 973d
000001b0: 3a17 343d f4a7 90bd 8dc1 1b3d 694b 913c
000001c0: f38b 923d 3185 5d3d 5522 953a 85d1 2b3d
000001d0: 42e2 4abd 6040 3abb 2887 a3bd dfc6 593d
000001e0: 28fa 77bd 6074 543b bcbf fa3c c9d4 4abd
000001f0: 7c71 96bc 7ae0 37bc 5073 29bd 9e73 e3bc
00000200: 2bbf 97bd 5270 b43c 4376 12bd 8353 8ebd
00000210: 2bdb 36bd 8980 6b3d a664 d5bc 381d 743c
00000220: 0009 86bd d66d d5bb 1175 b63d ae0e 023d
00000230: 8ad7 b13d 3736 f63c 39d2 95bd 50d4 10bd
00000240: 1b03 3abd 787c 0cbc b16a 843d 6aa6 7b3d
00000250: c8a6 41bd 3352 963d da83 a3bd 310a a83d
00000260: f176 8c3d 6059 01bd 43b4 4fbd b717 8b3d
00000270: 9a98 2e3d 80b4 10bb 38dc 70bc ab42 4fbd
00000280: 7437 89bc 4ef3 703d bbc8 33bd d096 e03c
00000290: aa50 4c3d 901b 40bd ce9d 61bd a08d b63c
000002a0: 06c9 bdbc ab57 8dbd ed4a 9d3d b900 a73d
000002b0: 8975 a93d e09a 4ebb 7867 36bd 37d0 a13d
000002c0: 9842 7abc 95eb a33d 2253 85bd c05d c3ba
000002d0: 11be a93d 9120 893d 52b8 313d 76d6 7ebd
000002e0: d398 a3bd aa0c 9abd 8368 803d 6036 7ebb
000002f0: 20b3 4b3b b7d2 83bd aa1c 243d e1b9 9e3d
00000300: db72 01bd 68e1 53bd 1832 003c 0080 6fb9
00000310: e2d6 83bd dc54 9bbc abb0 a03d 9f60 9dbd
00000320: bef9 523d 90db f33b 24f9 a3bc b834 6ebc
00000330: 46f6 333d 9ed5 773d c81d 0f3c 803e fabc
00000340: 3061 8e3c 1aba 413d 0040 25ba 4049 063c
00000350: 2d38 823d c859 7e3c 6072 49bc ba77 583d
00000360: 7aa3 3a3d 8e15 70bd de8b 7dbd f68b 3ebd
00000370: 0e2e a0bd 8476 97bc f049 ebbc 7020 ff3b
00000380: 4f83 90bd 0280 213d bc64 e63c 9678 e8bc
00000390: 870c 81bd 7263 3e3d 86f3 27bd 6895 71bd
000003a0: 3661 243d 59af a53d 333f 73bd 22f5 8fbd
000003b0: ef0f a43d 4248 253d b063 a2bc 70f0 e93b
000003c0: 20e7 e23c 8670 6fbd 6601 8fbd 1456 a3bc
000003d0: c075 4bbd a025 013d 2e27 603d 1a5f 1c3d
000003e0: f03a e5bc c0bb 033c fe86 4f3d 7734 97bd
000003f0: 5e85 013d 9485 95bc b0f9 b73b abfb 25bd

decoder.0.bias f4 [16]
-0.045866974 0.04671145 0.04880324 -0.0047711967 -0.031966012 -0.020732652 -0.0157457 0.04866412
0.059086498 0.036397867 0.06552663 -0.08794392 0.02275535 -0.049225204 -0.030202173 0.0022762255
00000000: 02df 3bbd 8154 3f3d e8e5 473d b357 9cbb
00000010: cbee 02bd 86d7 a9bc 20fd 80bc 0754 473d
00000020: af04 723d ee15 153d d332 863d f11b b4bd
00000030: 6e69 ba3c 5ea0 49bd 8c6a f7bc ba2c 153b

decoder.2.weight f4 [16, 1, 3, 3]
0.25430787 -0.1502922 0.29106203 -0.08856181 0.25411335 -0.16357134 0.045442566 -0.2691493
0.24280545 0.10646836 0.10779193 0.083094925 0.09412335 0.073075645 -0.0589399 0.25285178
-0.30773246 0.0014097472 0.016055815 0.16297685 -0.3104284 -0.30813822 -0.13801041 0.31733882
0.027302852 -0.21183507 -0.17663918 -0.30043527 -0.071866 0.14754009 -0.22937314 -0.031183321
0.29370013 0.31130624 0.13486488 0.25651738 0.026767258 -0.11962631 -0.12761633 -0.31507048
0.32644674 -0.27538592 -0.09559975 0.13134001 -0.17635395 0.22459956 -0.31680143 0.015434786
-0.18861927 -0.2897517 0.15083161 0.0007390159 -0.23859578 -0.23900934 -0.28619942 -0.023271803
-0.2674466 -0.032892227 0.13313287 -0.15512888 0.11086115 -0.321704 0.11454188 -0.30041856
0.16493951 -0.19293173 -0.3372755 -0.27129412 0.08514355 0.15002869 -0.12749372 0.19483753
-0.08080566 0.11081307 -0.22752915 -0.046423063 0.09952 0.11677781 -0.3135638 0.04546267
0.062185228 -0.26937574 -0.019870339 -0.27189037 0.29504612 0.042379092 -0.055911157 0.1147859
-0.326246 0.1744695 0.29489037 0.25201377 0.009640693 0.050722674 -0.026515823 -0.2233477
-0.28005055 -0.124901555 -0.121260576 0.16837817 0.010380068 0.102792874 0.103964314 0.031241816
-0.23788355 -0.10023028 0.32618904 0.16902798 -0.024715306 0.2466898 -0.20704366 -0.24871868
0.049564607 -0.06308138 0.20525327 -0.092694394 0.1760183 -0.3051997 0.024284126 -0.30303258
0.012997106 -0.0127902925 -0.048066646 0.27403876 -0.14804131 -0.16455334 -0.27139243 -0.12332223
0.08946438 -0.26527828 -0.0077206753 -0.067064874 0.1414935 0.10516108 -0.21370198 -0.17777027
-0.10992671 -0.15103418 0.1164425 0.0749247 -0.12527847 -0.3159262 0.24620576 -0.2469403
00000000: a434 823e 33e6 19be 1506 953e e55f b5bd
00000010: 251b 823e 3f7f 27be fc21 3a3d f0cd 89be
00000020: fea1 783e 150c da3d 04c2 dc3d ac2d aa3d
00000030: bec3 c03d afa8 953d f76a 71bd ca75 813e
00000040: 1c8f 9dbe 44c7 b83a 7c87 833c 67e3 263e
00000050: 79f0 9ebe 4bc4 9dbe 9a52 0dbe 3c7a a23e
00000060: 3baa df3c 4beb 58be e7e0 34be a7d2 99be
00000070: 7b2e 93bd c014 173e cbe0 6abe 2a74 ffbc
00000080: dd5f 963e 8863 9f3e 051a 0a3e 3f56 833e
00000090: 0247 db3c a4fe f4bd dbad 02be eb50 a1be
000000a0: 0724 a73e 62ff 8cbe cdc9 c3bd ff7d 063e
000000b0: 2196 34be 6dfd 653e cc33 a2be 2fe2 7c3c
000000c0: 6925 41be 565a 94be 9a73 1a3e 84ba 413a
000000d0: 7452 74be ddbe 74be bb88 92be 82a4 bebc
000000e0: c3ee 88be 00ba 06bd fc53 083e 1bda 1ebe
000000f0: 2c0b e33d 63b6 a4be ef94 ea3d 76d0 99be
00000100: e7e5 283e e58f 45be 60af acbe 10e7 8abe
00000110: be5f ae3d 1fa1 193e b78d 02be 7d83 473e
00000120: 707d a5bd f6f1 e23d 67fd 68be 1c26 3ebd
00000130: 24d1 cb3d 3429 ef3d 6f8b a0be 1137 3a3d
00000140: f0b5 7e3d 9eeb 89be 1fc7 a2bc 3735 8bbe
00000150: 4910 973e b395 2d3d 1903 65bd df14 eb3d
00000160: b709 a7be 22a8 323e dffb 963e f307 813e
00000170: fff3 1d3c 94c2 4f3d b637 d9bc 42b5 64be
00000180: c962 8fbe 63cc ffbd 7757 f8bd 546b 2c3e
00000190: 2911 2a3c 1285 d23d 3eeb d43d d6ee ff3c
000001a0: bf97 73be 8845 cdbd 4002 a73e ac15 2d3e
000001b0: c177 cabc 409c 7c3e 4103 54be 1cb0 7ebe
000001c0: 4204 4b3d d030 81bd ea2d 523e 8fd6 bdbd
000001d0: 243e 343e 2343 9cbe 81ef c63c 1627 9bbe
000001e0: d0f1 543c 608e 51bc 88e1 44bd cf4e 8c3e
000001f0: 2498 17be ac80 28be f3f3 8abe 5e90 fcbd
00000200: 1a39 b73d 8ed2 87be b8fd fcbb 4f59 89bd
00000210: ace3 103e b15e d73d b1d4 5abe 6909 36be
00000220: 4121 e1bd b4a8 1abe 6879 ee3d 1f72 993d
00000230: 0049 00be 14c1 a1be 5d1d 7c3e ebdd 7cbe
